Pyrado/data/perma/experiments/hop/ppo_adn/2021-10-04_09-40-01/policy.pt (torch, 2798 bytes, 4 tensors)

resting_level f4 [3]
000000 ab 2d 85 be 43 4c 6d 3d ba b0 4d 3f
       -0.26011404 0.057934057 0.8034779

obs_layer.weight f4 [3, 11]
000000 fa d0 ab be 39 02 d2 3e ba 5e 04 3e 47 87 2b bd
       -0.33557874 0.4101732 0.1292676 -0.041877057
000010 cf 57 57 be c0 6e 8e bb 0c f1 e2 3e 9c ce e5 3e
       -0.2102959 -0.0043466985 0.4432453 0.44884193
000020 6d ab fa 3e 7b 11 c8 3d 00 19 d0 be 82 f4 1c be
       0.48958912 0.09768959 -0.40644073 -0.15327647
000030 0e 28 14 3f b4 b3 9a 3d f6 c2 63 be 24 45 f7 3e
       0.5787362 0.07553807 -0.2224234 0.48294938
000040 f1 36 54 3f 6e 29 fc be c4 81 a1 3f d3 c9 fe 3d
       0.82896334 -0.49250358 1.2617726 0.12440839
000050 98 ae 81 3f bb 05 31 be 8c f3 1c 3f 29 05 85 3d
       1.0131407 -0.17287342 0.61309123 0.06495125
000060 c0 93 70 be ca ca c6 bc a1 08 64 be e9 78 50 be
       -0.23493862 -0.02426662 -0.22268917 -0.20358624
000070 83 04 39 bf 6d b2 bf 3c b9 81 0e 3d 71 d6 7b 3e
       -0.7227251 0.02340051 0.034791682 0.24593522
000080 ae 65 07 bf
       -0.52889526

prev_act_layer.weight f4 [3, 3]
000000 f7 ce 17 be 54 8b 31 bf d6 36 84 be a1 fd 0f 3f
       -0.14825045 -0.6935322 -0.25823087 0.5624638
000010 58 35 76 3e 8e 97 7b 3e 20 e0 eb 3e 24 1d ef bd
       0.24043787 0.24569532 0.4606943 -0.1167548
000020 bd 64 72 3e
       0.23671241

pot_to_act_layer.weight f4 [3]
000000 b6 d7 ae be f0 92 3f bf 64 9d 50 3f
       -0.3414895 -0.74833584 0.8149016
