Pyrado/data/perma/experiments/hop/ppo_adn/2021-10-04_09-40-01/vfcn.pt (torch, 8421 bytes, 5 tensors)

net.hidden_layers.0.weight f4 [32, 11]
000000 3e cd 11 3f f0 a4 22 be 25 fa 80 3f cd e0 43 3f
       0.569538 -0.15883231 1.0076338 0.76514894
000010 a5 12 ad 3d 06 3c 5f 3e 20 fe 85 be ca 1b 61 be
       0.08450822 0.21800241 -0.26170444 -0.21983257
000020 ff 63 ac 3d 20 d1 b5 3d d4 91 00 be d8 a7 5c be
       0.0841751 0.08877778 -0.12555629 -0.21548402
000030 6a 0a d7 3f 0c 6e 6a bf 5a 6d 77 3e c7 eb 82 be
       1.6800053 -0.9157417 0.24162808 -0.2557051
000040 27 c6 0a 3c 14 9d b6 be 55 3d e6 bd 60 b7 82 3e
       0.008470095 -0.35666716 -0.11242167 0.2553053
000050 34 93 2c 3e 43 ed 9f bd 9e 96 80 3e 7b d7 0a c0
       0.16853029 -0.07808926 0.25114912 -2.169402
000060 a6 91 9e 3f 9a 23 4b 3f 27 68 a4 bd a9 ce 8f bd
       1.2388198 0.793512 -0.08027678 -0.07021839
000070 82 59 8d 3d d6 fa 1c bb d3 37 5c bc 11 a9 17 3d
       0.06901838 -0.002395322 -0.013441044 0.03702647
000080 d0 ec ab bd 95 4a e0 3d 24 69 f3 bf 4c b0 9d 3f
       -0.08394778 0.109517254 -1.9016461 1.2319427
000090 82 e0 58 3f e6 79 89 3e e8 94 4f be 56 82 0f 3e
       0.8471757 0.26850814 -0.20271647 0.14014563
0000a0 9a b8 73 3d 3b 89 bb bd b6 7f be bd a3 e5 21 3d
       0.05950222 -0.09157034 -0.09301703 0.03952564
0000b0 a1 28 53 3e e0 cd 7f be fa 82 09 bf de fb c1 be
       0.20620967 -0.24980879 -0.5371548 -0.37887472
0000c0 95 98 a2 3e d6 85 e2 3e db 3f e3 3c 60 9b a4 3e
       0.31757036 0.44242734 0.02774041 0.32149792
0000d0 b5 90 33 be 1b b4 38 be b2 0d 0d be d0 ac ca 3e
       -0.1753567 -0.18037455 -0.13774756 0.3958497
0000e0 7c aa dc bf a5 f0 ae 3f 92 9a e5 3d 19 32 69 3d
       -1.7239528 1.3667189 0.112111226 0.056932542
0000f0 2f b8 4f 3e ec 62 06 3d 49 6c 53 be 89 5f 62 3e
       0.20285104 0.032809183 -0.20646776 0.22106756
000100 1a 69 9d 3d 18 dc 1c 3c eb 36 cf be 0a 46 fb 3e
       0.07686062 0.009573959 -0.40471587 0.49076873
000110 14 4a 89 bf de 6e 09 bf 53 a2 96 be b7 41 f4 bc
       -1.0725732 -0.53684795 -0.2942072 -0.029816492
000120 ab 1e 56 3d 1a 4a 1b bd 3d ab c7 3c a9 91 d7 bd
       0.05227534 -0.037912466 0.024373645 -0.10525829
000130 2d 11 28 3c 04 f3 4b 3e 82 0f 25 3f aa 7d e6 be
       0.010258001 0.19916922 0.6447679 -0.4501775
000140 75 ad 62 bf ce 49 09 3f c5 60 3d 3f bd 93 49 be
       -0.88545924 0.5362824 0.73975784 -0.19685264
000150 ea ba 25 3e 6f 15 83 be f9 d8 30 be e5 87 91 bd
       0.16184583 -0.2560229 -0.17270268 -0.07105998
000160 9e a8 bc be 94 94 20 bf d0 45 a1 be 32 06 2b 3e
       -0.36847395 -0.6272671 -0.31498575 0.16701582
000170 89 4b 1a bd 00 4e 4d be c7 53 da be a4 e0 db bc
       -0.037669692 -0.20049286 -0.42642042 -0.026840515
000180 75 4a 23 3d 36 b3 0d be 8c 86 80 bd fd 7e 8e be
       0.03986593 -0.13837895 -0.06275663 -0.2783126
000190 b3 a1 a1 bf 76 2f 3b 3f 10 40 0a 3f 97 5b cc 3e
       -1.2627472 0.73119295 0.54004 0.39913628
0001a0 3e 5f 35 be 69 59 da be e3 47 41 3e 67 41 24 be
       -0.17712113 -0.4264634 0.18875079 -0.16040574
0001b0 73 25 54 bc 52 67 1b 3d 93 7f 24 bf 0e b0 c5 3f
       -0.012948382 0.03794033 -0.6425716 1.5444353
0001c0 2a 5e cf bf 41 63 44 bf 6d a0 6a 3d 53 7d 85 3d
       -1.6200612 -0.7671395 0.0572819 0.06518044
0001d0 1f 9c 13 bf 51 ab 4d bc 91 8e 01 3b 89 dd 00 3d
       -0.57660097 -0.012553052 0.0019768814 0.031461272
0001e0 9f e3 fb 3b 45 e2 29 bf 78 e9 3b 3f eb 29 1e bf
       0.0076870467 -0.66360885 0.7340312 -0.6178271
0001f0 8e d5 0f 3e f6 78 95 be 57 fe 59 be b8 16 8c 3e
       0.14046308 -0.29193848 -0.21288429 0.27361083
000200 79 57 90 bc 70 66 31 bd 6a ba 30 be ec 54 1b be
       -0.017619835 -0.043310583 -0.17258611 -0.15169114
000210 ee 5a 13 bf 50 b3 af be fd 03 10 bf 17 ec 10 3f
       -0.5756062 -0.34316492 -0.56256086 0.56610245
000220 20 d8 63 bf 25 39 05 bf fc 81 f1 3d 4b 98 67 bd
       -0.89001656 -0.5204032 0.11792371 -0.056541722
000230 15 28 cf bc 54 bc 11 3e a2 91 ff bd 5a 11 18 bf
       -0.025287667 0.14231998 -0.12478949 -0.59401476
000240 6e 0b ba 3e d0 d9 95 3d 82 d4 e8 3c 8c 32 ae be
       0.36336845 0.07316935 0.028421644 -0.3402294
000250 b1 c8 92 be 20 33 6c 3e d3 2c 5a bd 8b 5d 84 3d
       -0.2866874 0.23066378 -0.053265404 0.064631544
000260 c6 0c c8 bc 83 8f 89 bd ff 95 db bd 84 46 18 bf
       -0.024420153 -0.06716826 -0.10721969 -0.594826
000270 49 ca 13 3d 13 1d e0 3d 21 c1 cb be 1f 7c 2d bf
       0.036081586 0.109430455 -0.39795783 -0.6776752
000280 61 8e 53 3a cb 47 4c be ee c0 c3 3d 4e 2e f3 3d
       0.00080702273 -0.19949262 0.09558283 0.11874066
000290 41 36 4a bd cd ac 0c 3f 3d 89 dd 3e 12 2b 61 3e
       -0.049368147 0.54951173 0.43268767 0.21989086
0002a0 0a c9 f2 be 16 f2 1b 3e 1b 94 02 be bd 48 10 be
       -0.47419006 0.15229067 -0.1275181 -0.14090247
0002b0 f7 12 95 3e 44 48 f8 bd 6c db a5 3d 1e 42 70 3e
       0.29116032 -0.121231586 0.08098492 0.23462722
0002c0 5a ae 7e 3e f1 e7 c8 bf dc a7 ce 3f 85 c8 78 3f
       0.24871197 -1.5695783 1.6144977 0.9718097
0002d0 be 57 01 3e 31 25 22 be 6a cb 45 3c f7 c5 16 be
       0.12631127 -0.158345 0.0120724235 -0.14723955
0002e0 d2 bc 91 3e 59 83 48 3e b5 a2 81 3c c5 76 1e 3e
       0.2846437 0.19581355 0.015824655 0.15474994
0002f0 b0 99 a3 3f 01 05 20 bf 5f 11 23 bf d3 c2 59 3e
       1.2781277 -0.62507635 -0.6369838 0.21265726
000300 ef 76 34 3f ee d7 05 bf 27 02 29 3e 7d e0 e7 bd
       0.7049398 -0.5228261 0.16504727 -0.113221146
000310 b4 e2 27 bd 60 49 81 3d 50 0f c6 be e0 32 da 3f
       -0.040987685 0.06312823 -0.38683558 1.7046776
000320 03 1f 43 bf 06 3b ec bb 7f d2 64 be b0 a7 58 bc
       -0.76219195 -0.0072091846 -0.22345923 -0.013223574
000330 20 62 a4 3d 19 14 5e 3e 14 7c 0d be 4a c0 d7 b9
       0.08026528 0.21687354 -0.13816863 -0.00041151262
000340 b4 9e 34 bd 89 a3 c8 3e 36 6c fa bf ac 76 7b 3f
       -0.044096664 0.39187267 -1.9564273 0.98227954
000350 39 66 9c be f8 bc e0 3e ab 4d c8 3e f5 e3 0c 3f
       -0.3054674 0.43894172 0.39121756 0.55035335
000360 2e 88 da bd 2c 1a 44 3d e2 25 16 be ff de c8 bd
       -0.106705055 0.047876522 -0.14662889 -0.09808158
000370 ce 3c a2 bd 26 8c f8 3f ee 4d e4 bf 61 25 72 bf
       -0.07921754 1.941777 -1.7836282 -0.94588286
000380 4d 11 33 be 8d 52 ed 3d 7e f4 ac be 09 78 db 3d
       -0.17487068 0.11588011 -0.33780283 0.10716254
000390 62 af 90 bd 47 a6 51 bd 62 2a 3c bd a6 21 0b bf
       -0.070647016 -0.051183965 -0.045938857 -0.5434822
0003a0 ab 6b b5 bf fe 02 5a be af e3 8e be 29 1c 1e 3d
       -1.4173483 -0.21290204 -0.27908084 0.038601074
0003b0 9c 13 02 bd f0 af 9d be b3 70 49 3e 2f 8a 22 be
       -0.031756982 -0.30798292 0.19671898 -0.15873025
0003c0 5b d5 02 be 08 a9 02 be 16 d5 bd 3e af 28 52 bf
       -0.12776701 -0.12759793 0.37076634 -0.8209333
0003d0 ca 1d 08 3b 78 f2 4a bd 2a 21 8b bd e2 0d 32 3e
       0.0020769709 -0.049547642 -0.06793435 0.17388108
0003e0 c0 5b 0c 3d 4f 15 e6 3c d2 7f 89 3e 21 ac db bd
       0.034267187 0.028086333 0.26855332 -0.1072619
0003f0 08 e7 25 3e b2 c8 a3 3e a2 6c 7b bf f5 62 15 3f
       0.16201413 0.31989056 -0.98212636 0.5835412

net.hidden_layers.0.bias f4 [32]
000000 99 f0 c9 3e 3b cb a5 be 61 62 bf 3e 32 4d 7b 3d
       0.39441374 -0.32381615 0.37379745 0.061352916
000010 7b 6b c6 3e a9 4d e1 bc a8 84 e2 be 77 66 fc 3d
       0.38753876 -0.027502852 -0.44241834 0.12324231
000020 65 8b a7 be c5 04 b9 be 26 f3 62 bd 1c 2b fa be
       -0.32723537 -0.3613645 -0.055407666 -0.48861015
000030 3e d4 13 bf 23 00 c7 be 97 bd b3 be 92 d0 18 3f
       -0.5774573 -0.38867292 -0.35105583 0.59693253
000040 e4 5b 0d 3e 12 bb d7 3c a7 e5 a0 be ad b7 88 3e
       0.13804585 0.02633432 -0.3142521 0.26702634
000050 8a 70 4f be 5a 18 10 bf fd 03 d8 3e 93 ce 11 3f
       -0.20257774 -0.5628716 0.42190543 0.5695583
000060 30 4c 0e bf 38 d6 11 3e 28 5b 2b 3e fc 8b 0a 3f
       -0.55585 0.14241874 0.16733992 0.5411985
000070 3e 7f aa be d7 06 a2 be 74 4e 99 3d 43 ea ac be
       -0.33300203 -0.31645843 0.07485667 -0.33772478

net.hidden_layers.1.weight f4 [32, 32]
000000 db ac 16 3f d8 29 1d bf 31 d0 8d 3e 25 60 ff 3b
       0.58857507 -0.61391973 0.276979 0.0077934437
000010 ff 77 d2 3e 08 36 3e 3d 1d 3e 83 be 92 ef d6 3e
       0.41107175 0.046438247 -0.25633326 0.41979653
000020 5f 05 6a be 3a 33 47 be 2a be 9b be 35 95 19 bf
       -0.22853611 -0.19453135 -0.3041852 -0.59993297
000030 96 78 f5 be cd b8 91 be 01 09 ca be 12 79 08 3f
       -0.47943562 -0.28461304 -0.39459994 0.5330974
000040 52 54 d0 3d b4 53 8a 3e 0e 33 97 be 56 f8 b8 3e
       0.10172333 0.27016985 -0.2953114 0.36126965
000050 c9 de 84 bc 90 73 13 bf fe 06 1e 3e 2c 00 49 3f
       -0.016219513 -0.5759821 0.15432355 0.7851589
000060 8d 7e 9f be a3 a2 93 be 36 03 8c be a3 a8 c1 3e
       -0.31151238 -0.2883502 -0.273462 0.37823972
000070 4d e3 91 be 9e b5 28 be a6 f0 f8 bd 57 4c 96 be
       -0.2849373 -0.16475531 -0.12155275 -0.29355118
000080 16 ec 2c 3e c0 f1 91 be 80 99 6e 3e 2d 6a be 3d
       0.16886935 -0.28504753 0.23300743 0.09297595
000090 cf fe cb 3e f3 76 04 3e 74 55 02 bf d7 63 95 3e
       0.3984284 0.12936 -0.5091164 0.29177734
0000a0 ea a6 5d be cb d8 b0 be 49 4c e2 bd 5c 98 44 bf
       -0.21645704 -0.345404 -0.110497065 -0.7679498
0000b0 31 f1 20 bf 0a ae a0 be f9 38 d4 be 1e 2a ff 3e
       -0.6286803 -0.3138278 -0.41449717 0.4983682
0000c0 61 fb 7f 3e 38 7d d8 3e 8f 97 cc be ee 02 96 3d
       0.24998237 0.42283034 -0.3995938 0.073247775
0000d0 2f 8d aa bb 56 42 21 bf a3 44 bc 3e 36 29 98 3e
       -0.0052048187 -0.62991846 0.36771116 0.2971894
0000e0 a8 74 96 bd 14 3c e9 bd dd 18 ba be 42 4c fd 3e
       -0.07346469 -0.11388412 -0.36347094 0.49472243
0000f0 fb 9b 5e be 23 b5 6e be e0 68 8f be 2a 56 1c bf
       -0.2173919 -0.23311286 -0.280097 -0.61068976
000100 e2 e2 46 3f 80 e3 f6 be 75 08 74 3f 6a 00 35 3f
       0.77689946 -0.48220444 0.95325404 0.70703757
000110 3f 8c b3 bd 8f 93 15 3e 62 41 fb be 0a 6a 9e bd
       -0.08766984 0.1460707 -0.4907332 -0.07735069
000120 4a 14 3a 3e e3 07 98 3e b8 d3 10 bf ba f0 19 bd
       0.18171802 0.29693517 -0.5657306 -0.03758309
000130 e0 f0 0f be 89 db cd bd 7d b8 85 3d 2c 3a 4e 3e
       -0.1405673 -0.10051639 0.06529329 0.20139378
000140 b3 fb ed 3e 6a c6 ac 3d dd 12 ef be 99 a4 b3 3e
       0.46481094 0.08436282 -0.4669408 0.35086516
000150 a3 56 10 bf 69 d4 5f bd 0c 95 b2 bd 18 6d bd 3e
       -0.563822 -0.05464593 -0.08719835 0.36997294
000160 d8 42 49 bf c7 90 23 3d 91 f5 ec bd 2b ff 6e 3d
       -0.7861762 0.039932992 -0.115702756 0.058348816
000170 0f 13 ad be d1 ba 13 bf 46 73 00 bf b9 3e d9 bc
       -0.33803603 -0.57706934 -0.50175893 -0.026519166
000180 c4 6f 1e 3e 93 6a 59 3f b5 61 ca be 76 b0 ba be
       0.15472323 0.84928244 -0.3952767 -0.36462754
000190 56 75 2d be cd 70 6d bf 25 6e 24 3d 33 16 0a be
       -0.16939291 -0.92750245 0.040144105 -0.13485031
0001a0 23 5d 97 bd 72 bb 22 be 7e 23 18 3f 62 26 06 3e
       -0.07390811 -0.15891817 0.59429157 0.1310058
0001b0 54 d7 fd bb 6a 3c 65 3e 17 45 2e 3e 53 c3 69 bd
       -0.0077466164 0.22386327 0.17018543 -0.05707104
0001c0 b7 48 3e be 70 0a 3e bd da b9 10 3f 80 92 3a bf
       -0.18582426 -0.046396673 0.56533587 -0.7287979
0001d0 fb 4f 09 3f b5 67 d4 be 1e 9e da bd 1f db 2f bf
       0.53637666 -0.41485372 -0.1067469 -0.6869373
0001e0 cd 97 c3 3e 4b c6 44 bf 42 d9 63 3d 14 0f fe bd
       0.38201752 -0.7686507 0.055627115 -0.1240522
0001f0 a0 c1 72 3f ce a8 5a 3f 0a cf 1e 3e 8a 7d a5 3d
       0.948267 0.85413826 0.15508667 0.08080585
000200 63 fd bf 3e b1 9c 26 bf f2 69 a1 3e 35 51 2b 3e
       0.37498006 -0.6508284 0.31526142 0.16730197
000210 35 a2 72 3e 31 22 1c 3d 76 52 64 be b9 27 5a 3e
       0.2369469 0.038118545 -0.22297081 0.21304215
000220 33 5c 23 be da fc 9e be 35 dd dd be f2 aa eb be
       -0.1595314 -0.31052285 -0.4333283 -0.46028858
000230 53 54 5a be 69 b2 11 bf 05 8e a6 be 6a 9e f6 3e
       -0.2132123 -0.5691286 -0.32530227 0.48167735
000240 69 8a f7 3d c8 9a bb 3e f4 df 08 be d1 14 94 3e
       0.120869465 0.36641526 -0.13366681 0.28922132
000250 01 b3 aa bd 3e 48 f1 be b1 80 35 3e c7 25 48 3f
       -0.083349235 -0.4712543 0.17724873 0.78182644
000260 99 8f 7f be f3 70 4a be bb f1 9e be 9d 3e ca 3e
       -0.24957122 -0.19769649 -0.310438 0.39500895
000270 84 87 64 be 90 39 be bd 41 ad bb bd 77 ad d8 be
       -0.2231732 -0.09288323 -0.09163905 -0.42319843
000280 ad e3 a6 3e 6b 5b 23 be 69 69 8f 3e f0 8f 41 3e
       0.32595578 -0.15952842 0.2801011 0.18902564
000290 3e 15 f6 3e f6 5a 09 3e 59 02 a7 be f9 e7 42 3e
       0.48063082 0.13413605 -0.3261898 0.19033803
0002a0 d0 0c da be f1 e9 e5 be 6e de ef bd 84 01 0c bf
       -0.425879 -0.44905046 -0.11712347 -0.5468981
0002b0 f2 91 4e bf 0a 03 b7 be b6 35 1e bf b2 ba d4 3e
       -0.80691445 -0.35744506 -0.61800706 0.41548687
0002c0 b9 ab 51 3e 8b d4 dc 3d 0e 9b 9f be 45 c8 00 3e
       0.20475663 0.10782727 -0.31172985 0.12576397
0002d0 e5 23 12 3e db 9f 2e bf 62 14 f5 3e 93 52 f4 3e
       0.14271505 -0.6821267 0.47867113 0.4771925
0002e0 6f 86 97 bd 71 06 ca be 01 a7 74 be 4f e4 98 3e
       -0.07398688 -0.3945804 -0.23891832 0.29861686
0002f0 7c 59 9b be 65 e5 4d be 8c f8 4f be c6 42 f2 be
       -0.3034171 -0.20107038 -0.20309657 -0.4731657
000300 3d 1f d1 be 57 a6 fc 3e 1e 83 2f bf 8a bf 92 be
       -0.40844145 0.49345657 -0.68559444 -0.28661758
000310 4b a2 47 be 54 64 87 bf 66 66 b9 3e bd 12 e9 3d
       -0.19495504 -1.0577493 0.36210936 0.11380527
000320 5d 01 8c 3d 6e d2 07 3b 15 f7 3f 3f 6a f6 f7 3d
       0.068361975 0.002072479 0.7498639 0.12107547
000330 bc 5c b9 3d b9 6c 30 3e f6 9d 8f bd d7 fa e3 bc
       0.09050891 0.17228974 -0.070125505 -0.02782957
000340 04 ad bb bd 9a 10 22 be 55 2e 16 3f 46 7d 38 bf
       -0.091638595 -0.15826645 0.5866445 -0.7206615
000350 85 a8 b7 3e 72 7e c6 bd 8e 0a 12 be f8 e3 06 bf
       0.35870758 -0.09692086 -0.14261839 -0.526916
000360 10 0d b4 3e 00 37 54 bd 18 f5 b9 3d 68 f4 88 3d
       0.35166216 -0.051810265 0.09079951 0.06687242
000370 27 9a 64 3f 23 8d 2b 3f 8f cd bd 3e fe 74 fb 3d
       0.8929772 0.6701223 0.3707089 0.12278174
000380 87 40 3e bf cd 15 04 3e a7 8a 29 be 1e e6 a6 be
       -0.7431721 0.12898941 -0.16556798 -0.3259744
000390 db 5b 78 be ef 8b 9d bd cf 6a f6 3e 9c b9 8d bd
       -0.2425379 -0.07692706 0.48128363 -0.06920168
0003a0 e4 ac 88 3e 43 e3 ca 3d 90 35 09 3f e5 5f ef 3e
       0.26694405 0.09906628 0.53597355 0.4675285
0003b0 ac d6 9b 3e c4 f8 86 3e b3 14 c2 3e c8 28 ba be
       0.3043722 0.26361668 0.37906417 -0.3635924
0003c0 26 51 1d be d6 d4 49 be dd c8 af 3c 2d bb 9f bd
       -0.15362987 -0.19710097 0.021458084 -0.07799373
0003d0 5a 8b 86 3e 1c 25 39 3f a0 dd 7a be 23 59 a2 be
       0.26278192 0.7232225 -0.24498606 -0.3170863
0003e0 7e 5f 51 3e 1b 76 2c 3f 77 3e 74 3e 6f 6e e2 be
       0.20446584 0.67367715 0.23851953 -0.4422488
0003f0 92 27 38 be 6b 78 2c 3e 3c 1a a3 3e 5a db ec 3e
       -0.17983845 0.16842811 0.31855953 0.46261102

net.hidden_layers.1.bias f4 [32]
000000 6d 2f a7 3e 97 2d 40 3e 6d c5 41 3e 7f 62 8e 3d
       0.3265337 0.18767391 0.18922968 0.069523804
000010 e4 46 f5 3d 7a f0 b7 3e ad 54 86 bd 44 c3 0b be
       0.11976412 0.35925657 -0.065591194 -0.13648707
000020 a3 51 83 be 0c ec 48 be e0 f5 3e 3d 20 fd 61 be
       -0.2564822 -0.19621295 0.046621203 -0.22069216
000030 82 ea 8d be 91 1b 5b 3d cd 86 34 be 9b 09 cc 3d
       -0.27717978 0.053493086 -0.17629547 0.099627696
000040 1e b2 5e 3d 39 29 4d 3e 21 87 8c be 7e 76 b6 3d
       0.054369085 0.20035256 -0.27446845 0.08909319
000050 fa f8 94 bd 01 a3 7b be d4 78 74 bd 79 53 00 be
       -0.07274051 -0.245739 -0.059685543 -0.12531842
000060 b2 da 50 3e 0f b6 66 3e 9d ef 58 3d 16 cd 90 bd
       0.20395926 0.22530387 0.052962888 -0.07070367
000070 69 71 6f be 0e 53 cb bd d2 ac da bb fe af f6 3a
       -0.23383106 -0.09927951 -0.006673434 0.001882076

net.output_layer.weight f4 [1, 32]
000000 ea 68 96 40 c4 cb 93 40 b0 bd 96 40 57 81 9b c0
       4.700307 4.6186237 4.710655 -4.8595386
000010 f8 45 9a 40 c9 b9 93 40 18 a7 96 c0 67 96 97 c0
       4.821041 4.616429 -4.707897 -4.7371097
000020 ab 4c 99 40 8a 04 95 c0 ba c0 9c c0 9e c7 97 c0
       4.790609 -4.656804 -4.898526 -4.7431173
000030 aa d5 96 c0 7c fd 9b c0 98 31 97 c0 27 cb 9a 40
       -4.713582 -4.874693 -4.724804 4.837299
000040 97 cf 96 40 56 a1 96 40 f7 4f 96 c0 05 93 9a 40
       4.7128406 4.7071943 -4.6972613 4.8304467
000050 8e 02 97 c0 eb 50 98 c0 57 f8 99 40 1c 3d 9a 40
       -4.719062 -4.7598777 4.811565 4.8199596
000060 c6 6a 96 40 0c 90 95 c0 97 56 99 40 33 bf 96 40
       4.700534 -4.673834 4.79182 4.7108397
000070 43 ab 98 c0 49 c9 9a 40 ee 43 9a c0 9e 1b 9c 40
       -4.770906 4.837071 -4.820792 4.8783712
