Pyrado/data/perma/experiments/hop/ppo_adn/2021-11-17_16-55-03/policy.pt (torch, 2533 bytes, 4 tensors)

resting_level f4 [3]
00000000: 4e2a 713c 64e9 803f b97d 18bf
0.014719559 1.0071225 -0.5956684

obs_layer.weight f4 [3, 11]
00000000: 43f3 bd3e aeac 14c0 b26b 3dbd 4936 84be
00000010: cd3f d9be 97a0 1cbe 45e3 763e dc8c 7fbf
00000020: 42f9 cebe 3fb4 66be 82f9 aabb 911f fb3e
00000030: 96ce 6bbf 8cd9 143f 72cf d0be f780 6cbd
00000040: 4b97 45bf a4d1 2abf c7aa 41bf 6cf3 dd3d
00000050: 6c49 71be b5f8 dbbc 2b7e 3fbe 916e bf3e
00000060: eedd 57bf 2124 a4be 663e 403f 033d 503f
00000070: c74c 2b3f bf39 5c3e 699c bbbd 43d3 3cbe
00000080: 7e35 023e
0.37099656 -2.3230395 -0.046245284 -0.25822666 -0.4243149 -0.15295635 0.24110134 -0.9982431
-0.40424544 -0.22529696 -0.005217732 0.4904752 -0.921121 0.5814445 -0.40783268 -0.057740178
-0.7718398 -0.66726136 -0.7565121 0.10837445 -0.23563164 -0.026851991 -0.18700473 0.37389043
-0.8432301 -0.32058814 0.7509521 0.81343096 0.6691403 0.21506403 -0.09160692 -0.18439965
0.12715718

prev_act_layer.weight f4 [3, 3]
00000000: 1883 89be a5d2 31be 7ef0 793e 3cd2 ce3e
00000010: 227b 923f 646a c4be b17a e53d f271 1ebe
00000020: 89a8 40bf
-0.2685783 -0.17365511 0.24408147 0.4039477 1.1443827 -0.3836242 0.11205042 -0.15473154
-0.75257164

pot_to_act_layer.weight f4 [3]
00000000: 3b10 6c3f 87ea 243f bd52 9ebf
0.92212266 0.6442036 -1.2369
