Pyrado/data/perma/experiments/hop/ppo_adn/2021-11-17_16-55-03/vfcn.pt (torch, 8421 bytes, 5 tensors)

net.hidden_layers.0.weight f4 [32, 11]
0.5038855 -1.9054577 0.849982 0.101530746 0.5592303 0.9672638 -0.24251795 -0.59843606
0.28299367 0.07568791 -0.051367562 0.94638884 -1.7218524 0.9893627 0.95617646 0.15791745
-0.34086072 -0.112821385 -0.16156378 0.22147001 0.034600575 -0.06308997 0.43090963 -0.79631084
0.38492465 0.73218006 0.33862567 1.5920868 -0.18550688 -0.023868613 -0.0191342 0.15873909
-0.01890587 -0.20899405 1.4136281 0.48665598 -0.12280069 -0.38908872 -0.53632385 0.35312596
-0.5435785 0.38728163 0.34511286 -0.0317515 0.29421225 3.655287 0.76512444 -0.40786526
0.549787 -0.6032981 -1.071632 0.439907 -0.31591702 -0.18391792 0.010785158 -0.5629357
3.0001042 -1.4130718 -1.4930738 -0.2615089 -0.0033821655 -0.60681015 -0.16955844 0.2370079
0.18580726 0.09733792 0.11918096 1.9482305 -1.2847596 -1.4699818 -0.03495615 0.08799615
-0.18393564 0.9616882 -0.8872248 -0.48279813 -0.21378566 -0.46172163 -1.713931 1.4545952
0.06979959 0.6119098 0.49076056 0.022869686 -0.8088243 0.6473864 0.3132253 0.05965959
0.61724997 1.0885972 1.0243653 2.861195 0.91926086 -0.76027435 0.10872474 0.09191646
-0.0911355 -0.0094171455 -0.06524571 0.37955105 -3.3517654 2.0107095 1.2191961 -0.30851796
-0.29933187 -0.26631826 0.33479932 -0.30279538 -0.078012004 -0.06088826 0.23060413 3.954039
-0.77203435 -0.02718307 0.68435496 -0.1215833 -0.24906187 0.25284374 -0.21215777 -0.1382179
0.084946275 0.37973174 -4.0289187 1.28193 -0.19355403 0.24746746 0.055368997 0.61303806
0.067479834 -0.035726745 0.042183183 -0.007887447 -0.18332835 2.1016526 -1.170491 -2.4284415
-1.9723088 0.10809817 -0.25707698 -0.96746975 0.7324391 0.39747527 0.008203298 0.18917504
-3.060886 0.43833145 0.06006431 0.7500827 0.494067 0.2833034 -0.36625943 0.2057614
0.045369018 0.005211106 -0.30541778 0.39757037 0.41838083 -1.411979 -0.7383554 -1.1168981
-0.36691833 0.13179596 -0.0023950571 0.06833011 -0.15657715 -0.37163574 0.66502607 -0.6787885
0.40099117 0.8002263 0.0927162 -0.41570383 -0.9602316 0.82932657 0.41987205 0.07569494
-0.38582486 3.5039713 -0.80003464 -1.4298162 0.862996 -0.37062067 -0.59561133 -0.19870529
0.25572482 0.10063183 -0.005730161 -0.688858 1.6822473 0.011057975 2.8486178 1.3538829
0.045588274 -0.55756867 0.41009945 -0.3152491 -0.15963651 -0.04831947 -0.5280458 -3.0211046
1.6471589 0.62937295 -0.38333523 -0.32114118 -0.1917046 0.18912612 -0.27310023 0.08051453
0.006294918 0.12818864 2.1064217 -1.4698427 0.40501598 0.4905786 0.9922316 -0.21553327
0.5708429 -0.5096529 -0.31354153 -0.14236677 0.06635447 -1.0089755 2.1464915 0.5388366
-1.0120461 -0.95116425 0.055100653 -1.409361 1.346374 0.80605364 0.1600715 0.9605145
-1.5237632 1.5538577 0.75543857 -0.37192932 -0.3468193 0.39662012 0.33655044 -0.26949558
-0.07782239 0.079925 0.74180895 -1.7402537 2.3898108 0.59434617 -0.01011778 -0.5800113
-0.51208293 -0.5404279 0.45889562 0.29482755 0.12945323 0.5955931 0.9772844 0.52761
00000000: a4fe 003f 0ae6 f3bf 6c98 593f 5aef cf3d
00000010: b829 0f3f 9a9e 773f a056 78be 1b33 19bf
00000020: 8ce4 903e 4302 9b3d cb66 52bd 8a46 723f
00000030: a965 dcbf e046 7d3f fbc7 743f 1db5 213e
00000040: 4c85 aebe e60e e7bd fa70 25be 09c9 623e
00000050: 55b9 0d3d 5035 81bd 30a0 dc3e 07db 4bbf
00000060: d814 c53e 2770 3b3f 5860 ad3e 80c9 cb3f
00000070: 84f5 3dbe 1c88 c3bc 53bf 9cbc 808c 223e
00000080: 7ce0 9abc 8902 56be c4f1 b43f f92a f93e
00000090: ee7e fbbd a336 c7be 854c 09bf edcc b43e
000000a0: f627 0bbf c749 c63e a2b2 b03e dc0d 02bd
000000b0: fda2 963e 39f0 6940 32df 433f b7d3 d0be
000000c0: d7be 0c3f bf71 1abf 3d2b 89bf 7e3b e13e
000000d0: e0bf a1be fb54 3cbe 3bb4 303c 8e1c 10bf
000000e0: b501 4040 89df b4bf 0b1d bfbf 7fe4 85be
000000f0: 52a7 5dbb e957 1bbf baa0 2dbe 33b2 723e
00000100: 4244 3e3e 1a59 c73d 2615 f43d 9e5f f93f
00000110: 0173 a4bf 5d28 bcbf 2e2e 0fbd 5337 b43d
00000120: a059 3cbe 3331 763f 2a21 63bf 5131 f7be
00000130: a1ea 5abe c766 ecbe 1762 dbbf 2d30 ba3f
00000140: 16f3 8e3d 1fa6 1c3f f844 fb3e 3559 bb3c
00000150: 1c0f 4fbf 1dbb 253f 115f a03e 9d5d 743d
00000160: 1804 1e3f 2757 8b3f 671e 833f d21d 3740
00000170: ae54 6b3f 57a1 42bf 14ab de3d b23e bc3d
00000180: 40a5 babd 5f4a 1abc 8b9f 85bd 8454 c23e
00000190: 5383 56c0 77af 0040 9e0e 9c3f 11f6 9dbe
000001a0: 0742 99be de5a 88be d16a ab3e ff07 9bbe
000001b0: c2c4 9fbd f865 79bd 7d23 6c3e fa0e 7d40
000001c0: 0ba4 45bf 08af debc e331 2f3f aa00 f9bd
000001d0: 130a 7fbe bc74 813e e33f 59be fe88 0dbe
000001e0: 50f8 ad3d 336c c23e e7ec 80c0 4816 a43f
000001f0: 0733 46be 1c68 7d3e 9aca 623d 10f0 1c3f
00000200: de32 8a3d 3556 12bd 46c8 2c3d 5a3a 01bc
00000210: 6dba 3bbe 7a81 0640 a6d2 95bf 966b 1bc0
00000220: 9d74 fcbf 9362 dd3d 989f 83be 19ac 77bf
00000230: 2181 3b3f e181 cb3e 2067 063c 1ab7 413e
00000240: 8ee5 43c0 fb6c e03e fe05 763d 6b05 403f
00000250: 5af6 fc3e 250d 913e 5b86 bbbe 1eb3 523e
00000260: ddd4 393d edc1 aa3b b85f 9cbe 588e cb3e
00000270: 0336 d63e babb b4bf dc04 3dbf 84f6 8ebf
00000280: b8dc bbbe 85f5 063e 64f6 1cbb a8f0 8b3d
00000290: c355 20be 0a47 bebe 263f 2a3f 15c5 2dbf
000002a0: b74e cd3e a1db 4c3f fee1 bd3d 22d7 d4be
000002b0: bdd1 75bf bf4e 543f 78f9 d63e f305 9b3d
000002c0: d68a c5be 1141 6040 12cf 4cbf 3804 b7bf
000002d0: 4eed 5c3f fec1 bdbe fc79 18bf 6679 4bbe
000002e0: 5dee 823e 1018 ce3d 13c4 bbbb ff58 30bf
000002f0: e153 d73f 822c 353c c14f 3640 094c ad3f
00000300: c5ba 3a3d d2bc 0ebf 8ef8 d13e 5468 a1be
00000310: c177 23be a3ea 45bd 022e 07bf c759 41c0
00000320: 1ad6 d23f 961e 213f 8444 c4be 9e6c a4be
00000330: 364e 44be 47aa 413e cbd3 8bbe cde4 a43d
00000340: 9945 ce3b e243 033e 9dcf 0640 ce23 bcbf
00000350: 415e cf3e 1e2d fb3e e402 7e3f c1b4 5cbe
00000360: c322 123f 9d78 02bf 8488 a0be 98c8 11be
00000370: dae4 873d 1c26 81bf 1e60 0940 32f1 093f
00000380: ba8a 81bf 807f 73bf 39b1 613d f165 b4bf
00000390: fc55 ac3f 8859 4e3f c9e9 233e 47e4 753f
000003a0: ac0a c3bf cfe4 c63f 6c64 413f 856d bebe
000003b0: 4d92 b1be cb11 cb3e 5750 ac3e 53fb 89be
000003c0: 5861 9fbd b8af a33d 31e7 3d3f a2c0 debf
000003d0: a9f2 1840 1227 183f 0cc5 25bc 9f7b 14bf
000003e0: de17 03bf 7c59 0abf 5ef4 ea3e a3f3 963e
000003f0: 638f 043e ca78 183f 4f2f 7a3f 7311 073f

net.hidden_layers.0.bias f4 [32]
-0.004243391 0.55400026 0.5078144 -0.4233475 -0.33054256 -0.30107903 0.08609259 -0.45421484
0.8347654 -0.1899297 -0.42555675 0.0522157 -0.27573365 0.2656256 -0.5084934 -0.14798738
-0.6660496 0.19379127 -0.59147424 0.5263988 0.09409996 0.72254455 0.14100751 1.0982807
0.35732645 -0.24798912 -0.39018333 -1.2087216 0.33978227 -0.36559436 -0.53975976 0.1346285
00000000: 250c 8bbb f6d2 0d3f 2000 023f 01c1 d8be
00000010: e03c a9be 0827 9abe 5051 b03d d98e e8be
00000020: 2fb3 553f ee7c 42be 93e2 d9be 21e0 553d
00000030: f62c 8dbe 1400 883e a02c 02bf 018a 17be
00000040: 3a82 2abf 3871 463e db6a 17bf 12c2 063f
00000050: 7bb7 c03d aef8 383f 4664 103e 7694 8c3f
00000060: 7ef3 b63e dcf0 7dbe 1cc6 c7be 64b7 9abf
00000070: f1f7 ad3e 2f2f bbbe b22d 0abf 0edc 093e

net.hidden_layers.1.weight f4 [32, 32]
0.35098207 1.1403974 0.30079886 -0.21589983 0.8808211 -0.053785387 -0.5357489 1.6131846
0.69865155 1.3744475 -0.40757537 1.7886238 -0.5466724 0.72246796 -0.15705326 -0.46935663
0.347308 0.5283259 -0.15363261 0.3762743 -0.18089625 1.1970357 1.1804975 1.5394261
1.1901244 0.7039899 -0.0026040848 0.5305079 0.58908886 -1.2770102 -1.6426739 1.0125017
-0.8248895 1.3388945 -0.44875726 0.35940117 -0.98051316 0.35827473 -0.38249853 0.23752083
-0.23440589 0.63249177 0.7179179 0.35900527 -0.42755902 0.05961291 -0.16512625 -0.06756112
-0.24054612 -0.5036597 0.6623711 -0.15964048 -1.2553518 0.68289626 -0.46589288 0.33275825
0.40784863 0.0573486 1.2184672 -1.2465264 1.0210369 -0.11863412 -0.5830307 -0.2748213
0.35875627 -0.6091909 0.4770959 -0.37485012 0.60363734 -0.7158589 -0.010751646 0.57500374
0.6080238 -0.4435014 -1.154975 0.25645298 -0.27538553 0.10986061 -0.8306502 -0.124189146
-0.068949245 1.0830195 -0.5623152 0.26924923 1.8729031 -0.5780489 1.8532387 1.633379
-0.26022723 0.6897671 -1.8290814 1.7302269 0.4780037 -0.36473295 -1.1520658 1.358469
0.7439567 0.08932565 0.46655947 -0.43901175 -0.5181903 -0.3047263 -0.13787101 0.57163364
0.9771827 0.45324618 -0.3981939 0.570678 -0.7244633 0.5908128 0.09389585 -0.72020245
0.23569967 -0.8390077 -0.36147064 0.3420444 0.055978272 0.41719052 -0.41538978 1.0190725
0.61094034 0.010789867 0.212299 -0.92004514 -0.40181953 -0.49271062 -0.41717196 0.3691067
-1.0679293 0.1757316 -0.6921591 0.4499839 -0.6723474 -0.06832333 1.2748386 -0.54626167
-0.3543569 -1.1666851 1.2645552 -0.6605768 0.5664437 -1.2047718 1.4328659 0.34770855
0.7162715 -0.25218698 0.682469 -0.29653606 -1.353783 0.46137664 -0.8416666 -0.12092039
-0.41972613 -0.08288998 -0.125721 -0.13085356 -0.33028787 0.30594036 -0.17754693 -1.0571057
0.6490772 -0.48403206 0.7879338 -0.67631435 0.527681 1.7574142 1.1250166 -1.8164762
0.50102603 -1.7486851 1.6322837 -1.8622831 0.62936246 0.41770363 -0.28832272 -1.2271148
1.0642948 0.71006835 -0.85424507 1.0870317 -0.35938776 -0.016772369 -0.85859126 0.30018604
-1.2242633 -0.87857854 -1.539254 -0.37180972 -0.69238394 -3.3016002 0.16514048 -0.63548356
0.6534096 -0.43226737 0.6780508 -0.42493352 0.50062555 1.1252543 1.1125469 -1.3979765
0.21914405 -1.3514699 1.4038112 -1.5540998 0.39541557 0.4035856 0.04888399 -1.329009
0.99688727 0.7971661 -1.0174155 1.2021592 -0.3252269 -0.14096832 -0.762499 0.055094928
-0.892928 -0.94498575 -1.5752517 -0.20187725 -0.77143925 -2.785601 0.2904569 -0.6448556
0.6196232 -0.45800558 0.93229175 -0.40044403 0.39385578 1.2958852 1.1463367 -1.0582838
0.1252955 -1.3464706 1.3202534 -1.4652712 0.3361748 0.2462917 0.090440854 -1.1240712
0.85511535 0.85048974 -1.0417407 1.2388511 -0.4558011 -0.1485439 -0.7539795 0.03577015
-0.8424281 -0.9076277 -1.642841 -0.23807201 -0.7970564 -2.7774398 0.614119 -0.53785574
00000000: ecb3 b33e 8bf8 913f 4f02 9a3e d814 5dbe
00000010: 7e7d 613f 114e 5cbd d726 09bf d57c ce3f
00000020: d4da 323f e5ed af3f b8ad d0be a0f1 e43f
00000030: b9f2 0bbf a9f3 383f 92d2 20be 834f f0be
00000040: 5bd2 b13e 5e40 073f de51 1dbe 06a7 c03e
00000050: de3c 39be 7738 993f 8b1a 973f ea0b c53f
00000060: ff55 983f af38 343f 4ba9 2abb 5ecf 073f
00000070: 87ce 163f 1275 a3bf 2343 d2bf a899 813f
00000080: f52b 53bf e560 ab3f 83c3 e5be 6e03 b83e
00000090: e902 7bbf c96f b73e d9d6 c3be a938 733e
000000a0: 1908 70be fbea 213f 78c9 373f 8acf b73e
000000b0: 04e9 dabe ab2c 743d db16 29be 7c5d 8abd
000000c0: b951 76be d8ef 00bf 2791 293f cb78 23be
000000d0: 5eaf a0bf 4ad2 2e3f 8389 eebe 4a5f aa3e
000000e0: 89d1 d03e 5ee6 6a3d bcf6 9b3f 2d8e 9fbf
000000f0: 56b1 823f 72f6 f2bd 8041 15bf 61b5 8cbe
00000100: e7ae b73e eff3 1bbf ea45 f43e 5bec bfbe
00000110: fa87 1a3f 8742 37bf ac27 30bc 7233 133f
00000120: 73a7 1b3f 9e12 e3be 39d6 93bf ce4d 833e
00000130: 55ff 8cbe 99fe e03d 7ea5 54bf e156 febd
00000140: 4335 8dbd 62a0 8a3f e4f3 0fbf 09db 893e
00000150: 4abb ef3f 03fb 13bf ed36 ed3f 9012 d13f
00000160: 813c 85be 9494 303f 571f eabf 1378 dd3f
00000170: e7bc f43e 47be babe e476 93bf 50e2 ad3f
00000180: f273 3e3f 5ef0 b63d e2e0 ee3e 26c6 e0be
00000190: 1fa8 04bf 1605 9cbe 0f2e 0dbe 9556 123f
000001a0: a528 7a3f e20f e83e 12e0 cbbe f417 123f
000001b0: 6d76 39bf 823f 173f 784c c03d 305f 38bf
000001c0: 415b 713e 35c9 56bf ae12 b9be 7220 af3e
000001d0: 7949 653d ff99 d53e f8ad d4be f870 823f
000001e0: 9666 1c3f fbc7 303c e964 593e 1488 6bbf
000001f0: 4abb cdbe 9144 fcbe 9097 d5be 8efb bc3e
00000200: e8b1 88bf fcf2 333e 5731 31bf 4a64 e63e
00000210: f61e 2cbf 1aed 8bbd e92d a33f ced7 0bbf
00000220: 456e b5be f055 95bf f2dc a13f 901b 29bf
00000230: 7402 113f f635 9abf 2668 b73f db06 b23e
00000240: 925d 373f a71e 81be 4ab6 2e3f 93d3 97be
00000250: c348 adbf 8f39 ec3e 7677 57bf 1ca5 f7bd
00000260: 58e6 d6be 39c2 a9bd 01bd 00be 7afe 05be
00000270: 7e1b a9be 37a4 9c3e ddce 35be 3d4f 87bf
00000280: ec29 263f 0dd3 f7be 08b6 493f f022 2dbf
00000290: 1a16 073f f3f2 e03f 8b00 903f 4b82 e8bf
000002a0: 3e43 003f ead4 dfbf acee d03f 4b5f eebf
000002b0: e61d 213f 40dd d53e 099f 93be 1912 9dbf
000002c0: d03a 883f 0ac7 353f ceaf 5abf db23 8b3f
000002d0: ac01 b8be 3566 89bc a3cc 5bbf fcb1 993e
000002e0: a9b4 9cbf 86ea 60bf 4606 c5bf d85d bebe
000002f0: 1340 31bf 6b4d 53c0 961a 293e 0daf 22bf
00000300: da45 273f 2652 ddbe bd94 2d3f e390 d9be
00000310: ff28 003f 5508 903f f067 8e3f e5f0 b2bf
00000320: 4c67 603e f7fc acbf 16b0 b33f beec c6bf
00000330: e973 ca3e c6a2 ce3e 943a 483d f81c aabf
00000340: 0134 7f3f 1413 4c3f ac3a 82bf 5ae0 993f
00000350: 2484 a6be 005a 10be 2233 43bf 38ab 613d
00000360: ee96 64bf 96ea 71bf d9a1 c9bf e9b8 4ebe
00000370: 0b7d 45bf 4947 32c0 c4b6 943e 4215 25bf
00000380: a09f 1e3f b57f eabe acaa 6e3f 0007 cdbe
00000390: 77a7 c93e 91df a53f 29bb 923f d875 87bf
000003a0: 774d 003e 2659 acbf 10fe a83f 028e bbbf
000003b0: 1a1f ac3e e433 7c3e 0e39 b93d 91e1 8fbf
000003c0: d7e8 5a3f b2b9 593f c257 85bf ac92 9e3f
000003d0: c35e e9be e41b 18be cd04 41bf b983 123d
000003e0: 5ea9 57bf 4a5a 68bf 9d48 d2bf 26c9 73be
000003f0: e30b 4cbf 93c1 31c0 e736 1d3f eab0 09bf

net.hidden_layers.1.bias f4 [32]
0.22627045 -0.20108499 0.5691229 0.25325945 -0.46415886 0.66108906 0.61384356 0.663535
-0.8177 0.68031776 -0.6216493 0.60335296 -0.52033955 -0.045824535 -0.5146877 -0.02401686
0.0723621 0.42819476 -0.60131186 0.25681457 -0.47034743 0.026944121 0.4365319 -0.20488282
0.10812729 0.21531972 -0.95535886 0.42345065 0.86127627 -0.7357928 -0.35417002 -0.16723067
00000000: 71b3 673e 39e9 4dbe 0ab2 113f 39ab 813e
00000010: 3ba6 edbe 223d 293f da24 1d3f 6edd 293f
00000020: ca54 51bf 4e29 2e3f 6924 1fbf 5775 1a3f
00000030: f934 05bf 82b2 3bbd 93c2 03bf 02bf c4bc
00000040: 9532 943d 583c db3e 93ef 19bf 337d 833e
00000050: 61d1 f0be ebb9 dc3c 1c81 df3e cdcc 51be
00000060: d771 dd3d c67c 5c3e 6692 74bf 86ce d83e
00000070: 9a7c 5c3f eb5c 3cbf c655 b5be 843e 2bbe

net.output_layer.weight f4 [1, 32]
14.348051 -15.635148 14.718443 14.05522 -14.472907 16.136381 15.453852 15.258036
-16.057358 16.085403 -16.058262 15.634317 -14.646649 -14.393843 -15.671325 -14.466138
14.015627 14.606715 -14.757611 14.211492 -14.991701 14.120828 14.630331 -15.319307
14.266827 14.10473 -14.153404 14.825578 16.143213 -14.178297 -14.967695 -14.736833
00000000: 9e91 6541 9129 7ac1 be7e 6b41 2ee2 6041
00000010: 0791 67c1 4f17 8141 fa42 7741 ea20 7441
00000020: 7875 80c1 e8ae 8041 5277 80c1 2a26 7a41
00000030: ad58 6ac1 2e4d 66c1 bfbd 7ac1 4d75 67c1
00000040: 0240 6041 1bb5 6941 2d1f 6cc1 4562 6341
00000050: 02de 6fc1 e9ee 6141 d615 6a41 e21b 75c1
00000060: ec44 6441 f9ac 6141 5874 62c1 9135 6d41
00000070: 4d25 8141 4eda 62c1 ae7b 6fc1 11ca 6bc1
