Pyrado/data/perma/experiments/hop/ppo_adn/2021-11-19_11-50-55/policy.pt (torch, 2798 bytes, 4 tensors)

resting_level f4 [3]
000000 ea c3 b6 bf 0b f5 14 3f 0d 59 91 3f
       -1.4278538 0.58186406 1.1355301

obs_layer.weight f4 [3, 11]
000000 99 db 57 3e 57 e4 36 bf 83 38 4a bf ca 0f 09 3f
       0.21079864 -0.7144217 -0.7899248 0.5353972
000010 3c bb 1b bf 95 06 32 bf 96 98 13 3e 51 14 98 bf
       -0.6083257 -0.69541293 0.14413676 -1.18812
000020 d3 02 d3 be b1 d2 0c bf d2 41 52 3d d2 a2 5c be
       -0.41213092 -0.5500899 0.051332302 -0.21546486
000030 23 62 c8 3f 05 29 68 be ae 3a b8 be f0 5a c3 3e
       1.5654949 -0.22671898 -0.3598227 0.38155317
000040 0e a1 9a 3f 58 ef 64 3f f0 72 06 40 ae 58 bf 3e
       1.20804 0.8942771 2.1007652 0.37372345
000050 9f bd b7 3f 9c 67 80 bc d1 21 b0 bf e7 f4 fe 3d
       1.4354743 -0.015674405 -1.376032 0.12449055
000060 c1 8f bc be 5e 72 8c 3d a1 6c 9c 3c 53 85 ae 3e
       -0.36828426 0.06857751 0.019094767 0.34086093
000070 52 5a c0 3f 12 cf 1e 3d 76 e0 f8 3b 5d c9 54 3e
       1.5027564 0.038771696 0.007595117 0.20779939
000080 d1 82 99 3f
       1.1993047

prev_act_layer.weight f4 [3, 3]
000000 87 07 a9 bf 4b 20 9d be ec 33 88 3e 62 ee e8 3e
       -1.3205422 -0.306887 0.26602113 0.45494372
000010 6b c0 96 3f 85 90 8e be cd ee 16 bf 3d 29 1e 3f
       1.1777471 -0.27844635 -0.5895813 0.61781675
000020 f1 07 2d 3f
       0.6759024

pot_to_act_layer.weight f4 [3]
000000 70 cb e6 3e ef 16 b8 be 20 06 80 be
       0.45077085 -0.35954997 -0.25004673
