Pyrado/data/perma/experiments/hop/ppo_adn/2021-11-19_11-50-55/vfcn.pt (torch, 8421 bytes, 5 tensors)

net.hidden_layers.0.weight f4 [32, 11]
0.35476437 -0.6126323 -0.85280645 0.7886957 0.48869282 0.3977438 0.38016215 0.059414
-0.25493005 -0.020322744 0.11575976 0.24020395 -2.2908647 1.8211513 0.13718511 0.13929923
-0.20202343 -0.17124768 0.15753734 -0.08686739 -0.049402397 0.04611464 0.3094683 1.2301517
0.6171016 0.48593593 0.43387592 0.55167973 0.11460768 0.27619404 -0.018881885 0.14884011
0.02080878 -0.074608564 1.8957958 0.25116873 0.8482735 0.22835605 -0.74532586 0.25194263
0.1538943 0.116844505 0.162683 0.12896697 0.32366928 1.119433 -0.2999316 -1.2067498
0.056565885 -0.04777402 -0.44535118 0.26858723 -0.1341334 -0.16260663 -0.25578606 -0.20919815
0.9606199 0.0786588 -0.57265013 -0.57459253 -0.16971071 -0.073556624 -0.17347346 0.025903435
0.09017283 -0.2902264 -0.06974079 1.4668386 0.4162382 -0.81536925 0.10700187 -0.2551157
-0.09165904 0.20003603 -0.13600114 -0.077118166 -0.112615764 0.5814397 -1.9535964 2.189097
0.12742952 0.21172436 -0.15448517 0.20133264 -0.5068154 0.41306698 0.29261923 0.20058854
-0.055502925 -1.5164301 1.5567361 0.8628276 0.21159509 0.24763015 -0.28475946 0.036268592
0.02553058 0.069314174 0.07291486 0.093253955 -0.99456775 -0.24315245 -0.8935132 0.06992178
-0.41736034 -0.020326588 0.04946457 -0.04953143 0.0450894 0.13610682 0.24836041 1.5087501
0.5486315 0.68707764 0.3699818 0.53925943 -0.035513464 -0.14003758 0.15331848 0.07091079
0.0788218 0.090974964 0.64670557 -0.166398 1.8513023 0.27336067 -0.8237256 0.8072446
-0.03802606 -0.080661885 0.1132146 0.15675157 -0.3189314 1.8830248 -1.4162257 -0.23268701
-0.6885313 0.27074897 0.3879863 0.24861309 -0.14441274 -0.05997901 0.009068229 -0.18337597
-3.3138776 0.34683484 -0.31178272 0.39307407 0.029615235 -0.51463753 -0.036160752 0.01912365
0.046283234 -0.11283318 -0.10212163 1.7703958 -0.76355535 0.34068567 0.04144838 -0.76741153
0.047575984 0.053722635 0.05024145 0.06432386 0.052948628 -0.84407085 -2.2451026 -0.8504605
-0.929696 1.1639016 -0.151486 -0.14481065 0.1258386 -0.02065078 0.12500401 0.044259917
-0.5015677 2.807928 -1.1762382 0.02203292 0.27347922 0.015692161 -0.07465678 0.011983056
0.055654965 0.022145966 0.04643354 -0.30518988 1.6062286 0.880983 0.6391763 0.13763174
0.33475393 -0.296947 -0.22742015 0.15288663 0.05385311 0.0059589436 0.051366627 -0.6861382
0.26500762 -0.94459015 0.07783621 -0.54783255 0.06559926 -0.14975826 0.2265263 0.14477362
0.116195194 0.21575579 -1.827728 1.3434132 0.4750603 -0.53986645 0.21990523 -0.1862907
-0.3619245 0.25996757 0.15155074 -0.09704881 0.21025065 -0.3272559 -1.4365146 -1.0830919
-0.2806153 -0.6935689 0.37953594 0.10663532 -0.16208677 -0.06445607 0.025258934 0.5181034
1.9850351 -0.6483905 -0.16452217 -0.51159984 -0.42074916 0.29898286 0.19060516 -0.08252317
0.003975087 0.07388053 0.42363822 -2.3124113 0.5755092 -0.17379561 0.69732547 -0.24951816
0.42870072 -0.067456245 0.051172104 0.012335049 0.14152534 0.14109477 0.521167 -0.22207472
00000000: ada3 b53e 78d5 1cbf 8651 5abf f6e7 493f
00000010: f235 fa3e 13a5 cb3e 9da4 c23e 185c 733d
00000020: 3186 82be e27b a6bc 7413 ed3d 06f8 753e
00000030: 879d 12c0 7c1b e93f 417a 0c3e 75a4 0e3e
00000040: 3bdf 4ebe 8d5b 2fbe 7851 213e 88e7 b1bd
00000050: 2b5a 4abd b4e2 3c3d a172 9e3e 9c75 9d3f
00000060: 5ffa 1d3f 98cc f83e fc24 de3e e23a 0d3f
00000070: 6eb7 ea3d 4e69 8d3e 2fae 9abc 8b69 183e
00000080: 2d77 aa3c 60cc 98bd 70a9 f23f 3099 803e
00000090: 7428 593f 2bd6 693e adcd 3ebf a0fe 803e
000000a0: 7896 1d3e 2c4c ef3d 5f96 263e eb0f 043e
000000b0: fbb7 a53e 9549 8f3f a290 99be c776 9abf
000000c0: a1b1 673d b1ae 43bd 1205 e4be 4484 893e
000000d0: 445a 09be 5a82 26be 64f6 82be 0a38 56be
000000e0: 30eb 753f dd17 a13d 3399 12bf 7f18 13bf
000000f0: a5c8 2dbe dba4 96bd 07a3 31be 7133 d43c
00000100: 88ac b83d 8e98 94be 42d4 8ebd 5ec1 bb3f
00000110: 2c1d d53e 0abc 50bf cc23 db3d 869e 82be
00000120: bcb7 bbbd 3fd6 4c3e e243 0bbe 21f0 9dbd
00000130: 18a3 e6bd 3bd9 143f 720f fabf 2a1a 0c40
00000140: e27c 023e 45ce 583e 5c31 1ebe 252a 4e3e
00000150: a7be 01bf 847d d33e 30d2 953e 1567 4d3e
00000160: 0957 63bd 621a c2bf 2143 c73f 45e2 5c3f
00000170: 62ac 583e c292 7d3e fecb 91be 608e 143d
00000180: 8225 d13c 97f4 8d3d 6354 953d eefb be3d
00000190: fe9b 7ebf f5fc 78be 48bd 64bf 2633 8f3d
000001a0: 41b0 d5be f283 a6bc 5c9b 4a3d 78e1 4abd
000001b0: aaaf 383d 965f 0b3e 3152 7e3e b91e c13f
000001c0: 1d73 0c3f 52e4 2f3f 416e bd3e e80c 0a3f
000001d0: 9176 11bd 0366 0fbe 85ff 1c3e ad39 913d
000001e0: 536d a13d 1551 ba3d 7f8e 253f 3d64 2abe
000001f0: 79f7 ec3f eef5 8b3e aedf 52bf 95a7 4e3f
00000200: 37c1 1bbd 0f32 a5bd 0edd e73d 7c83 203e
00000210: fa4a a3be f506 f13f e246 b5bf 8145 6ebe
00000220: 9643 30bf 9c9f 8a3e 24a6 c63e 6e94 7e3e
00000230: efe0 13be 8dac 75bd e992 143c e9c6 3bbe
00000240: 9216 54c0 5694 b13e fca1 9fbe 0141 c93e
00000250: a69b f23c 49bf 03bf 4c1d 14bd 33a9 9c3c
00000260: 7d93 3d3d 1515 e7bd 2525 d1bd 549c e23f
00000270: 5d78 43bf 5a6e ae3e c7c5 293d 1575 44bf
00000280: 09df 423d 440c 5c3d fbc9 4d3d 3abc 833d
00000290: a9e0 583d 0715 58bf c3af 0fc0 c8b7 59bf
000002a0: 8f00 6ebf bafa 943f 251f 1bbe 3e49 14be
000002b0: d5db 003e d32b a9bc 0d01 003e e349 353d
000002c0: be66 00bf 18b5 3340 f98e 96bf 627e b43c
000002d0: 7805 8c3e d98c 803c a7e5 98bd 9454 443c
000002e0: 76f6 633d 756b b53c 1831 3e3d d941 9cbe
000002f0: e698 cd3f 1a88 613f 0fa1 233f 56ef 0c3e
00000300: de64 ab3e 7009 98be d4e0 68be 508e 1c3e
00000310: 1495 5c3d 3e43 c33b d065 523d c1a6 2fbf
00000320: 14af 873e a9d0 71bf 9768 9f3d c13e 0cbf
00000330: e858 863d 3b5a 19be 83f6 673e 893f 143e
00000340: bff7 ed3d 16ef 5c3e fef2 e9bf f7f4 ab3f
00000350: 1b3b f33e b034 0abf d62e 613e fdc2 3ebe
00000360: 2b4e b9be 781a 853e 1e30 1b3e 87c1 c6bd
00000370: f24b 573e 168e a7be b6df b7bf c1a2 8abf
00000380: cfac 8fbe bb8d 31bf 8952 c23e 9e63 da3d
00000390: 13fa 25be 8b01 84bd d3eb ce3c 6da2 043f
000003a0: a115 fe3f ebfc 25bf 8078 28be 35f8 02bf
000003b0: 6f6c d7be 4814 993e 002e 433e e801 a9bd
000003c0: 7241 823b ad4e 973d 1ce7 d83e 8cfe 13c0
000003d0: 9254 133f 7af7 31be ec83 323f b081 7fbe
000003e0: a97e db3e 8026 8abd d799 513d f218 4a3c
000003f0: 05ec 103e 267b 103e 336b 053f 8e67 63be

net.hidden_layers.0.bias f4 [32]
-0.06376251 0.10568148 0.37086737 -0.2655034 0.28840068 -0.24062096 -0.0037679947 0.64571744
-0.38323468 -0.41186133 -0.25515828 0.2173696 -0.22083811 0.24213439 -0.004665924 -0.58066696
-0.6123964 0.22861516 0.17739545 0.16162145 0.29807708 0.37735626 0.48176575 0.15864648
0.5129489 -0.29453743 -0.23252936 0.078377426 -0.4576886 0.1076001 -0.08741428 0.53685397
00000000: eb95 82bd 886f d83d 54e2 bd3e 10f0 87be
00000010: 41a9 933e 5765 76be 76f0 76bb bd4d 253f
00000020: 5637 c4be 7ddf d2be 1ba4 82be 2396 5e3e
00000030: 6323 62be 14f2 773e 9be4 98bb 97a6 14bf
00000040: 03c6 1cbf 181a 6a3e 27a7 353e 1880 253e
00000050: 8f9d 983e d734 c13e 00aa f63e 3974 223e
00000060: 9e50 033f 9ccd 96be 2d1c 6ebe 5884 a03d
00000070: 2956 eabe 715d dc3d 4206 b3bd 436f 093f

net.hidden_layers.1.weight f4 [32, 32]
0.21140425 0.8842215 0.36967647 -0.6393856 0.088415444 -0.35298383 -0.3001909 0.77743727
0.21839428 -0.626422 0.18698244 -0.321957 -0.3836496 0.6634832 -0.4179735 -0.5584325
-0.799026 -0.025161982 -0.0922996 0.5587505 -0.29943287 0.31666455 0.6689674 -0.023065897
0.40032208 -0.24960466 0.22251895 0.2538778 -0.34563166 0.47790632 -0.18829001 0.60276884
-0.15394084 -0.39250717 -0.09748162 0.2901715 0.09723911 0.22662069 0.24481393 -0.13031758
-0.5527575 0.5093324 -0.27967557 0.13380204 0.99009055 -0.47620475 0.5901971 -0.2362403
0.5921559 -0.6700195 0.30676225 -0.0937094 0.36794248 0.27194098 -0.5941291 0.108482
-0.19204295 0.41683924 -0.382387 -0.3478504 0.28890625 -0.80321616 0.3047261 -0.23931187
0.09810604 -0.41778642 0.032150324 -0.25655586 -0.013031991 -0.043189675 -0.27885464 -0.16566835
-0.030562356 -0.4279837 0.54506046 -0.623546 -0.24332187 -0.16633771 0.031112907 -0.60837156
0.23837848 0.74161255 -0.519975 0.12425483 -0.46577436 0.19811264 0.16704479 -0.30574462
-0.4287829 -0.22565429 -0.5708753 0.45999315 0.4663188 0.4079122 -0.16079056 -0.18626173
0.23245578 0.3931748 0.11432555 -0.23208754 0.17602862 -0.40068632 -0.24853204 0.107882604
0.26000488 -0.3870301 0.23955719 -0.2892272 -0.6661659 0.5787311 -0.07405717 -0.36828053
-0.401002 -0.05752751 -0.0863576 0.22521645 -0.25892174 0.15942761 0.74206495 -0.3492435
0.34402692 -0.3487344 0.12360326 0.23417872 0.35462 0.41279405 -0.25460678 0.016792225
-0.2892756 0.023396587 -0.2874021 -0.18388489 -0.0825841 0.377808 0.645319 -0.01846927
-0.38564852 0.4922584 -0.020536758 0.26242498 0.024937255 0.06232412 -0.36645955 0.7214523
0.06821337 -0.01044434 0.45677662 -0.21639705 0.17527397 -0.1464193 -0.5911451 0.52113336
-0.19876805 0.23643488 0.021348095 -0.41701466 0.027693639 -0.71238816 0.09547977 -0.2355203
0.2835251 0.29558143 -0.036652382 -0.18649358 0.08517363 -0.1583212 -0.566254 0.13137497
0.27708745 -0.3471344 0.44744158 -0.42638507 -0.025075676 0.2438933 -0.028480563 -0.2648892
-0.075486764 0.35300687 -0.24953444 0.03526783 -0.76800716 0.30817926 0.17141339 -0.5637824
-0.3747169 -0.05917661 -0.05798992 0.7567596 0.54579383 0.4688058 -0.28697038 -0.25249514
-0.33254915 -0.7638286 0.12278417 0.19496815 -0.045726866 0.04946015 -0.4056422 -0.29997978
-0.015514062 -0.86657375 0.22277845 -0.11162209 0.45881703 -0.9088913 0.6849888 -1.3531028
0.8015096 0.7768373 -0.020446248 0.32877514 -0.12854522 1.1866237 -0.47293594 -0.3843689
-0.5110411 -0.3202216 -1.1875727 0.27706257 0.24494894 0.3034322 -0.23664565 -0.051199067
-0.09737403 0.052273817 -0.02648421 0.030822765 0.046219658 0.082399294 0.66337657 -0.13644095
-0.28250107 0.59022754 -1.0478028 0.5589793 0.13746525 0.38945806 -0.02144038 0.6676912
-0.4383912 -1.0508858 0.3473141 -0.16743566 1.1560029 -0.12673089 -0.026676169 0.8029775
0.36057493 0.26873946 0.1501944 -0.643925 -0.44743016 -0.72117656 0.45855612 0.26769537
00000000: 5b7a 583e 575c 623f 3c46 bd3e c6ae 23bf
00000010: 2813 b53d 4cba b4be 9fb2 99be 2106 473f
00000020: c0a2 5f3e 315d 20bf 5378 3f3e 8cd7 a4be
00000030: b86d c4be 09da 293f 9f00 d6be 6ff5 0ebf
00000040: f88c 4cbf 8020 cebc 9307 bdbd 460a 0f3f
00000050: 444f 99be db21 a23e 7341 2b3f b1f4 bcbc
00000060: 04f7 cc3e 5d98 7fbe 02dc 633e 45fc 813e
00000070: a2f6 b0be 23b0 f43e 19cf 40be 0f4f 1a3f
00000080: aba2 1dbe b3f6 c8be 72a4 c7bd 5c91 943e
00000090: 4c25 c73d 410f 683e 81b0 7a3e f971 05be
000000a0: 8481 0dbf 9c63 023f a331 8fbe 6703 093e
000000b0: 9376 7d3f 1cd1 f3be 2817 173f fae8 71be
000000c0: 8797 173f 6686 2bbf f10f 9d3e b7ea bfbd
000000d0: f562 bc3e d93b 8b3e d818 18bf d02b de3d
000000e0: e8a6 44be f46b d53e 3bc8 c3be 7319 b2be
000000f0: 85eb 933e 939f 4dbf 0f05 9c3e 2c0e 75be
00000100: d2eb c83d 1ae8 d5be 0fb0 033d 4a5b 83be
00000110: 2284 55bc a8e7 30bd 09c6 8ebe f7a4 29be
00000120: e85d fabc ae20 dbbe 1589 0b3f b6a0 1fbf
00000130: 5e29 79be 6f54 2abe 7fe0 fe3c 3dbe 1bbf
00000140: 7d19 743e 52da 3d3f 151d 05bf 5179 fe3d
00000150: fa79 eebe 0ade 4a3e ca0d 2b3e 8f8a 9cbe
00000160: 6f89 dbbe eb11 67be e224 12bf 3984 eb3e
00000170: 56c1 ee3e ded9 d03e 48a6 24be 65bb 3ebe
00000180: e308 6e3e 354e c93e 8423 ea3d 5ba8 6dbe
00000190: d940 343e c226 cdbe 2f7f 7ebe 8ef1 dc3d
000001a0: 5c1f 853e cf28 c6be 7b4e 753e 9615 94be
000001b0: d989 2abf b927 143f 49ab 97bd 448f bcbe
000001c0: 2250 cdbe f7a1 6bbd 41dc b0bd 249f 663e
000001d0: 6491 84be fe40 233e f8f7 3d3f 0bd0 b2be
000001e0: 4c24 b03e 518d b2be b523 fd3d 8ccc 6f3e
000001f0: c190 b53e be59 d33e d25b 82be d98f 893c
00000200: ee1b 94be 33aa bf3c 5e26 93be 524c 3cbe
00000210: da21 a9bd 0d70 c13e a033 253f de4c 97bc
00000220: b973 c5be 4b09 fc3e b43c a8bc 915c 863e
00000230: 3749 cc3c 9447 7f3d 96a0 bbbe 19b1 383f
00000240: 74b3 8b3d bd1e 2bbc a0de e93e 3097 5dbe
00000250: 057b 333e f1ee 15be 4955 17bf ff68 053f
00000260: da89 4bbe fc1b 723e 33e2 ae3c f282 d5be
00000270: c5dd e23c 125f 36bf e68a c33d 3c2c 71be
00000280: 342a 913e 7356 973e cf20 16bd 2cf8 3ebe
00000290: 836f ae3d f41e 22be 06f6 10bf 2987 063e
000002a0: 68de 8d3e 9abb b1be 1017 e53e 254f dabe
000002b0: 816b cdbc 2abf 793e 1250 e9bc 8f9f 87be
000002c0: ce98 9abd 51bd b43e f585 7fbe 0075 103d
000002d0: 1e9c 44bf acc9 9d3e fe86 2f3e 0b54 10bf
000002e0: e5da bfbe 2c63 72bd d786 6dbd ffba 413f
000002f0: 25b9 0b3f 5007 f03e c8ed 92be 0b47 81be
00000300: e243 aabe 458a 43bf 4476 fb3d bba5 473e
00000310: 184c 3bbd ba96 4a3d 56b0 cfbe f396 99be
00000320: b12e 7ebc c7d7 5dbf 0920 643e 1f9a e4bd
00000330: 11ea ea3e 1aad 68bf 6d5b 2f3f 7932 adbf
00000340: bc2f 4d3f cfde 463f e47e a7bc 3755 a83e
00000350: 5ca1 03be 49e3 973f a924 f2be 00cc c4be
00000360: 97d3 02bf 16f4 a3be 6202 98bf 25db 8d3e
00000370: e5d3 7a3e 775b 9b3e 3d53 72be 1db6 51bd
00000380: 096c c7bd 121d 563d 6af5 d8bc 0680 fc3c
00000390: d350 3d3d f6c0 a83d 0cd3 293f 2db7 0bbe
000003a0: fba3 90be 2719 173f 671e 86bf 4419 0f3f
000003b0: b1c3 0c3e 0c67 c73e bca3 afbc cfed 2a3f
000003c0: d074 e0be 6d83 86bf 27d3 b13e 4174 2bbe
000003d0: e7f7 933f bec5 01be fb87 dabc ef8f 4d3f
000003e0: 479d b83e 3898 893e 90cc 193e 45d8 24bf
000003f0: 9115 e5be 079f 38bf dec7 ea3e 5e0f 893e

net.hidden_layers.1.bias f4 [32]
0.47672826 0.18593518 -0.022221396 -0.19948792 0.16561261 -0.34993953 -0.17469952 0.2970522
-0.026410613 -0.2676642 0.08642251 -0.122825414 0.38723078 -0.20314881 0.083169356 0.36361155
-0.5299172 -0.52227587 0.4171416 0.03152447 0.2541323 -0.19990458 -0.007298724 0.0037493748
-0.25143716 -0.006900103 -0.2717171 -0.18831415 -0.0065740487 -0.036192123 -0.036724806 0.31971183
00000000: ba15 f43e cb65 3e3e a509 b6bc 9046 4cbe
00000010: 5a96 293e 462b b3be 6ee4 32be 3a17 983e
00000020: 125b d8bc 480b 89be 49fe b03d e48b fbbd
00000030: 1d43 c63e 3e06 50be b254 aa3d 4b2b ba3e
00000040: a7a8 07bf dfb3 05bf 9593 d53e cd1f 013d
00000050: a11d 823e c9b3 4cbe 222a efbb 12b8 753b
00000060: 5fbc 80be 421a e2bb 811e 8bbe 6dd5 40be
00000070: 1e6b d7bb 313e 14bd c06c 16bd 45b1 a33e

net.output_layer.weight f4 [1, 32]
1.925439 -2.0912688 0.39537323 0.45996317 -0.70528644 0.4458027 0.82261604 -0.59905905
-0.45556965 0.30588993 -0.6916358 0.64210236 -1.9725133 -2.18679 -2.1689663 -1.1545988
2.2207532 2.5982687 -2.2770326 0.6724974 -0.3478743 1.5737374 1.5958859 -0.32445937
2.4645262 0.5326902 -0.561187 0.6578958 0.71338326 -0.6042184 1.8996778 -2.132885
00000000: c974 f63f 59d7 05c0 5c6e ca3e 4b80 eb3e
00000010: a78d 34bf 4040 e43e f796 523f ef5b 19bf
00000020: 6d40 e9be 9b9d 9c3e 0b0f 31bf d260 243f
00000030: 517b fcbf 5ef4 0bc0 58d0 0ac0 e5c9 93bf
00000040: d220 0e40 094a 2640 e7ba 11c0 ca28 2c3f
00000050: 951c b2be 3a70 c93f fd45 cc3f 8a1f a6be
00000060: ccba 1d40 635e 083f f4a9 0fbf dc6b 283f
00000070: 49a0 363f 0fae 1abf a428 f33f 3081 08c0
