Pyrado/data/perma/experiments/hop/ppo_nf/2021-10-01_11-20-03/policy.pt (torch, 4672 bytes, 7 tensors)

resting_level f4 [21]
00000000: b53f 923f f86c 873f 09dd 0bbf 08ce e43f
00000010: e8b8 49bf 44e5 0b3e 0c07 a93f ebba 283f
00000020: ad3d e83e 7de1 8e3f dfc0 68bd f246 413f
00000030: f295 e8bd a355 7d3f c33c 28bf 973a 19bf
00000040: 39b9 70be c8ec 93bf 360d 1abe 458d cfbf
00000050: 93f7 d23e
1.1425692 1.058013 -0.5463415 1.7875376 -0.7879777 0.13661677 1.3205276 0.65910214
0.45359555 1.1162564 -0.05682456 0.7549888 -0.11356725 0.98958796 -0.65717715 -0.59855026
-0.23508157 -1.1556635 -0.15044102 -1.6214987 0.4120451

_potentials_init f4 [21]
00000000: 4ff6 833f 0d04 8dbf c73b b83e 7414 843e
00000010: f8cf 0abf 0433 af3d b885 323f fa51 debe
00000020: 7826 b93f 2f83 aabe b38e 10bf f6ef db3e
00000030: 1abf 85bf cecf fdbe 899b 023f 2999 cfbf
00000040: b819 9a3f a67c 83bf 7fa7 8dbf dc25 34be
00000050: 1572 143f
1.0309542 -1.1016861 0.35983106 0.25796854 -0.54223585 0.08554652 0.6973529 -0.43421918
1.4464865 -0.3330321 -0.5646774 0.42956513 -1.0448945 -0.49572605 0.5101858 -1.6218616
1.2039099 -1.0272415 -1.1066741 -0.17592567 0.57986575

obs_layer.weight f4 [21, 11]
00000000: f404 ef3e 3488 37bf 20c8 883f dfc2 4c3d
00000010: 13f5 d6be 6075 5ebe 2278 653e da29 86bb
00000020: 3900 1abe 23b1 b33d c396 9bbe ba67 9bbe
00000030: df7b 8b3f 3a96 51bf edea d83e a4aa f13e
00000040: fdac d5bd 1db0 083e ec42 8b3e f184 89bd
00000050: 2353 17bd 30fa 0d3e 6ae2 023f eb64 8fbe
00000060: db9e 5c3f 45ee 8ebe 5af4 873c cede 19be
00000070: 4dc9 d2bd 5224 89bd a550 6f3e 6dba 743d
00000080: e362 e8bd d32b ed3e da2d 14c0 2b5b 2ebb
00000090: 9d8a 25bc 422a 303e 6df6 b0be c1da ad3e
000000a0: 787e dabe 2e37 09bf 9c96 babe 5d7d 123e
000000b0: ae9c f0be 9654 ec3f 2b74 d3be 316f 0ebb
000000c0: 461e fd3e 0aa3 4a3e 3ba8 8fbe 98e0 0b3f
000000d0: ea7a 2a3e 559d 90be ed7c 4d3e 42bf abbd
000000e0: 7159 cc3f d088 2b3f f31a 41be d0ff 17bd
000000f0: d649 50be b5b9 3cbe 00f3 d73e 3918 d93e
00000100: 5096 4f3e 18b5 cebb cd2d a03e 714e 88bf
00000110: 80d2 80be 489d 83be 0e6e 153f adc5 c9be
00000120: aa6f 68be dd6a dcbe dd0c 02bf 9e0f bbbe
00000130: 1c0f d43e a32f f6be 35fb c43f 7945 a8be
00000140: 6419 bd3e 1523 283d 7e02 153f 9169 39be
00000150: 7c06 2c3f 8d2e f3bd cf7f 12be f858 e53c
00000160: e8fc 3f3e d381 05bf 45c5 1b3f da7d c7bd
00000170: 6d14 c5be 02da 1dbf 53e8 febe e692 cdbe
00000180: de0b c9bd a8c0 0fbd 880b e9bd e8af 693e
00000190: 1322 793e 8f3d 493f 152c 2a3e 90ae 59bf
000001a0: 9f00 c7be c2a8 0e3d 61e8 2abe f5f9 d23d
000001b0: da7a 0fbe a464 32bd bef8 e3be 59e8 a63f
000001c0: 0161 e3be 70c7 053f fca1 12be 3132 e33e
000001d0: 6036 613e 6f0f 153f 4725 b13e 4d62 cc3e
000001e0: e8fc 05bd 27db 9c3e 2dbf aebf 6885 e53e
000001f0: acf3 c3be 0ee7 74bd 8222 d4bd af08 abbe
00000200: affc 80bd 74e0 ba3e d1d9 e4bd 5158 f23d
00000210: acab 9abd 715f 2040 5bc2 583e 728b c53e
00000220: addf 193e 6c69 be3e 2b2d 92be d417 283f
00000230: afb7 2c3f 48c5 9d3e ff21 6b3e 1e06 aa3d
00000240: e9cf 81bf 3d67 443f 62ab 13be fcc3 d3be
00000250: 5292 1abf efe3 003e 6eeb cabe 49d3 0ebf
00000260: f7d0 103f 9375 a2bb ad83 ac3e f7f9 07bd
00000270: 8bda 3c3e 7e28 58be 03e0 9bbe c6ff adbe
00000280: aad5 98be ed68 acbe e29b d33d 576f 1a3d
00000290: 6e38 533e 8ccc 443e 4f37 5b3f a53c b83e
000002a0: 2d85 75be 637a 87bd 8a2c 43be 1df3 4ebe
000002b0: f99c 9b3e 8c1a 193f 63cf cebc fa15 fa3d
000002c0: a8de 013f ffac 003e 56fa 633f 2755 a53e
000002d0: 8b94 16bf e12d 843d 8f30 5bbe ce57 cc3e
000002e0: 4caf a03e 3488 c83e 963b 58bd 0854 08bf
000002f0: d8c6 b7bd f6b3 92bf 6751 733e e932 a63e
00000300: 734b 923e ceb6 bcbe 68fd 0dbf c636 eebc
00000310: 266c 45be 789a d4be 11bd 643c b12a ca3f
00000320: 5691 cd3e c797 4d3f 3e62 8b3e 69d6 8ebd
00000330: 05d7 3dbe 3195 623f 58a7 a93d 242b 613b
00000340: 397b d5bc 22cf 92be 3e5a 8bbd c901 64bf
00000350: 75e3 d63d 0898 21bf 96aa 823d 66bf c53e
00000360: 54af e0be e7b3 e9be f45a 34bd 51b9 4fbe
00000370: 592a 643c 7f71 aabf 182f f33e d729 e6ba
00000380: c0d0 1dbf 987f 4abe 8f69 413e da3b 58be
00000390: 8977 a7bd 51c5 9f3e 011a 583e
0.46683466 -0.71692204 1.0686073 0.04999053 -0.41983852 -0.21724463 0.22409108 -0.0040943446
-0.15039147 0.087740205 -0.3038846 -0.30352575 1.0897177 -0.8186985 0.42366734 0.472005
-0.104333855 0.13348432 0.27199495 -0.0671481 -0.03694452 0.1386497 0.5112673 -0.28006682
0.86179894 -0.2791616 0.016596008 -0.150264 -0.10292301 -0.06696381 0.23370607 0.059748102
-0.11346986 0.46322498 -2.3152986 -0.0026604633 -0.010103849 0.1720362 -0.34563008 0.33955958
-0.42674613 -0.5359982 -0.3644303 0.14305635 -0.46994537 1.8463314 -0.41299567 -0.0021733756
0.4943716 0.19788757 -0.28058037 0.5463958 0.1664845 -0.28245035 0.20067187 -0.08386089
1.5964795 0.67005634 -0.18857937 -0.037109196 -0.20340666 -0.18430217 0.42177582 0.42401293
0.20272183 -0.006308209 0.31284943 -1.0648938 -0.251606 -0.25705934 0.58371055 -0.39408627
-0.22698846 -0.4305028 -0.5080088 -0.36535352 0.41417778 -0.4808322 1.5389162 -0.32865503
0.36933434 0.04104908 0.5820693 -0.18106677 0.67197394 -0.11874113 -0.14306568 0.027996525
0.1874882 -0.5215122 0.60847884 -0.09740801 -0.38492146 -0.6166078 -0.49786624 -0.40151137
-0.098167166 -0.03509584 -0.113791525 0.22821009 0.24329405 0.78609556 0.16618378 -0.85031986
-0.3886766 0.03482891 -0.16690208 0.10301582 -0.14011708 -0.04355301 -0.44525713 1.3039657
-0.44409946 0.5225744 -0.14319605 0.4437423 0.21993399 0.58226675 0.34598753 0.39918748
-0.032711893 0.3063595 -1.3652092 0.44828343 -0.38271844 -0.059790663 -0.10358144 -0.33405063
-0.062981956 0.3649937 -0.11174358 0.11833251 -0.07552275 2.5058253 0.2116789 0.3858295
0.15026732 0.37189806 -0.28550085 0.6566136 0.6746778 0.30814576 0.22962187 0.08301948
-1.0141574 0.7672003 -0.14420846 -0.41360462 -0.6037952 0.1258695 -0.39632744 -0.55791146
0.56568855 -0.0049578636 0.3369421 -0.03319737 0.18442743 -0.21109197 -0.30444345 -0.33984202
-0.29850513 -0.33673802 0.10332467 0.03770384 0.20626995 0.19218653 0.8563127 0.35983768
-0.23976584 -0.0661514 -0.19059959 -0.20209928 0.30393198 0.5980613 -0.025245374 0.12211223
0.5073037 0.12565993 0.8905386 0.3229153 -0.5882041 0.06454063 -0.21405242 0.3991074
0.3138374 0.39166415 -0.0527912 -0.5325322 -0.08973473 -1.146117 0.23761521 0.32460716
0.28573188 -0.3685822 -0.5546479 -0.029078852 -0.19279537 -0.415241 0.013961093 1.5794278
0.40149945 0.8030972 0.2722339 -0.06974489 -0.18539055 0.885089 0.082838714 0.003435799
-0.026059734 -0.28673655 -0.06804322 -0.89065224 0.10492603 -0.63122606 0.06380193 0.38622588
-0.43883765 -0.45645067 -0.044032052 -0.20285536 0.013926112 -1.3315886 0.47496867 -0.0017560077
-0.6164665 -0.19775236 0.18887924 -0.21116582 -0.081770964 0.31205228 0.2110367

conv_layer.weight f4 [1, 1, 11]
00000000: 6c9f 503e be1a 173f 0523 4b3e db61 283e
00000010: 55d8 223e c960 a1be ceda 35be 71e6 0f3e
00000020: 03b1 233d e074 6dbe fbab 3a3e
0.20373315 0.5902518 0.19837578 0.16443579 0.15902837 -0.31519154 -0.17759249 0.1405275
0.039963733 -0.23189116 0.18229668

pot_to_activ.weight f4 [21]
00000000: 309e 113e a284 f73e 00bf 463f 303e c03d
00000010: 26b2 903e bee5 a33e dbc3 f13d d1a9 ffbe
00000020: e55f 303e 0cc3 16bf a4a0 ad3e be78 db3e
00000030: af9f a63e de7b f83e 7a85 5cbd 8efc d7be
00000040: f61c 993e 29ab 84bf 2561 06bf 5507 833e
00000050: 687a 0d3f
0.142205 0.48343378 0.7763519 0.09386861 0.28260916 0.32011217 0.118049346 -0.49934247
0.17224081 -0.5889137 0.33911622 0.42865556 0.32543704 0.48532003 -0.05383823 -0.4218487
0.29904908 -1.0364734 -0.5249198 0.2559153 0.552649

pot_to_activ.bias f4 [21]
00000000: 3879 f8be 6d6d 9fbe 5f09 933e e9d0 ac3e
00000010: 932b 463e 4958 3d3e 10d9 813e 841b eebe
00000020: b4c2 b83e 1300 63be 72f3 89be 0080 213e
00000030: e179 76be b193 5f3e 6515 2f3e 9a65 2c3e
00000040: 2c41 013d 3345 eabd baac c9bd c99b 203d
00000050: 5ab0 c53c
-0.48529983 -0.31138173 0.28718087 0.33753136 0.1935256 0.1849071 0.25360918 -0.46505368
0.36086047 -0.22167997 -0.26943547 0.15771484 -0.2406993 0.21833684 0.17098005 0.16835633
0.031556293 -0.1143898 -0.09847398 0.03921107 0.024131943

act_layer.weight f4 [3, 21]
00000000: f6c7 373e 5f4c 96be ecc5 3abb 94f4 723e
00000010: a7d8 a9be e477 ddbe c022 a83c c4f1 ba3e
00000020: c31d 84be a8ec 063d 7a0a b7bd 04eb 143e
00000030: ad51 afbe 0e59 743d 32e5 a93d 3df7 143e
00000040: e60f 023d 57e9 873b ea53 343d 58ac 41bd
00000050: 23ee a03e 1644 bbbc 7e4e 403e 212e c83e
00000060: 4cb7 873d 7cbd 773d 518d 833c 7cb2 983e
00000070: c36e 8f3e 94d1 533e b055 013f 20c4 e8be
00000080: 0542 ab3e 37fc 17bd 110c 40bd a76e f4bd
00000090: 5c20 89be 8193 88bd 8818 14bd 46f2 38be
000000a0: 6f01 72be 3f77 aabe 6eff 733e 07f7 d0be
000000b0: c720 143f 4ede 9bbc 9011 11be 6263 943e
000000c0: 7428 02be 8f63 bd3e 3122 7c3e 8097 efbe
000000d0: 34c5 04be 8884 8c3e 54d5 b6ba f920 c23e
000000e0: f628 bebd b5fc 27be 9e70 b73e 4fde 193f
000000f0: f16b 16bd ac20 50bd 452d d23d
0.17947373 -0.29355142 -0.0028499318 0.23726112 -0.33173105 -0.43255532 0.020524383 0.36512578
-0.25803956 0.032940537 -0.08937545 0.14542776 -0.34242 0.05965524 0.08295669 0.14547439
0.031753443 0.0041476893 0.04402534 -0.0472835 0.31431684 -0.022859614 0.18779942 0.39097694
0.06626758 0.06048344 0.016058596 0.29823673 0.28014192 0.20685416 0.50521374 -0.45462132
0.33448806 -0.037105765 -0.046886507 -0.11935168 -0.267825 -0.06668759 -0.036156207 -0.1806117
-0.2363336 -0.33294103 0.23827907 -0.40813467 0.57862514 -0.019026902 -0.14166856 0.28982073
-0.12710744 0.3699002 0.24622418 -0.46795273 -0.12965852 0.27444863 -0.0013949075 0.3791578
-0.092851564 -0.16404994 0.35828108 0.6010484 -0.036724035 -0.05081241 0.10262541
