Pyrado/data/perma/experiments/hop/ppo_nf/2021-10-01_11-20-03/vfcn.pt (torch, 8421 bytes, 5 tensors)

net.hidden_layers.0.weight f4 [32, 11]
00000000: 812b a1bf 9918 2dc0 a737 43bf 783d 0740
00000010: 72c5 3abf a514 9f3e 7e58 983e 50d2 a13f
00000020: 75ec 59bf 6849 01bf 3936 f0bb c2bd 46bf
00000030: 5227 d83f 182a 1abe f4b8 8dbf 6e59 7e3e
00000040: aaa3 4f3f c76a a7be f054 3a3d 744d 9cbc
00000050: a90e ecbd 2aa8 4fbd 9264 a23e 3e7c 0a40
00000060: 69a5 dcbf 6a31 173f 7c40 cc3e d8e9 593e
00000070: 4ad1 263f 62c6 833f 9e80 75bf 0ee2 16bf
00000080: ade0 d5bd c3bf cfbe f0a3 873f c831 a03f
00000090: f004 033f d871 3dbe 05d2 b4be c348 8a3f
000000a0: 52d7 f6be e40f f03e 07fb 693e 31ce 1d3e
000000b0: ed61 f1bd b1b1 2f40 c173 973f 9739 de3e
000000c0: 7427 01c0 1327 3fbf 7dc0 b3be 66e4 0d3f
000000d0: 6bbb 79be 6809 683d 5acd 93bd 96b4 593e
000000e0: 1b27 11c0 2d98 f53f feb0 fd3d 572c ac3e
000000f0: ccf3 aa3f c1d0 eebc cb37 863e 7d13 b2be
00000100: b556 52be 9d5a 1c3d 9059 89bf 883d 49c0
00000110: dcf4 663f c7ef 4cbf 24da e5bf a432 a13e
00000120: 82dc 2a3f eef7 b03e cea7 c1bd c2c5 52bb
00000130: e391 33be 216e 003f 06a4 ce3e 6b52 b83e
00000140: b7de c63d 031a 1b3f cf54 3ebf 09cb f93e
00000150: c254 91be 8ed8 803e 8009 063e 1587 3e3c
00000160: 8d25 e8bf d9f3 713f 321d a1bf a825 ab3d
00000170: d9d8 b73f d5d0 503e 9126 f9bd 75f8 ac3e
00000180: cad7 73be 7959 e5bd 1e99 253d 0434 193e
00000190: 5927 e3be 20d1 ffbe 648b c6be ad37 b03f
000001a0: f329 be3f e978 84bf 63ac 35bf 5189 173f
000001b0: eff6 b33d 0b2c ef3d 20c2 29be 5b15 87bf
000001c0: 2a5d 86bf 9c24 1a3f 1ae8 803b 8172 653f
000001d0: 05f0 f03d f4aa d73f d1f4 b3bf f253 49bf
000001e0: f530 f7bc 7928 9c3f de9c 2640 f38f 8d3e
000001f0: fcc0 8e3e 3c61 423e 88f5 033e 8b93 2abf
00000200: 7769 b1be 340f 3d3f b490 173f afc7 1a3b
00000210: 8c1c 3b3e 1846 7540 759f 79be a4ab b8bf
00000220: 65e4 cb3e ac61 67bf 3443 813e b625 b23e
00000230: 7286 fcbd cd70 1e3d 255f 523d 6ec2 adbf
00000240: 740a bc3f 1e0b cdbf 8ab9 f1bf 7686 483f
00000250: 424a 3a3d 4f3b 963e c711 40bf 879a 283f
00000260: f384 913e 51f3 c83d 4b5d d4be 9d10 efbf
00000270: 74b7 3f3c 054b ea3e c46f 03be fc87 973e
00000280: 828c 91be 8521 d33d 510a 5ebe de0f 2d3c
00000290: 9cdd e3bd 41c8 e03f 217a 2ac0 5509 0440
000002a0: f6ce 6b3f bc91 63bf 94c1 a5be e7fd 193e
000002b0: 8afc 69bd 509c ed3d 0aba c1bd 99a7 61bd
000002c0: b4bd e6be 441b fbbf 9687 b13f b7f4 8f3e
000002d0: f63a 6abe d4aa fbbd c80f 25bd d4a3 05be
000002e0: c639 e43c 3a06 383e d58a 4cbc 1fd9 4f3e
000002f0: 221d bdbe e973 3ebf dec9 dd3f 13b4 1840
00000300: 339a 113f bd26 193f 8d4f d03f 792d adbf
00000310: 52e2 2cbf e200 42be 2446 a23f 39b6 9740
00000320: dbef 953f 3bdc 11bf 206a 39bd 612b b2bf
00000330: 28cb 1cbf 7f5f 62be 14f1 b53e ada4 133e
00000340: 9186 b13c adc0 a1bf f2b5 5a40 b8fe 4cbf
00000350: 03ee a53e 2ed5 2dc0 9dbb 10bd d320 86bd
00000360: 20f7 263f 25f8 edbe 4828 dfbd 9556 30bd
00000370: cb30 2b3f bbb1 44c0 69c4 8cbe 7aee 733d
00000380: a48f cbbf 53eb eebe d83c 9cbd 6950 1abd
00000390: 15b8 183d 9bef 19bc 204e a6bd 180a 28be
000003a0: f7d6 04bf b635 e7bf 94f3 c2bf fff6 4dbf
000003b0: cdf9 c43e 6e8f 79bf eb9c ed3e 13df 0abf
000003c0: 752a ecbe eb78 3abe aac1 c8be 2544 a6bf
000003d0: f546 b43f 809c 0f3f 8a68 87be dd51 d0be
000003e0: f6b7 2ebf c384 853d 54ec cc3d f62d e63d
000003f0: c7a3 af3d d87e 34bf ea92 a040 b90b e9bf
-1.2591401 -2.7046263 -0.76256794 2.1131268 -0.7295753 0.31070438 0.29755014 1.2642307
-0.8512643 -0.50502634 -0.0073306826 -0.776333 1.6887 -0.1505512 -1.1072068 0.24838802
0.81109107 -0.32698652 0.04549116 -0.019079901 -0.11526234 -0.050697483 0.31717354 2.1638331
-1.7237979 0.59059775 0.39892948 0.2128061 0.651631 1.0294917 -0.9589938 -0.5893868
-0.10443244 -0.4057599 1.0596905 1.2515192 0.5117941 -0.18500459 -0.35316482 1.0803455
-0.4821115 0.46887124 0.22849666 0.15410687 -0.11786256 2.7452204 1.18322 0.43403313
-2.018033 -0.74669 -0.35107794 0.55426633 -0.243879 0.056649595 -0.07216902 0.21260294
-2.2680118 1.9187065 0.12387274 0.3362758 1.3355651 -0.029152276 0.26214442 -0.34780493
-0.20540889 0.038172353 -1.0730457 -3.1443806 0.90217376 -0.8005337 -1.7957196 0.31483948
0.6674272 0.34564155 -0.09455834 -0.003216133 -0.1753612 0.50168043 0.40359515 0.3600038
0.09710448 0.60586566 -0.7434816 0.48787716 -0.28384978 0.25165218 0.13089561 0.011628886
-1.813646 0.94512707 -1.2587035 0.08356792 1.4363052 0.20392163 -0.12165559 0.33783308
-0.23812786 -0.11198706 0.040429227 0.14961249 -0.44365957 -0.49964237 -0.38778222 1.3766991
1.4856552 -1.0349399 -0.70966166 0.59193903 0.08787333 0.116783224 -0.16577959 -1.0553392
-1.0497181 0.6021211 0.0039339187 0.89627844 0.1176453 1.6849046 -1.4059087 -0.78643715
-0.030174712 1.2199851 2.6033244 0.27648887 0.2788161 0.18982404 0.12886631 -0.6663138
-0.34650776 0.73851323 0.59205174 0.0023617556 0.18272609 3.8324032 -0.24377234 -1.442738
0.3982269 -0.9038341 0.25246584 0.34794396 -0.12330331 0.038681794 0.05136027 -1.357496
1.469069 -1.6019018 -1.8884747 0.7833017 0.045480974 0.29342124 -0.75027126 0.6586079
0.28421745 0.09812034 -0.41477427 -1.8676945 0.0117014535 0.4576036 -0.12835604 0.29595935
-0.2842751 0.10309128 -0.21683623 0.010562865 -0.11126253 1.7561113 -2.6637042 2.0630696
0.9211267 -0.8889425 -0.3237425 0.15038262 -0.057125606 0.1160208 -0.09459312 -0.055091474
-0.45066607 -1.9617696 1.3869503 0.2811639 -0.22874054 -0.12288442 -0.040298253 -0.13050777
0.02785958 0.17971125 -0.012484272 0.20297669 -0.3693629 -0.74395615 1.732723 2.3859909
0.56875914 0.59824735 1.6274277 -1.3529502 -0.6753284 -0.1894565 1.2677655 4.740994
1.1713823 -0.5697667 -0.045267224 -1.3919488 -0.6124749 -0.22106741 0.3553549 0.14418288
0.021670612 -1.2636925 3.417355 -0.8007617 0.3240815 -2.7161365 -0.035335172 -0.065492295
0.6522083 -0.46478382 -0.10896355 -0.04305132 0.6687133 -3.0733478 -0.274936 0.0595536
-1.5903211 -0.46663913 -0.076287925 -0.03767434 0.03728493 -0.009395505 -0.0812037 -0.164101
-0.5189051 -1.8063266 -1.5230584 -0.8045501 0.38471833 -0.9748448 0.4640878 -0.54246634
-0.46126142 -0.18210189 -0.39210254 -1.2989546 1.4084154 0.56098175 -0.26446944 -0.40687457
-0.6824945 0.06519463 0.100060135 0.11239235 0.0857616 -0.7050605 5.017934 -1.8206702

net.hidden_layers.0.bias f4 [32]
00000000: db19 593f 70da e5bf 23f8 a9bf d127 f2be
00000010: 1bb8 f9bd 4246 0bbd d0ec c4bf aaea 113f
00000020: 8bb5 6abf aaf2 f6bd 27e3 c1bf 6a8a 9e3f
00000030: 62fa ef3d b830 3c3f 2a04 89bf 0c26 1e3f
00000040: eb68 d33f 81ed 7abd bcf3 a63e 3903 29bf
00000050: 7f01 abbe 0e45 e53e db07 953f 437c d8be
00000060: 506e ed3f 22d2 813f f4c4 a0bf 6b33 3dbd
00000070: c8b8 f13e 463d 863f 78dd a53f 6975 9a3f
0.8480508 -1.7957287 -1.327885 -0.47296003 -0.121933185 -0.03400255 -1.538477 0.56998694
-0.9168326 -0.12058003 -1.5147446 1.2385991 0.117176786 0.7351184 -1.0704396 0.61776805
1.6516393 -0.061261658 0.3260783 -0.6602054 -0.3339958 0.44779247 1.1643022 -0.42282304
1.854929 1.0142252 -1.2560105 -0.046191614 0.4721129 1.0487449 1.2958212 1.2067081

net.hidden_layers.1.weight f4 [32, 32]
00000000: 2e69 9abe b6f9 283f 084f 093f 7a3e f0bd
00000010: 4180 aebf c2f0 073f 8b1b 193d 87ed 233f
00000020: 3e7e 363f 4fa9 e33e 88b3 eebd 81ee c2bc
00000030: 99a6 833f 2085 3abe b2db 68bf 9308 84bf
00000040: 7c94 42bf 4c88 003e fe63 88be 3e8a f13e
00000050: fbdf 13bf 4453 363f 20f5 163f de14 ad3f
00000060: 6204 243f bf34 5f3f dacb d73e 9eb8 f7bd
00000070: 42b9 66bf 5234 1b3c 925f 95bf 1ee1 6d3f
00000080: 250e 0fbe 95c7 933f e5e3 2dbf 3d40 a33f
00000090: 5d2f d6bf 6e87 533f 77aa 973f 4019 6e3e
000000a0: bf4f 953e 2f88 e23e 275e b7bf 89ee d03f
000000b0: 4056 dcbe b2c5 5d3e d818 50be d5b7 98bf
000000c0: 6b4b 93be 82e4 85bf 2b94 7fbf c66a b5bd
000000d0: ac9c 64bf 33a5 1b3f 796d c73e bcdc 9dbe
000000e0: 3454 92bf 0fd2 5c3f 348e f7be 42c5 39bf
000000f0: 64ff 803f 2af9 953e aaa3 9fbf 9761 d23e
00000100: c0bb 2bc0 3908 5440 efc8 3c40 23e2 8cbf
00000110: e920 9ebd b49b a63e 3c11 093f 431b f6bf
00000120: 8098 c13f 3d40 84be 40c4 6c40 5ebd 5bbf
00000130: 1d25 873f 601f 17bf 0bcf 333f c788 20c0
00000140: 83da 92c0 de8e f03f fa4e 413f 596a b53f
00000150: a9c5 1f3f c47b e2be ceeb b7bf 1abd e73f
00000160: df40 4ec0 9624 f8be d40a 1b40 7ce6 2f3f
00000170: 761b 0ebf d856 5fc0 ebc4 ebbf 571e 8abd
00000180: fd8c 27c0 3bfe 8640 274a 2240 609f 87bf
00000190: e0b3 d83d 9af5 b43e e0a9 7e3f 5794 04c0
000001a0: c5c2 ff3f 7a15 e6be b8c8 6340 0b67 89bf
000001b0: b307 b23e b147 44bf dc2a 213f ddbd 2bc0
000001c0: 466e afc0 ab94 0040 9bd0 253f 1f5c 763f
000001d0: 980b 313f 977f 2abe 8326 e0bf 9ce4 2540
000001e0: 8098 5ac0 fc91 00bf 01fa 1d40 63a2 ad3f
000001f0: 2137 bdbe 4698 79c0 9676 3bc0 52c4 18be
00000200: 4da5 963e b2cd 8e3e ce1a c83d 6430 233e
00000210: 1da4 853f 4890 67bf 3ac0 1b3f d83e 60bc
00000220: f98b 0c3f a506 8abf 4e0b 17be c0cd 27bf
00000230: d7fd 1cbc 586b eb3e d720 de3e 5782 b9be
00000240: c47d 23be b899 1fbf bd9a 843f 9c56 f13d
00000250: 3a06 de3e fadc 85bf 6cf3 84be 1a42 ef3e
00000260: a50b 25bc c876 98bf 49e1 f9be e684 24bf
00000270: d644 64be ece9 e93c 2591 3abe 3c14 f7be
00000280: f1e5 cbbf f775 f4be 8bad f53f adac 99bf
00000290: 75e4 a43f 4016 13bf e0ea 91be c154 31bf
000002a0: c7ca 5dbf 7bad dabf d869 e73f 4678 873e
000002b0: 4fc4 143f 5542 c7be f3e4 c23f 0898 de3e
000002c0: e8e9 fbbf 426d 0740 5c01 a03f b066 1440
000002d0: cde9 253f d3ec 93bf f881 f5bf 283b 913f
000002e0: 2201 f73e d0f6 49bf 830b f23f e29f 003f
000002f0: 9e37 85bf b938 98bf 06b7 883f dbc6 59bf
00000300: 34be 6bbe 0822 b2be 0fb6 94be df93 ca3d
00000310: 06d6 5dbf 0bf6 6f3f a2e0 27bf d9e0 d0bb
00000320: ed95 16bf 60fd 8e3f b796 cc3d f715 233f
00000330: e527 16be 7fbf 23bf d98e 17be b366 d73e
00000340: 67c4 10bc 9c1a 383f 1a5d 84bf d9d1 a4be
00000350: acad 1dbf 7e6d 543f 0f84 4c3d 4140 7cbe
00000360: 6bcf 443e 62be 833f 2ec9 c53e e215 243f
00000370: edb8 2a3e 1a97 7fbd 4ff5 8d3e 87e4 203f
00000380: 2c20 23be bca8 02bf 2ac4 f7bc c431 40be
00000390: 4dde 67bf f320 923f dd4e 3bbf 3615 543e
000003a0: 4860 33bf f8d2 6d3f 86de 0e3e 4f9d 273f
000003b0: 75fa f5bd 3874 6fbf 5d27 88be 3094 0b3f
000003c0: d548 413e bf1a 563f 29a4 46bf 5164 62be
000003d0: 0696 21bf 9f1b 673f 3b36 283d 3894 0abf
000003e0: dc57 373e a5b9 623f 2f32 433f 5885 2a3f
000003f0: 0884 523e 8cf2 903d e322 cc3d cd5c 053f
-0.3015837 0.6600603 0.5363622 -0.117306665 -1.363289 0.5310174 0.037379783 0.6403431
0.7128638 0.4446511 -0.116553366 -0.023795368 1.0285217 -0.18214846 -0.9096023 -1.0315117
-0.7600782 0.12551993 -0.26638788 0.47175783 -0.5776364 0.71220803 0.5896778 1.3521993
0.6406919 0.8718986 0.42147714 -0.1209576 -0.9012643 0.009472923 -1.1669791 0.92921627
-0.1397024 1.1545283 -0.67925864 1.2753979 -1.6733204 0.82628524 1.1848897 0.2325182
0.29162404 0.44244525 -1.4325608 1.6322795 -0.43034554 0.21657446 -0.20321977 -1.1931101
-0.28768477 -1.046036 -0.9983546 -0.08858256 -0.8930156 0.6079895 0.38950709 -0.3083247
-1.1431947 0.86258024 -0.4835068 -0.72566617 1.0077939 0.2929166 -1.2471821 0.4109008
-2.6833344 3.3130019 2.949764 -1.1006511 -0.07721121 0.32540667 0.5354192 -1.922707
1.5124664 -0.2583026 3.6994781 -0.85835826 1.0558201 -0.5903225 0.702378 -2.5083482
-4.589174 1.87936 0.75511134 1.417308 0.6241098 -0.4423505 -1.4368837 1.8104584
-3.2227094 -0.48465413 2.422536 0.68711066 -0.5551065 -3.4896755 -1.841947 -0.06744068
-2.6179802 4.218534 2.535776 -1.0595512 0.105811834 0.3534363 0.9947796 -2.071554
1.9981314 -0.4493826 3.559126 -1.0734571 0.347715 -0.7667189 0.62956023 -2.6834633
-5.482211 2.009074 0.6477143 0.96234316 0.69158316 -0.16650234 -1.7511753 2.5920782
-3.4155579 -0.50222754 2.468384 1.3565181 -0.36956123 -3.899919 -2.929113 -0.1491864
0.2942299 0.27891308 0.097707376 0.15936428 1.0440708 -0.9045453 0.6084019 -0.013686858
0.5490108 -1.0783278 -0.14750406 -0.65548325 -0.0095820045 0.45980334 0.4338443 -0.36232254
-0.15965945 -0.6234393 1.0359722 0.117840976 0.43364125 -1.0458062 -0.25966966 0.4673012
-0.010073577 -1.1911249 -0.4880469 -0.64265287 -0.22291884 0.028553925 -0.1821943 -0.48257625
-1.5929548 -0.4774625 1.9193586 -1.2005821 1.288222 -0.57455826 -0.28499508 -0.6926995
-0.8663754 -1.7084192 1.8079176 0.2645895 0.58112043 -0.38917795 1.522612 0.43475366
-1.9680758 2.1160436 1.2500415 2.3187675 0.64809877 -1.1556648 -1.9180288 1.1346178
0.48243052 -0.7889223 1.8909763 0.5024396 -1.0407598 -1.189231 1.0680854 -0.85069054
-0.23021775 -0.3479159 -0.2904515 0.098914854 -0.866547 0.93734807 -0.6557714 -0.00637446
-0.5882252 1.1171074 0.09989684 0.6370539 -0.14663656 -0.63964075 -0.14800586 0.4207054
-0.0088358885 0.719156 -1.0340912 -0.3219135 -0.6159313 0.8297957 0.04993063 -0.24633886
0.19219749 1.0292475 0.3863005 0.6409589 0.16672106 -0.06239996 0.27726218 0.62848705
-0.15930241 -0.5103872 -0.030244906 -0.18768984 -0.9057358 1.1416305 -0.7316721 0.20711216
-0.7006879 0.9290004 0.13952073 0.6547441 -0.120106615 -0.9353671 -0.26592532 0.5452299
0.1887544 0.8363456 -0.7759424 -0.2210858 -0.6311954 0.9027652 0.041067343 -0.54132414
0.1790461 0.8856452 0.7624845 0.66609716 0.20558178 0.07077512 0.099675916 0.5209473

net.hidden_layers.1.bias f4 [32]
00000000: 9f86 cb3e 2a44 c03e dfc5 cabe efdf abbe
00000010: a9ad 49bf 3d0c febe 778b 863f 6d7e 873f
00000020: 53a4 723f 2daa 27bf e892 233f f018 5fbf
00000030: 9df4 973f 2605 503f 6547 1b3f 710d 103e
00000040: 1388 41bf fdf9 81bf a197 86bc 39bc f7be
00000050: a4f3 88bf e439 cf3e e041 43bf 3f31 3dbf
00000060: 7a15 a23e 7293 21bf fd25 643f d413 79be
00000070: 6a13 88bf 05a1 563f 6e55 923e 7d94 9abe
0.39751145 0.37552005 -0.3960409 -0.33569285 -0.7878061 -0.49618712 1.0511311 1.0585457
0.9478199 -0.6549404 0.63896036 -0.87147427 1.1871525 0.81257856 0.60655814 0.14067627
-0.7559826 -1.0154415 -0.016429724 -0.4838579 -1.0699353 0.40473855 -0.7627239 -0.7390327
0.3165701 -0.6311561 0.89120466 -0.2432397 -1.0630925 0.83839446 0.28580803 -0.30191413

net.output_layer.weight f4 [1, 32]
00000000: 625e 9e41 5c77 9341 f49c 8ec1 5f97 97c1
00000010: 8734 92c1 75d6 95c1 dd68 9141 ff63 9241
00000020: 0662 9141 86dd 91c1 4f1b 9241 1b27 92c1
00000030: f99e 9a41 4680 9241 d57a 9241 c7fc 9241
00000040: 328f 93c1 b8fb 91c1 3208 9041 d4c8 91c1
00000050: 3993 96c1 c269 94c1 ecd7 91c1 af3f 98c1
00000060: 367b 9141 266d 92c1 821c 9241 5a5b 9441
00000070: 8dbc 95c1 635d 9141 8d89 9141 50c4 98c1
19.796085 18.43328 -17.826637 -18.948912 -18.275648 -18.729715 18.176203 18.298826
18.172863 -18.233166 18.263334 -18.269094 19.327623 18.312634 18.309977 18.373426
-18.44492 -18.24791 18.004002 -18.22306 -18.821886 -18.55164 -18.23043 -19.031096
18.185162 -18.303295 18.26392 18.544605 -18.717066 18.170599 18.192163 -19.095856
