Pyrado/data/perma/experiments/hop/nes_adn/2021-10-05_16-58-19/policy.pt (torch, 1592 bytes, 4 tensors)

resting_level f4 [3]
00000000: a025 86c0 ae4b 7a40 2e91 8940
-4.192093 3.9108691 4.298972

obs_layer.weight f4 [3, 11]
00000000: 5e9d ca40 a6c1 c640 27de fa40 1248 5fc1
00000010: 92a0 1741 8f72 3540 27d9 1a41 5f7f 59c0
00000020: 0b0a 48c0 1a11 213d c928 9b40 a4f1 d43e
00000030: e775 8d41 26a2 7c40 a475 3a41 fa2a 1440
00000040: bef9 cfbe e7bf 34c0 24f3 3241 d767 bf3f
00000050: 2e6d bb40 63de 19c0 4ac1 f240 2aae bfc1
00000060: e3a6 9bbf fb4e 2f41 965f e2c1 fb09 15c1
00000070: dc16 6e40 2f57 49c1 44ce 41c0 e4f2 7c40
00000080: 3812 69c0
6.33171 6.2111387 7.839618 -13.955095 9.476702 2.835117 9.678016 -3.398399
-3.125613 0.03932295 4.8487287 0.41590607 17.68257 3.9473968 11.653721 2.315123
-0.40620226 -2.8242128 11.1843605 1.4953564 5.8570776 -2.4041984 7.586095 -23.960041
-1.2160305 10.956782 -28.296673 -9.314937 3.7201452 -12.583785 -3.0282145 3.9523249
-3.641737

prev_act_layer.weight f4 [3, 3]
00000000: 0e21 a640 1c1d cf40 0618 0541 b942 5c40
00000010: 89f6 3440 8992 30c1 e8f0 5f41 6f5e 67bf
00000020: 550a d03e
5.191535 6.4723034 8.318365 3.4415724 2.8275473 -11.035775 13.996315 -0.9037847
0.40632883

pot_to_act_layer.weight f4 [3]
00000000: b233 6f3f 9900 20be 736f 073f
0.93438256 -0.15625228 0.52904433
