Pyrado/data/perma/experiments/cth/ppo_nf/2021-11-17_17-04-19/policy.pt (torch, 5376 bytes, 7 tensors)

resting_level f4 [21]
00000000: bc3b 31bf 65ce dd3e 8f0f c6bf 901b 8e3f
00000010: 5480 633d 6443 1dbf 4f82 8bbe 7bff c13f
00000020: a31f 30bf c72d fc3e 851a c23d 7294 a13f
00000030: 5cec 323f 2273 82be afe5 563f 18c9 2e3f
00000040: e4d3 8f3d 29eb cebf 73b7 f5bf f530 c7be
00000050: 42ad 1abf
-0.6923177 0.4332153 -1.5473498 1.1102161 0.055542305 -0.61430955 -0.27247855 1.5156091
-0.68798274 0.49253675 0.094777144 1.2623427 0.69891906 -0.25478464 0.8394422 0.68275595
0.07022837 -1.6165515 -1.9196609 -0.3890454 -0.6042062

_potentials_init f4 [21]
00000000: ae60 93be a9da 2dbf e43d fa3f 458b bdbe
00000010: dc92 94bf d69f e53f 0e67 6cbf ebe0 2a3f
00000020: 365c 363e ddd7 6ebe a5f0 0ac0 333a 23bf
00000030: b1e4 05bc 9773 503f 825e 293f 4a64 a73e
00000040: c593 213f ffb0 8d3e 6d2e f93e 0dd3 2cbf
00000050: 7dac 9d3d
-0.28784698 -0.67911774 1.9550138 -0.37020317 -1.1607318 1.7939403 -0.9234475 0.6674945
0.17808613 -0.23324533 -2.1709378 -0.6376068 -0.0081722 0.81426376 0.6615983 0.32693702
0.63116103 0.276741 0.48668233 -0.6750954 0.07698915

obs_layer.weight f4 [21, 17]
00000000: 5dde 80bd 2542 d2be 189e 963e f725 0d3f
00000010: c8fe e13e 50e1 4dbd 1539 cc3e 34b7 9a3e
00000020: 28fe 8fbe 367b 213f 510e 2b3d 06f5 943e
00000030: f17b 883e 92a8 243e a4ae c5be 5efb a7be
00000040: fa1b 313d 1b80 8b3e 4ed3 e73d af0b 2fbf
00000050: 1aea 9abe 6c22 0dbf 16b3 283e 8885 843d
00000060: baf6 45be bc59 56b6 875e 133f 1c4c 8b3e
00000070: 0a33 6bbe 9c83 743e 9e61 aebd 9e4b 0b3c
00000080: a885 8fbe 7adc 423d 09e8 1bbf bf8e 4d3d
00000090: 146b 333e f232 59be 39a3 dcbc 7855 83bd
000000a0: 7b69 bbbe 0108 99bd 00d9 fbbc 3386 47bf
000000b0: c608 92be a8f0 1bbe c354 673d fc06 123e
000000c0: 1fce 943e 86d0 f43c f53f 8f3e f4a6 373d
000000d0: c4f0 a6be 1a92 fa3e e03d bf3e a49c 053f
000000e0: 3f36 10bd 7cec 15be 68c7 26be c32d 0abe
000000f0: 28cf e4be 3953 8fbe 0ae7 173d 7470 84bd
00000100: 356d bd3d e4f9 edbd 48f9 87be da33 cb3c
00000110: c9fa 19bf b063 993e e72f b7bd 8c2f 64be
00000120: 1f24 00be db6d a53d d668 67be 2df6 0cbe
00000130: 1655 873e 1bb1 20bf a861 9cbe 7975 ccbe
00000140: 631c 3cbd 4d85 9f3d e76f ce3e 66a0 823d
00000150: d11e 083a 424c 22bf e7c2 303d 5137 893e
00000160: f0b0 3abe 2bc8 78be d656 b2be 1608 b5be
00000170: 995e bfbe 4db7 e53d 2ae0 2bbf 5bf7 513e
00000180: fc3e 303d 73ad bcbe 7bf1 8f3e 8c96 f33e
00000190: 3a02 aebb 8164 36be ecc0 12bf b401 393f
000001a0: 6f8f 893f f764 8b3f dec5 3a3f 4794 0c3f
000001b0: 246b be3d 9859 a6be 62d9 44be 5740 8ebf
000001c0: 6b82 00be a128 73be 2067 1f3f e384 203b
000001d0: 9f2f c3be c49c 443d 2cbc 053f f706 8bbe
000001e0: 3455 a0bd 1976 5e3e 8690 723d 23a2 3cbd
000001f0: e8a5 02bf 0233 debe 4e3e 11bf a4ed a13d
00000200: 8057 57bf bbda b7be f8a4 22be 7b92 62be
00000210: d6ca c13c cdd5 1bbe 2ddb 6bbd 5f56 383e
00000220: 5050 01bf b05c 48be 7472 313f ec01 e83e
00000230: 6b97 fd3e 746d 2ebd d46d 713d 045c 78be
00000240: 596a 5bbc 3ba3 3fbf 345e 87bd 64ce 003e
00000250: bdb4 6bbc 03df 4b3c cd7c 603d 8a02 7a3c
00000260: 27b5 62be f86f 483e 52eb 6cbe ee50 133f
00000270: d7d2 053f fd28 1d3f 08ff 5d3e e297 1d3e
00000280: 9cda 3c3f 1163 73bd 4db0 cf3e f8b7 f73d
00000290: a80f d83d e06e 403e 7447 30bd 0572 523e
000002a0: 00f3 b2be 7be2 bbbe d35a 9d3e 3121 643e
000002b0: 2010 a0bf 6997 85bf 857f 5ebf 9e67 3cbf
000002c0: 9989 22be d8e8 16bd c5ce ab3e b3b3 d23e
000002d0: 5fcf 883d e12a 103e 1294 05bf 34a4 b7bd
000002e0: 8a9b 6e3e 02f3 a2bd 7c60 95be 6ec3 923b
000002f0: 7470 3d3e 6696 b7be c1b6 74bd 809a 17be
00000300: 8adb 0bbd a032 d23e d289 6fbd ad05 85be
00000310: d6d2 c63e 23ff 963e 0946 9a3e b45f 4fbe
00000320: df99 063d 18f6 93be 9815 ba3d 213e 1f3e
00000330: 773d 253e 906a 773e 671e e03c a515 293e
00000340: df7b 963e 0607 c43e d881 1b3f 823a c43e
00000350: 701e 0cbe 4530 293f aa29 563e 22a2 793c
00000360: 15b9 94bd 4aa5 893d 36e1 0e3d 5c37 983d
00000370: 5935 843e 877d 74bf 81a2 cd3e 4326 c93e
00000380: f176 8f3e a411 e73d 043b 75be 099e b1be
00000390: 2d9f 11bf 3873 63be 23f5 67bf 9b71 30bf
000003a0: ac05 01bf 8607 da3d d276 443e 98b3 873d
000003b0: 09bf 02be ace7 283e f297 2abf 15fb 0bbe
000003c0: 88d3 663f f925 993e 93c5 323f c236 8fbd
000003d0: fd49 c03e ae46 b53e 3236 9dbe 923a dabe
000003e0: af19 46bb 03a8 c5be 95b3 ed3d 876a 94be
000003f0: 6d0d dabd 4638 dbbd 750f b83e fd7a 143f
-0.062924124 -0.4106609 0.2941749 0.55136055 0.44139695 -0.050263703 0.398873 0.30217898
-0.28123593 0.6307863 0.0417617 0.29093188 0.2665706 0.1607993 -0.38609803 -0.32808965
0.04323957 0.27246174 0.113196 -0.683772 -0.3025673 -0.5513065 0.16474566 0.064707816
-0.193324 -3.1940717e-06 0.5756611 0.27206504 -0.22968689 0.2387833 -0.08514713 0.008501915
-0.2803166 0.047573544 -0.6090093 0.05018496 0.17521316 -0.2121084 -0.0269333 -0.06412786
-0.36603913 -0.0747223 -0.030743122 -0.77939147 -0.2852232 -0.15228522 0.05647732 0.14260477
0.29063508 0.029884588 0.27978483 0.044836953 -0.32605565 0.48939592 0.37351894 0.5219214
-0.035207983 -0.14640993 -0.16287005 -0.13494019 -0.44689298 -0.2799318 0.03708557 -0.06466761
0.09249345 -0.116199285 -0.26557374 0.024804998 -0.6014829 0.29958868 -0.089446835 -0.22283763
-0.12513779 0.08077594 -0.22598585 -0.13765784 0.26432103 -0.6277024 -0.30543256 -0.39933375
-0.04592551 0.07789097 0.4031975 0.0637825 0.000519258 -0.6339761 0.043154623 0.26800016
-0.18231559 -0.24295108 -0.34831876 -0.35357732 -0.3737686 0.112166025 -0.6713892 0.20504515
0.043028817 -0.3685108 0.28113922 0.47575796 -0.005310324 -0.17811777 -0.57325625 0.72268224
1.0746897 1.0890187 0.7295817 0.54913753 0.09297779 -0.3249023 -0.1922355 -1.1113385
-0.1254975 -0.23745967 0.6226673 0.002449327 -0.3812227 0.048001066 0.5224025 -0.2715375
-0.07828751 0.21724738 0.05921986 -0.046053063 -0.510344 -0.4339829 -0.56735694 0.079066545
-0.8411789 -0.35909066 -0.15883243 -0.2212619 0.02365629 -0.15218277 -0.05758207 0.18001698
-0.5051317 -0.19566607 0.69315267 0.45313966 0.49529585 -0.04258485 0.05894263 -0.24253851
-0.0133920545 -0.74858445 -0.06609765 0.12578732 -0.014386353 0.012443307 0.05480652 0.015259394
-0.22139417 0.19573963 -0.23136643 0.57545364 0.5227484 0.6139067 0.21679318 0.1538997
0.7377107 -0.05942065 0.40564194 0.12095636 0.10549861 0.18792295 -0.043036893 0.20551307
-0.3495102 -0.36696228 0.30733356 0.22278287 -1.2504921 -1.0436832 -0.8691333 -0.7359561
-0.15872802 -0.03684315 0.3355619 0.41152725 0.06680178 0.14078857 -0.5217906 -0.08966866
0.23301521 -0.07956506 -0.29175174 0.0044788634 0.18499929 -0.35856932 -0.0597446 -0.14805031
-0.034144916 0.4105425 -0.058481045 -0.25980893 0.3883273 0.2949153 0.30131558 -0.20251352
0.032861587 -0.28898692 0.0908615 0.15551044 0.16136728 0.24161744 0.027358247 0.16512163
0.2939138 0.38286608 0.60745 0.38325888 -0.13683486 0.6608928 0.20914331 0.015236409
-0.07261864 0.067209795 0.034882747 0.07432434 0.2582195 -0.9550404 0.40163043 0.39287004
0.28020433 0.112826616 -0.23948294 -0.34690884 -0.5688351 -0.22211921 -0.90608424 -0.6892335
-0.5039928 0.10645966 0.19185951 0.06626052 -0.12768187 0.16494626 -0.666381 -0.13669999
0.9016652 0.29911783 0.69832724 -0.06992866 0.3755645 0.35405487 -0.3070541 -0.4262281
-0.003022771 -0.38604745 0.11606518 -0.28987524 -0.10647092 -0.10704093 0.35949293 0.58000165

conv_layer.weight f4 [1, 1, 11]
00000000: a1da 7f3e 01b8 0bbf 888e 31bc 4c79 9d3e
00000010: 4d33 d03d cb20 05be 0ffd 843d 5e98 8cbe
00000020: 3ee1 95be 428d 9b3d c981 3f3e
0.24985744 -0.5457764 -0.010837205 0.30756605 0.10166035 -0.13000791 0.064935796 -0.27459997
-0.2927341 0.07595302 0.18701853

pot_to_activ.weight f4 [21]
00000000: f93b 463e dfdf 1cbf 7100 b13e 76ba a8be
00000010: 5754 97be 63ba e9be b0a6 9f3f d861 9abe
00000020: 6521 18bf b55d 3ebe 0f58 a03f dc42 7abe
00000030: ffeb 4f3e c42d 91bf 5223 093f 0dd6 4f3f
00000040: 4da9 413e f28a b43e c15d 2fbe f949 f63e
00000050: db36 d5be
0.19358815 -0.612791 0.3457065 -0.32954758 -0.29556534 -0.45650014 1.2472744 -0.30152774
-0.59425956 -0.18590434 1.2526873 -0.24439567 0.20304869 -1.1342092 0.5356952 0.8118599
0.1891224 0.35262257 -0.17125608 0.48103312 -0.41643414

pot_to_activ.bias f4 [21]
00000000: 514b 203f d8d8 e73d 4ac1 8f3e a20b 27be
00000010: a422 75be a6aa 033f 8a45 10be 1635 de3d
00000020: 465b cf3c 1b8a fe3c e8d0 5cbe c7d4 38be
00000030: 7fb4 11be 6e4e 883e 7103 063f 9afd 4a3e
00000040: 8de4 583e d5c4 bdbe f003 1f3f 8808 1a3d
00000050: b897 823d
0.62614924 0.113206565 0.28077155 -0.16313031 -0.23938996 0.51432264 -0.14089027 0.10849969
0.025312077 0.031071713 -0.21564066 -0.18049918 -0.1422901 0.26622337 0.52349 0.19823304
0.21180935 -0.37064233 0.62115383 0.037605792 0.06376594

act_layer.weight f4 [6, 21]
00000000: 51ea 91be ac6f dabd 7647 96bd c654 fe3d
00000010: 0793 0fbe 8e9e d83c 12f4 ddbe 7586 26be
00000020: 6eff 093e d078 bf3e 9d82 403f 39ca 1f3e
00000030: 3e2b d6be b883 ebbb 6265 94be 8fce 71be
00000040: 29a1 343e 6b41 56bc 1551 f83d 035c 353d
00000050: da05 9bbd 362d 2c3e 647e 0f3f f74b ae3d
00000060: d3a9 61be 9473 413d ae6a 86be 3f5e 3fbe
00000070: 5a0e ecbc f58e efbe 322b 38be 4385 c2bd
00000080: f953 683e 47a6 5a3b 1c9f 063d 122c 0b3e
00000090: 2492 92be b4c1 483e 962a ce3d c88b 723d
000000a0: edd8 f33d 16f5 39be 0fb4 11be 761c b7bd
000000b0: 7667 d63c 24a9 703e c3e3 e73d 941c 7cbc
000000c0: 02fb 7abd 2f09 fe3e 67d5 0fbe 90d0 abbd
000000d0: 195c 673e 39b5 f7bd 7b36 c7bd cda2 9c3e
000000e0: 24f0 c9be 74a0 483c 51b3 0bbe a1dc b83e
000000f0: 9d38 963c 6493 df3c 146e 7e3d b00c 1a3e
00000100: a859 cc3c bcdb e6bd c2d8 733e e9e7 bc3e
00000110: fe16 593e eef0 1abf 5f17 2b3e ff04 ec3d
00000120: 65d2 803e 01fb a53e 68d5 93be a3e4 853d
00000130: 7d22 a13e 445e acbe 8412 e83d 3a62 07bf
00000140: a11f 2b3d e68c c73e 8706 1abd b715 50be
00000150: 16b9 243e 16df 3fbe 3ef3 6dbd 18fb 323e
00000160: 8a86 193e 03d5 993e 3c9c 103e 54b5 ef3d
00000170: 6ae4 803e 66a9 7ebe 5feb 7ebe 5b36 0d3e
00000180: 9a05 c83e db8c 8d3e 4d50 283d f24c a53e
00000190: ddb7 cc3d e117 62bd b0ca a83d 4795 94bd
000001a0: 5aaa 893e 86c7 de3e 7a6d e83d 659b 47bd
000001b0: 74c1 d4be f87a 973e 3bde a03d 9b7f a7bd
000001c0: 83d7 fb3c 5bf9 65be 7a46 6ebe 3757 83be
000001d0: 5acc 6cbd 8211 febd d65f 4ebc 6930 703d
000001e0: 4c3f 1a3d bcbd 35be 1d3a 9e3c 93d6 ffbd
000001f0: 538f 573d 4f03 113e
-0.28499082 -0.10665831 -0.07337849 0.12418513 -0.1402093 0.026442792 -0.43350273 -0.16262229
0.13476345 0.3739686 0.751993 0.15604486 -0.41829866 -0.007187333 -0.289836 -0.23613952
0.17639603 -0.01307712 0.1212484 0.044277202 -0.075694755 0.16814122 0.5605223 0.08510583
-0.22037439 0.047229365 -0.26253265 -0.18688296 -0.028815437 -0.46788755 -0.17985228 -0.09498074
0.22688283 0.003336327 0.032866582 0.1359103 -0.2862712 0.19605142 0.100667164 0.059215337
0.1190661 -0.18159899 -0.14228843 -0.08940975 0.02617238 0.23502022 0.11322739 -0.015387673
-0.061274536 0.49616382 -0.1404625 -0.083893895 0.22593726 -0.12095112 -0.09727188 0.30592957
-0.39441025 0.012245286 -0.13642623 0.36105826 0.018337542 0.027291961 0.062116697 0.15043902
0.024945095 -0.1127238 0.23813155 0.36895683 0.21200177 -0.6052388 0.16708134 0.115243904
0.25160518 0.32418063 -0.28873754 0.065377496 0.31471625 -0.3366567 0.113316566 -0.52884257
0.04177821 0.38974684 -0.03760388 -0.20320784 0.1608623 -0.18737444 -0.058093302 0.17478597
0.14992729 0.30045328 0.14122099 0.117045075 0.25174266 -0.24869308 -0.24894474 0.13790266
0.39066774 0.27646527 0.041092206 0.32285267 0.09996007 -0.055198554 0.082417846 -0.07255035
0.2688778 0.435116 0.11349006 -0.04873218 -0.41553843 0.29586005 0.07854887 -0.08178636
0.030742412 -0.22458403 -0.23269072 -0.25652477 -0.057812072 -0.12405683 -0.012596091 0.058639918
0.03765802 -0.17748159 0.01931482 -0.12492099 0.05262692 0.14161418
