Pyrado/data/perma/experiments/cth/ppo_nf/2021-11-17_17-04-19/vfcn.pt (torch, 9189 bytes, 5 tensors)

net.hidden_layers.0.weight f4 [32, 17]
000000 23 fe ab bf 83 32 bd bf a7 8c 8a 3e 2b bf e8 3e
       -1.3436931 -1.478104 0.27060434 0.4545835
000010 e0 3c 0f 3e ce bd 5e 3e 94 e2 91 be 36 de 89 bd
       0.13988066 0.21752092 -0.28493178 -0.067318365
000020 94 78 85 be f0 d0 49 be 22 51 c1 be fe 6e a1 bc
       -0.26068556 -0.1970861 -0.37757212 -0.019706246
000030 04 12 9d bd ae f6 3b 3d dc 73 f2 3c c4 f6 fb bb
       -0.07669452 0.04588955 0.029596262 -0.007689329
000040 d6 1d 1d bd e0 ce 84 3f f2 e5 ca 3d 88 91 12 bd
       -0.038358532 1.0375633 0.0990714 -0.03578332
000050 b3 a8 b3 bd a5 03 8f be 37 27 8a bf fc 51 2b bf
       -0.08772411 -0.27932468 -1.0793217 -0.66921973
000060 76 f6 18 be 70 2d 5f be 67 4a 70 3e 17 57 a0 3e
       -0.14937767 -0.21794677 0.23465882 0.31316444
000070 4d 70 1e bd 4f 5c 61 bc bc 70 97 bb e3 58 45 3e
       -0.038681317 -0.013754918 -0.0046215933 0.19272189
000080 2e 6c b8 3d b3 36 1b 3d 0f e5 8e 3e c7 3a 2a bf
       0.09005009 0.037893962 0.27909133 -0.6649594
000090 7c 6e 8a bf aa 9e 24 bf 93 f3 28 bf 8c 86 60 be
       -1.0814967 -0.643046 -0.65996665 -0.21926326
0000a0 9c f4 b6 3e ee 11 cf 3b b3 be 03 3d 88 74 6e 3e
       0.35733497 0.006319276 0.032164287 0.2328664
0000b0 9c 75 b7 ba 94 37 19 bd 81 43 03 3d 51 1e 2c bd
       -0.0013996842 -0.03740652 0.0320468 -0.0420211
0000c0 cd 25 5c bd 93 71 0c bc 46 51 98 bd 03 dd 0a c0
       -0.053746987 -0.008572 -0.07437377 -2.1697395
0000d0 30 e2 b5 3f d7 94 09 3e d4 4d 04 3f 2a ba 93 be
       1.4209652 0.13435684 0.51681256 -0.2885297
0000e0 36 91 04 3f b6 27 7a be 9a c6 a7 bd 96 5d 93 3e
       0.51784074 -0.24429211 -0.08192177 0.28782338
0000f0 d5 96 83 bd 2c f1 b3 bd 76 6d 8a bd 39 38 2b bd
       -0.06425253 -0.08786234 -0.06759159 -0.041801665
000100 0d e8 ca bc cb de 79 bd ec 15 f2 bc c3 55 1a bc
       -0.024768854 -0.061003488 -0.029551469 -0.009419861
000110 72 1c 31 bf b6 23 a8 3e 85 ce 89 3f 16 60 51 3f
       -0.6918403 0.32839745 1.076615 0.8178724
000120 aa b3 f1 3d ef 97 db 3e 2c 55 91 be 12 e0 c6 3d
       0.11801846 0.42889354 -0.28385293 0.09710707
000130 fd 8d c6 bd ad 30 c5 bc 4b 31 08 3e 1e fd b9 3c
       -0.09695051 -0.024071062 0.13300054 0.022703703
000140 5b eb 23 3d aa ff 80 3c 91 71 e9 bc 8b 5e b4 3b
       0.040019374 0.01574691 -0.028496535 0.0055044345
000150 9f 8d 6a 3c 57 fa 0c 3e 0e 6f 91 3f 1b e2 0c bf
       0.014315992 0.13767372 1.1362016 -0.5503251
000160 5e 4b cc be 62 c6 76 bb d5 41 b5 be af 89 3a be
       -0.3990125 -0.0037654866 -0.35401788 -0.18216585
000170 19 de c6 be 72 50 8e 3e c6 fb 78 bc d7 5b 92 3e
       -0.38841322 0.2779575 -0.015196746 0.28585693
000180 16 10 b7 3d f7 fd 87 3d 47 83 2d 3c 6a be a0 bc
       0.08938615 0.06640237 0.010590381 -0.019622047
000190 bd fd 86 bc 22 c7 df bb 2d 36 1c 3f 87 5d 00 c0
       -0.016478414 -0.0068291584 0.61020166 -2.0057085
0001a0 1e 96 bd bd 3b d8 e0 be c8 17 a4 3d d6 f2 a1 3d
       -0.09257148 -0.4391497 0.080123484 0.079076454
0001b0 e9 6c 2b 3c a8 f4 12 3e 0e 38 dd be c8 d4 37 3e
       0.010462978 0.14351141 -0.4320683 0.17952263
0001c0 86 71 5b be 97 80 cb 3a 13 1b 9a bc 28 70 4a bb
       -0.21430025 0.0015525994 -0.018811738 -0.0030889604
0001d0 41 81 9b 3a 01 6d 92 ba 42 d0 d1 bc 24 00 d9 bf
       0.0011864082 -0.0011171402 -0.025612 -1.6953168
0001e0 bb 1c 21 bf b8 e1 47 be cc b9 2d bd 38 fd a8 be
       -0.62934464 -0.19519699 -0.042413518 -0.3300569
0001f0 9a b8 d0 3c 1a d3 b8 be e0 23 0b be d9 ff ea 3e
       0.02547865 -0.36098558 -0.13587904 0.4589832
000200 5a 19 c4 be 9b 22 80 be 4e 7c 9a bd 63 68 83 bd
       -0.38300592 -0.25026402 -0.075432405 -0.064163946
000210 45 ee a6 bc cc b5 e1 3b c7 94 4f bc b8 1c 10 3c
       -0.020377288 0.006888127 -0.012669749 0.00879591
000220 64 62 3e 3d 2e a2 82 3e 5f 1c 0c 3d 64 d0 96 be
       0.04648055 0.25514358 0.034206744 -0.29455864
000230 75 4c 10 bd ad 02 1a 3d 93 69 86 bd 02 f3 0e be
       -0.035229165 0.037600208 -0.065631054 -0.13959888
000240 d1 16 65 3f 0d 4b 3e bf ce 1c df 3d 56 5a 7b bd
       0.8948794 -0.7433327 0.10894166 -0.061365448
000250 8f ff 04 bd 16 61 8e bb 97 aa c2 bc dd dd d4 bc
       -0.032470282 -0.0043450696 -0.023762984 -0.025984699
000260 e6 95 90 3d 7a e8 0b 40 f7 db 9c 3f 00 c4 d9 3e
       0.07059841 2.1860642 1.2254628 0.4253235
000270 d1 0f 19 3d b4 8e f2 3d 97 88 f9 be fa b6 e0 bd
       0.0373686 0.11843625 -0.48737022 -0.109724
000280 48 79 8b be 83 7f 35 be 77 24 b3 3d fc f9 7a 3d
       -0.27240968 -0.17724423 0.087471895 0.06127356
000290 39 26 17 3c 86 65 0b 3c 1b 69 21 bc f7 aa ae bc
       0.009225422 0.008508092 -0.009851719 -0.021321757
0002a0 d9 7e 5b 3c 8e 43 50 3b 00 bd 19 bf cd 3c bd bf
       0.013396942 0.0031778547 -0.60054016 -1.478418
0002b0 5c 9c 99 3d 04 83 44 be 98 d2 ab 3c 0f c8 b8 3e
       0.07500526 -0.19190603 0.020974442 0.36090133
0002c0 a2 2b d5 3e 10 7e ba 3e 26 d0 3b be d3 b3 e4 3d
       0.41634852 0.36424303 -0.18341121 0.11167111
0002d0 3e 40 0c be 1d 4e 21 3b 83 7a 72 3c 4d 2d 23 bc
       -0.13696381 0.002461321 0.014799717 -0.009959531
0002e0 8d 05 5b bd 11 f8 ef bc 77 e2 92 3c 83 93 0e 3f
       -0.05347209 -0.029293092 0.017930252 0.55693835
0002f0 22 3a ad 3f b0 1f 98 3c fa 97 3c bd fc 2b 01 3f
       1.3533366 0.018569797 -0.046043374 0.5045774
000300 4c 1d 6a 3f cb a7 19 3f 6b 92 4e bb fb e5 48 be
       0.91450953 0.60021657 -0.0031520377 -0.1961898
000310 1b 17 4e 3e ff c3 21 3f 71 c6 d2 3d 3a bd fb 3d
       0.20126002 0.6318969 0.10291756 0.122919515
000320 6b 47 cb 3c 14 ee 29 be 62 05 69 bc 03 bf 24 3d
       0.024814328 -0.16594726 -0.014222475 0.040221225
000330 29 fc de 3e 75 60 3a bf 92 7e 49 3e 37 27 c3 3d
       0.43551758 -0.7280343 0.19677189 0.09528964
000340 02 23 99 3d 99 f4 8b bf fb 7d ae be 34 95 80 3d
       0.0747738 -1.093402 -0.3408049 0.06278458
000350 40 a0 48 be 97 13 3a bc dd 7e 88 3e 5c 43 8d 3c
       -0.1959238 -0.01135721 0.2665929 0.017244034
000360 04 0f 03 3d 21 97 dc bc 06 33 7b bd db a3 ab bc
       0.031996742 -0.026927533 -0.061327957 -0.020952156
000370 d1 59 8c 3c 57 6a f2 be 3e ba 86 bf fe 3d d3 be
       0.017132672 -0.47346756 -1.0525587 -0.41258234
000380 70 b0 ab be c1 8b eb 3c 52 9e f2 bd 00 45 14 be
       -0.3353305 0.028753163 -0.118466035 -0.14479446
000390 fa 41 b7 bc dc f6 c2 3e af 69 cb 3d a2 ae a9 3c
       -0.022370327 0.38078964 0.09932267 0.020713154
0003a0 38 40 2f bd 07 14 85 bc b0 5c 91 3b 8c c8 92 3b
       -0.042785853 -0.016244901 0.004436098 0.0044794735
0003b0 8c bd c2 39 b5 ed 62 3b cd 67 6b bd 00 de 35 3f
       0.00037143787 0.0034626548 -0.05747204 0.7104187
0003c0 95 b7 50 bf 7f 37 51 bf 98 5b cc bd 93 f3 46 3d
       -0.81530124 -0.81725305 -0.099784076 0.048572134
0003d0 44 7f 33 3f 83 bc c0 3d d0 ef 1b 3e 16 ab 0a 3e
       0.70116067 0.09410956 0.152282 0.13541827
0003e0 d1 1e f9 bd de bb e2 bc 7e ac 4a bd 3b e7 7a bb
       -0.12164081 -0.027677473 -0.049480908 -0.0038284797
0003f0 71 e7 01 bd 78 43 b2 bb 51 cc cd bc 53 3f 98 3d
       -0.03171486 -0.005440172 -0.02512184 0.07433953

net.hidden_layers.0.bias f4 [32]
000000 7b c2 4b bf 33 51 02 bf e3 8e 4a be 02 19 72 3b
       -0.7959363 -0.5090515 -0.1978107 0.0036941175
000010 b4 7a 1a 3f 23 23 db bf 2a 4b 98 bf 66 4b b8 3e
       0.6034348 -1.7120098 -1.1897938 0.35995024
000020 1c ff 5a 3f 23 47 cb bf 3e 6d 5c bf 62 e5 97 3e
       0.85545516 -1.5881084 -0.8610419 0.29667193
000030 bf 38 a6 3e 6b e0 93 bf 47 f9 24 3f c2 fb 35 3f
       0.3246517 -1.1552862 0.6444287 0.71087277
000040 b7 03 40 bf 47 40 31 3f 25 56 26 bf 21 e2 9d 3f
       -0.7500567 0.69238704 -0.64975196 1.2334634
000050 9d b9 ca 3e 7f aa 5c 3f 2d 40 38 bf 9c 65 85 bf
       0.39594737 0.86197656 -0.71972924 -1.0421634
000060 6d b2 81 bd 74 12 27 bf 34 3e 52 bf 6d d7 3a 3f
       -0.0633286 -0.6526253 -0.82126164 0.72984964
000070 c0 87 a1 bf f3 ba 0c bf 84 e6 dc be b7 a4 49 bf
       -1.2619553 -0.5497276 -0.4314462 -0.7876696

net.hidden_layers.1.weight f4 [32, 32]
000000 f6 92 a0 bf 3a 54 7b 3e d3 9c 84 bd 07 91 1b 3f
       -1.2544849 0.24543849 -0.06475224 0.6076817
000010 fc 37 6c be 15 b4 06 bf 97 25 17 c0 23 b4 70 be
       -0.23068231 -0.52618533 -2.3616693 -0.23506217
000020 b4 f2 37 3f bb 30 05 bf 42 30 9c bf aa d2 60 3f
       0.7185471 -0.5202748 -1.2202227 0.8782145
000030 c4 97 77 3c 82 6c 3a bf ca 2b 18 bf 77 00 bd 3f
       0.015111867 -0.7282182 -0.59441817 1.4765767
000040 5e 3d d1 be 0c c7 1b 3f a2 a1 53 3d 45 a4 c8 3e
       -0.40867132 0.60850596 0.051667817 0.39187828
000050 17 07 2b bf 77 c8 0f bf 30 88 5a be b5 d6 98 bf
       -0.66807693 -0.5616526 -0.21341014 -1.1940523
000060 95 c8 e8 3e c7 5a 02 bd 93 57 d0 3e 3f 19 28 be
       0.45465532 -0.031824853 0.40691814 -0.1641588
000070 f7 7a d7 bf f7 5f 24 3f f2 b3 bc 3e 50 e3 04 bf
       -1.6834401 0.6420893 0.36856037 -0.5190935
000080 e4 5e c2 3e 33 a8 61 3f fa ca fa 3d b3 eb 36 3e
       0.3796302 0.88147277 0.12245746 0.1786335
000090 ee 8c e0 be 93 94 ff 3f 28 e2 a5 3f 18 b6 08 bf
       -0.4385752 1.9967216 1.2959642 -0.53402853
0000a0 24 c5 f8 bc d1 25 2a 40 fc 67 92 3e c0 31 80 be
       -0.030367441 2.6585581 0.2859496 -0.25037956
0000b0 e5 99 13 bf 44 67 a0 be c8 b0 06 be d0 9e 02 bf
       -0.576567 -0.31328785 -0.13153374 -0.5102358
0000c0 03 76 4c 3e 1e 44 27 be 6d 5d 04 3f 03 46 d3 bf
       0.19966893 -0.16334578 0.51705056 -1.6505741
0000d0 e7 f2 87 3e db a3 c3 be 51 a0 71 3f 58 a2 9e 3d
       0.26552507 -0.3821095 0.9438525 0.07745808
0000e0 bc 29 db 3d 73 87 88 3f 48 df 17 3f 95 4d 2b 3e
       0.107013196 1.0666336 0.59325075 0.16728814
0000f0 17 ca e3 3e 04 d6 6e 3c da bd a1 3e 53 fd 00 3f
       0.4449012 0.0145773925 0.31590158 0.5038654
000100 b1 b8 bb be 3e 98 97 3d 71 90 ea 3d 1b a7 7b 3e
       -0.36664346 0.07402085 0.11453331 0.24575464
000110 be 0f d3 bd d8 1b 8f 3d 5b c9 ca be 66 6c 4b 3e
       -0.10305737 0.06987733 -0.39606747 0.1986557
000120 b6 ca 04 3e 7c 96 43 bf 65 66 bd be ed f0 7c bd
       0.12967953 -0.76401496 -0.36992183 -0.061753202
000130 22 a2 d8 3e 1c e0 e1 3e 72 63 ad be f0 b2 e8 3e
       0.42311198 0.44116294 -0.33864933 0.45449018
000140 63 6e cf 3d b1 4e e5 bd 0c 44 f0 3e 86 2f 68 3f
       0.101284765 -0.1119665 0.46926916 0.90697515
000150 de 24 cf bf 75 bf a7 3e 1e c5 d4 3d 61 97 bc bb
       -1.6183126 0.32763258 0.103891596 -0.0057553505
000160 1c 0a 76 3e f2 47 fe bc 98 e2 95 3d a3 84 a6 3d
       0.24027294 -0.031040166 0.0731861 0.08130767
000170 c8 2a aa 3c e0 86 c0 3e 0e 70 82 be 7b 60 50 bf
       0.020772353 0.376029 -0.25476116 -0.8139722
000180 6c 03 95 be 2d 03 2f bf 14 88 83 3e 68 b6 28 3f
       -0.29104173 -0.6836422 0.25689757 0.6590333
000190 28 62 62 3d c1 c1 9f bf b2 b3 35 bf a9 48 85 3f
       0.05526939 -1.2481004 -0.7097732 1.0412799
0001a0 c9 f4 d6 be 10 2d f1 bf 37 b6 ce bd 6f 21 fc 3d
       -0.4198363 -1.8841877 -0.100933485 0.123110645
0001b0 18 36 99 3e ef 29 54 3f b1 a6 8d 3e b3 02 42 3f
       0.29924083 0.82876486 0.27666238 0.7578537
0001c0 91 14 45 bf de a4 ee 3d e4 58 dd bc d9 ff 83 3f
       -0.76984507 0.1165254 -0.027019925 1.0312454
0001d0 03 3f 1f bf 00 ae 8e 3e 0f e5 a8 be 21 82 87 be
       -0.62205523 0.27867126 -0.32987258 -0.26466468
0001e0 87 ce 09 3f 92 3f 4a bf 8b 19 18 bf 0c d1 88 be
       0.5383076 -0.7900325 -0.59413975 -0.2672199
0001f0 c4 ee 4d be 2e 33 5b be 37 df 65 be 31 bf f8 be
       -0.20110613 -0.21406242 -0.22448431 -0.48583367
000200 4f 06 75 3f c0 74 ea 3d 61 e7 45 bf 34 cc 0b 3d
       0.9571275 0.114480495 -0.7730618 0.03413029
000210 d2 e6 41 3e 23 57 02 3f 70 62 36 3f ff 96 26 be
       0.18935707 0.5091421 0.71243954 -0.16268538
000220 d3 94 20 be a4 31 d5 3f 53 84 47 3f 4b 8f f4 be
       -0.15681772 1.6655774 0.77936286 -0.47765574
000230 49 01 90 be ec f2 1e be c3 d7 c6 3e a6 aa 2f bf
       -0.2812598 -0.15522355 0.38836488 -0.68619764
000240 93 3b eb 3e f4 ed 86 be d4 6d 0b bf c7 0c 84 bf
       0.4594389 -0.2635342 -0.5446446 -1.0316399
000250 51 6b ba 3f 6e 30 c9 bc bd d1 bc 3d 84 57 83 be
       1.4564 -0.024559226 0.09219692 -0.25652707
000260 54 73 ae be 79 e9 35 bd c5 3c c8 be 0b 5f 83 3e
       -0.34072363 -0.04441211 -0.39108863 0.2565845
000270 db 9e 02 3f 3b 66 0c bf b9 11 17 3e 3e 61 96 3e
       0.51023644 -0.5484349 0.14752854 0.29371065
000280 47 38 07 3e 20 55 06 bf 27 39 0b bd e9 99 88 3f
       0.13205062 -0.5247364 -0.03399005 1.067197
000290 44 9f e6 3e 2c 98 49 bc 1a 1b 3d be 34 cb 8e 3f
       0.45043385 -0.012304347 -0.1846737 1.1155763
0002a0 61 2a 41 3e 8a 6a 9a bf 91 c6 39 bd 6f e3 44 3e
       0.18863823 -1.2063763 -0.045355383 0.19227384
0002b0 bb e7 ae 3e fa 9a 57 3f 5d 16 eb be 38 07 44 3f
       0.3416117 0.8422085 -0.459155 0.76573515
0002c0 12 29 21 bf 9a 85 bd be 92 ff aa 3c b5 5b eb 3e
       -0.62953293 -0.37015992 0.020873819 0.45968404
0002d0 4f 82 02 bf ab a8 d1 be ae 7b a7 3e d2 ad 4e bd
       -0.50980085 -0.40948996 0.32711548 -0.050458737
0002e0 25 f8 43 3f 60 70 e5 3e 07 24 ea 3c fb 6c a8 3d
       0.76550514 0.44812298 0.028581632 0.082239114
0002f0 75 5d 0e 3f c4 39 c5 bd bb ec 9b 3d 5c 87 e1 bc
       0.55611354 -0.096301585 0.07613512 -0.027530365
000300 2f 86 9c bf d4 03 93 3e 85 3f 02 bd 62 af e2 3e
       -1.222845 0.28713858 -0.03179886 0.4427443
000310 e2 03 77 be 59 ee 06 bf e8 9e 22 c0 b3 87 2a be
       -0.24122575 -0.5270744 -2.5409489 -0.16653328
000320 e6 16 47 3f 38 60 12 bf 12 d7 9f bf c0 f1 41 3f
       0.77769315 -0.5717807 -1.2487509 0.75759506
000330 48 50 31 3e 94 55 28 bf 9c 94 ed be 04 62 be 3f
       0.17315781 -0.6575558 -0.46402442 1.4873662
000340 c8 e2 f2 be 41 8d 2d 3f 2e 2a 2d 3e f0 7c df 3e
       -0.47438645 0.6779366 0.16910622 0.43650007
000350 96 bc 9e be c5 65 3a bf a5 68 12 be 47 e6 9f bf
       -0.31003255 -0.7281154 -0.14297731 -1.249215
000360 5b e7 e0 3e f0 f6 02 be 76 2b f8 3e c3 4b 38 be
       0.4392651 -0.12789512 0.48470658 -0.17997651
000370 0c 8a d2 bf bb 8e 2b 3f 27 ef 9b 3e f1 76 f8 be
       -1.6448379 0.67014664 0.30455896 -0.48528245
000380 ef eb 6e 3d 9f 20 54 be 58 96 9c 3d 44 7b 4f 3f
       0.058330473 -0.20715569 0.07645863 0.81047463
000390 49 96 72 be cf 56 d0 be b4 0e e3 3e eb 9e 3f 3f
       -0.23690142 -0.4069123 0.44347155 0.74851865
0003a0 29 b9 06 3f f5 cf 49 bf 09 d6 89 3d fb 1f d3 3c
       0.5262628 -0.7883294 0.06730277 0.025772085
0003b0 2f e4 98 3e b5 2e b8 3e 38 2a 02 bf f0 dc 1a bf
       0.2986159 0.35973135 -0.5084567 -0.60493374
0003c0 38 15 78 bd 99 4f 1f bd 79 24 2d 3f 6d 44 91 3f
       -0.06056711 -0.03889427 0.6763378 1.1349007
0003d0 ee 15 c8 bf 4c 9f 83 3d 86 1f 02 3f 11 f5 36 3f
       -1.5631692 0.06426868 0.5082935 0.7146769
0003e0 ef ba be 3e 60 6f be 3e d8 d7 ec 3e b2 46 85 be
       0.37251994 0.37194347 0.46258426 -0.260305
0003f0 9c 1b 25 3f 0a 68 82 bc 9c af 2e 3f d4 79 2c bf
       0.64495254 -0.01591875 0.6823671 -0.67373395

net.hidden_layers.1.bias f4 [32]
000000 cd fb d1 3d ea e5 36 bf a1 a4 fb 3d 31 55 e9 3d
       0.10253105 -0.7144457 0.1228726 0.11393202
000010 39 32 d4 3d a7 57 fe be 09 c1 e7 bc 07 b2 10 be
       0.10361142 -0.49676248 -0.028290289 -0.14130412
000020 61 e8 49 bc ad 82 7d 3e ce 16 58 3c 73 67 19 be
       -0.01232347 0.2475688 0.013189031 -0.14980869
000030 fe c9 81 3d ee 6a a6 3e d7 ac d2 3d 9d 5b 76 3e
       0.06337355 0.32503456 0.10286873 0.24058385
000040 36 13 18 bf 96 c0 2d 3d 6e df a1 3e 71 34 56 bf
       -0.59404314 0.042419992 0.31615776 -0.8367377
000050 51 08 71 3e df 22 28 3e 5f 38 b5 3d 90 87 7e bd
       0.23538329 0.16419552 0.088486426 -0.062141
000060 01 1f 3d bf e7 9d 52 3f d1 15 de bd 68 cc 9d 3e
       -0.73875433 0.8227219 -0.10844005 0.30820012
000070 30 a3 21 3d 00 3d 58 be fb ec c7 3e f6 19 32 bd
       0.03946227 -0.2111702 0.3904799 -0.04348179

net.output_layer.weight f4 [1, 32]
000000 bf 5b 31 41 47 66 2f c1 5e ed 39 41 c0 d4 3f 41
       11.084899 -10.96247 11.620451 11.989441
000010 02 d0 35 c1 57 36 39 41 92 8b 30 41 96 fa 27 41
       -11.363283 11.575767 11.034075 10.498678
000020 fb ba 32 c1 07 d1 30 41 6b 79 2d 41 53 f4 37 c1
       -11.17065 11.051032 10.842143 -11.497149
000030 3e 12 2e 41 36 a9 2d c1 c9 88 2f c1 9e b9 2c 41
       10.879454 -10.853811 -10.970895 10.795317
000040 09 10 2e c1 a8 5d 32 41 7e 53 34 41 9e 38 2c 41
       -10.878915 11.147865 11.270384 10.763823
000050 33 04 31 41 68 d3 30 41 0d 1a 31 41 b6 73 2e 41
       11.063525 11.051613 11.06886 10.90325
000060 60 59 2c 41 57 9d 2d c1 69 f3 2e c1 81 51 2f c1
       10.77182 -10.850913 -10.934426 -10.957398
000070 ba cb 2f 41 00 df 32 c1 b3 b0 2d 41 b7 c0 2a c1
       10.987238 -11.179443 10.855639 -10.6720495
