Pyrado/data/perma/experiments/cth/ppo_nf/2021-11-19_11-51-26/policy.pt (torch, 5376 bytes, 7 tensors)

resting_level f4 [21]
0	0xbf232c49	-0.6373945
1	0x3ee40f63	0.4454299
2	0xbfd632fb	-1.6734308
3	0x3f7d8a99	0.9903961
4	0x3d146b09	0.03623489
5	0xbf2a44ea	-0.66511405
6	0xbeb00a13	-0.34382686
7	0x3fb4b745	1.411843
8	0xbf5c1e70	-0.85983944
9	0x3f0905b1	0.5352431
10	0x3e4633b2	0.19355658
11	0x3fabfe99	1.3437072
12	0x3f492a21	0.7857991
13	0xbe6e36c6	-0.23263082
14	0x3f1faea7	0.62375873
15	0x3f33ac9d	0.7018526
16	0xbca9fc99	-0.02075033
17	0xbfcc1fcf	-1.5947207
18	0xc004aa9e	-2.0729136
19	0xbed53355	-0.41640726
20	0xbf1ffd3e	-0.6249579

_potentials_init f4 [21]
0	0xbe9360ae	-0.28784698
1	0xbf2ddaa9	-0.67911774
2	0x3ffa3de4	1.9550138
3	0xbebd8b45	-0.37020317
4	0xbf9492dc	-1.1607318
5	0x3fe59fd6	1.7939403
6	0xbf6c670e	-0.9234475
7	0x3f2ae0eb	0.6674945
8	0x3e365c36	0.17808613
9	0xbe6ed7dd	-0.23324533
10	0xc00af0a5	-2.1709378
11	0xbf233a33	-0.6376068
12	0xbc05e4b1	-0.0081722
13	0x3f507397	0.81426376
14	0x3f295e82	0.6615983
15	0x3ea7644a	0.32693702
16	0x3f2193c5	0.63116103
17	0x3e8db0ff	0.276741
18	0x3ef92e6d	0.48668233
19	0xbf2cd30d	-0.6750954
20	0x3d9dac7d	0.07698915

obs_layer.weight f4 [21, 17]
0	0xbe5c6bb5	-0.21525462
1	0xbe8c03b4	-0.27346575
2	0xbb877871	-0.004134231
3	0x3eacc4b5	0.33743826
4	0x3e618f65	0.22027357
5	0xbcc74d35	-0.024328807
6	0x3e2062b2	0.1566265
7	0x3e64d903	0.22348408
8	0xbe458e40	-0.19292545
9	0x3f192ed7	0.59837097
10	0x3b307be6	0.0026929318
11	0xbd2ef8f3	-0.042717885
12	0x3ea900d9	0.3300846
13	0x3e7e3f06	0.24828729
14	0xbec9df2b	-0.39428076
15	0xbeba731e	-0.36415952
16	0x3e249e6a	0.16076055
17	0x3e3cdd23	0.18443732
18	0xbe58fd66	-0.21190414
19	0xbeaa153c	-0.33219326
20	0xbe91f0da	-0.28504068
21	0xbd39bec7	-0.045347955
22	0x3d1c5e0a	0.03817562
23	0x3e791146	0.24322996
24	0xbe421065	-0.18951567
25	0x3dad1130	0.08450544
26	0x3e585fc3	0.2113028
27	0x3e0bc89c	0.13650745
28	0xbe2cef2b	-0.1688811
29	0x3eb09332	0.344873
30	0xbd356d9b	-0.04429398
31	0xbe15f903	-0.14645772
32	0xbe0e6752	-0.13906601
33	0x3d5a1ca6	0.053249978
34	0xbecc1f30	-0.39867544
35	0x3e1131de	0.14179179
36	0x3dd906ae	0.10596977
37	0xbded71bb	-0.11593958
38	0x3d5327d7	0.051551666
39	0x3e44c52b	0.19215839
40	0xbe865d41	-0.26243022
41	0x3cd8db9f	0.026471911
42	0xbd758fc8	-0.059951574
43	0xbf00c0d0	-0.5029421
44	0xbe6429ac	-0.22281522
45	0xbe2092bc	-0.15680975
46	0x3bddd156	0.0067693396
47	0x3ea13511	0.314858
48	0x3e4f820e	0.20264456
49	0x3e11b204	0.14228064
50	0x3e878b98	0.2647369
51	0x3e08ec24	0.1337133
52	0x3e2add66	0.1668602
53	0x3ea2f483	0.31827173
54	0x3e8c67cd	0.27422944
55	0x3ea50b08	0.3223498
56	0x3e9c4c62	0.30527025
57	0xbec255c1	-0.3795605
58	0xbe817b56	-0.2528941
59	0xbdca42a9	-0.09875996
60	0xbed46b69	-0.41488197
61	0xbee429c2	-0.4456311
62	0x3d7bd840	0.06148553
63	0x3e0131c1	0.12616636
64	0x3e253bcf	0.16136096
65	0xbd325d67	-0.043546107
66	0xbe3744e1	-0.17897369
67	0x3df5f11c	0.120088786
68	0xbf059014	-0.5217297
69	0x3efbd5ba	0.49186498
70	0x3e36fd38	0.17870033
71	0xbe8fa97e	-0.28059
72	0x3d26f780	0.04076338
73	0x3eb9033e	0.36135286
74	0xbe5af876	-0.21383843
75	0xbe3c73ab	-0.18403499
76	0x3eb01d46	0.34397334
77	0xbed2bf12	-0.411614
78	0xbee051eb	-0.43812498
79	0xbe44888e	-0.19192716
80	0xbd3ea694	-0.04654558
81	0x3d70bd54	0.058774307
82	0x3f279970	0.654685
83	0x3d1da1d4	0.03848441
84	0xbe134af5	-0.14384063
85	0xbeea5280	-0.45766068
86	0x3e5341e0	0.20630598
87	0x3f0b0ac5	0.5431331
88	0xbd2a88ab	-0.041634243
89	0xbe9e234e	-0.3088631
90	0x3d4f1d20	0.050564885
91	0xbe81eb30	-0.25374746
92	0xbe4c8047	-0.19970809
93	0x3dfb4147	0.1226831
94	0xbea43d30	-0.32077932
95	0xbc18ffcb	-0.00933833
96	0xbcd81485	-0.026376972
97	0xbe7b9234	-0.24567491
98	0x3cbe3a83	0.02322126
99	0x3f1a0913	0.60170096
100	0x3dd51d62	0.10405995
101	0xbd9d5b17	-0.0768339
102	0xbea95158	-0.33069873
103	0x3f821260	1.0161858
104	0x3f6d1d7c	0.92623115
105	0x3ef56d48	0.47934937
106	0x3f0c73b8	0.5486407
107	0x3f12e145	0.57374984
108	0xbeba93f9	-0.3644102
109	0xbef57513	-0.47940883
110	0xbe19bb1a	-0.1501278
111	0xbf8f5dfd	-1.1200558
112	0xbe438447	-0.19093429
113	0xbe8be9c4	-0.27326787
114	0x3f07acd4	0.5299809
115	0x3e947d37	0.2900178
116	0xbd2121a1	-0.03933871
117	0xbde2b2bc	-0.11069247
118	0x3ee801d2	0.4531389
119	0xbe064064	-0.131105
120	0xbc9fd008	-0.019508377
121	0xbde57349	-0.112036295
122	0xbd4b2ea6	-0.049605034
123	0xbe0cf93a	-0.13766947
124	0xbef8f2e6	-0.48622817
125	0xbea48342	-0.32131392
126	0xbe01fc4a	-0.12693897
127	0x3d555979	0.05208728
128	0xbe17adee	-0.14812443
129	0xbcb63c95	-0.022245685
130	0xbec4fd9b	-0.38474736
131	0xbef28b3b	-0.4737185
132	0x3a7e88da	0.00097097235
133	0xbcb43809	-0.021999376
134	0xbec7afda	-0.39001352
135	0xbe463cae	-0.19359085
136	0xbf03e7ba	-0.5152546
137	0x3ed05048	0.4068625
138	0x3f2c3e49	0.6728254
139	0x3ed90a5d	0.4239072
140	0x3e9ff53d	0.3124179
141	0x3e6544dc	0.22389549
142	0xbe979e43	-0.29612932
143	0xbea51f5e	-0.32250494
144	0x3d0a64e8	0.033787638
145	0xbf3364e1	-0.70075804
146	0xbdc77c90	-0.09740555
147	0x3d564a92	0.05231721
148	0xbcb41b02	-0.021985535
149	0x3e3d6da4	0.18498856
150	0x3e71f6cd	0.23629303
151	0x3d0cbae3	0.034357917
152	0x3d8b13dd	0.06790898
153	0x3dd250bd	0.10269306
154	0x3e27f3a2	0.16401532
155	0x3ea14dd1	0.31504682
156	0x3e7177a0	0.2358079
157	0x3eaab7f8	0.33343482
158	0x3e559632	0.20858076
159	0x3d11f024	0.035629407
160	0x3e4a93b0	0.19782901
161	0xbbb2833b	-0.005447773
162	0xbd33a388	-0.043857127
163	0xbea35c6f	-0.3190646
164	0x3e131a4e	0.14365503
165	0x3e2bf4b0	0.1679256
166	0xbd88fb81	-0.066885956
167	0x3e55eae8	0.20890391
168	0xbd9cc738	-0.076551855
169	0xbdba98c5	-0.0911117
170	0x3ec0c60b	0.37651095
171	0xbbfe27b4	-0.007756198
172	0xbf315d8b	-0.6928336
173	0xbf08c3b6	-0.5342363
174	0xbf323ceb	-0.69624203
175	0xbf0a41d4	-0.54006696
176	0x3e8f5f11	0.28002217
177	0x3cdf2505	0.027239332
178	0x3ea67659	0.32512167
179	0x3ea69aac	0.3253988
180	0x3e13fc5f	0.1445174
181	0x3eb4cab7	0.3531091
182	0xbef9cbb3	-0.48788223
183	0xbeecf483	-0.46280298
184	0x3d959f66	0.073057935
185	0xbdd757f1	-0.1051482
186	0xbe9e4dcc	-0.3091873
187	0x3dde9914	0.10869041
188	0xbd6eec07	-0.058330562
189	0x3ad33a5e	0.0016115417
190	0x3e1823e3	0.1485744
191	0xbd5318b1	-0.05153722
192	0xbd10ca69	-0.035349283
193	0x3ec8aed9	0.39195898
194	0xbd7d9655	-0.061910946
195	0xbe50e3da	-0.20399418
196	0xbd9ec75a	-0.07752867
197	0x3dedb369	0.116064854
198	0x3eb3dc34	0.3512894
199	0x3e266813	0.16250639
200	0x3e484db4	0.19560891
201	0xbea90ff3	-0.3301998
202	0xbd2e87fb	-0.04261015
203	0x3e69a068	0.22815096
204	0x3dfdbd99	0.123896785
205	0x3d83ac1a	0.0642931
206	0xbdbb36ac	-0.09141287
207	0x3e732088	0.23742878
208	0x3e733e63	0.23754267
209	0x3eb7f7c2	0.35931212
210	0x3f1abd9b	0.60445565
211	0x3dd83dff	0.105587
212	0xbde3d323	-0.111242555
213	0x3f04821f	0.5176105
214	0x3decae98	0.115567386
215	0x3d75b55c	0.05998741
216	0xbc86f3aa	-0.01647361
217	0x3ea62c43	0.32455644
218	0xbe22b0b5	-0.15887721
219	0xbe1d0f57	-0.15337883
220	0x3eb7ebd1	0.359221
221	0xbf1229fb	-0.5709531
222	0x3f398079	0.7246166
223	0x3e9caf25	0.30602375
224	0x3da9799b	0.082751475
225	0x3ddc48c6	0.10756068
226	0x3da57514	0.080789715
227	0xbede9151	-0.43470243
228	0xbeaedbe1	-0.3415213
229	0x3e15a2f3	0.14612941
230	0xbeb4dd59	-0.35325125
231	0xbed38b01	-0.4131699
232	0xbf2198bc	-0.6312368
233	0xbd5346bf	-0.05158114
234	0x3e4a6e19	0.19768561
235	0x3d986476	0.074410364
236	0xbb61a86f	-0.003443267
237	0x3dce0d75	0.100611605
238	0xbee41743	-0.44548997
239	0x3cf9280b	0.030414602
240	0x3ea811ac	0.32825983
241	0xbd86826b	-0.06567844
242	0x3f006ffc	0.50170875
243	0x3de46a29	0.11153061
244	0x3ea52f48	0.32262635
245	0x3f016672	0.50546944
246	0xbe9fb36a	-0.3119157
247	0x3d9b2090	0.0757457
248	0x3b9c7ac0	0.004775375
249	0xbf065dd9	-0.5248695
250	0xbd5a8628	-0.053350598
251	0x3e00fe19	0.1259693
252	0xbdd2787e	-0.10276888
253	0xbe803780	-0.25042343
254	0x3e76c2c8	0.2409774
255	0x3e3fe473	0.1873949

conv_layer.weight f4 [1, 1, 11]
0	0x3ec73f25	0.38915363
1	0xbe86ed78	-0.2635305
2	0x3e0e7b84	0.13914305
3	0x3edfc407	0.43704244
4	0x3e9b429e	0.30324262
5	0xbdf5ede7	-0.12008267
6	0xbd116785	-0.035499115
7	0xbdbd3bb6	-0.092399046
8	0xbe81ecb3	-0.253759
9	0x3e4e7a4a	0.20163837
10	0x3cdcc9c0	0.02695167

pot_to_activ.weight f4 [21]
0	0x3e07e6bf	0.13271616
1	0xbe852d97	-0.26011345
2	0x3ed6f2a7	0.41982004
3	0xbe938334	-0.28811038
4	0xbec912e4	-0.39272225
5	0xbeba55ad	-0.3639349
6	0x3f83fff3	1.0312485
7	0xbe49cb35	-0.19706424
8	0xbf588061	-0.8457089
9	0xbe4a9a5d	-0.19785447
10	0x3f70ff29	0.94139344
11	0xbe83780a	-0.2567752
12	0x3e8b9a2a	0.27266055
13	0xbf6f5872	-0.9349433
14	0x3ed33a7b	0.41255555
15	0x3f240101	0.6406403
16	0x3e3effeb	0.18652312
17	0x3ea2f8ff	0.31830594
18	0xbe126577	-0.14296518
19	0x3f1191a0	0.5686283
20	0xbf46f926	-0.7772392

pot_to_activ.bias f4 [21]
0	0x3f2fa8a5	0.68616706
1	0x3e0067c4	0.12539583
2	0x3e2705fb	0.16310875
3	0xbe9d0733	-0.30669555
4	0xbe8ccfc5	-0.27502266
5	0x3eec0807	0.46099874
6	0xbe42f7e3	-0.19039874
7	0xb8d2666a	-0.000100326564
8	0xbe1ae6e9	-0.15127148
9	0x3dc608b1	0.096696265
10	0xbdd68c15	-0.10475937
11	0xbdd580a9	-0.104249306
12	0xbca19621	-0.019724907
13	0x3e8fcfbb	0.28088173
14	0x3e9a4bff	0.30136105
15	0x3e4e8bc1	0.201705
16	0x3e17b878	0.14816463
17	0xbebc31bb	-0.3675669
18	0x3ef8b501	0.48575595
19	0x3cc8b3f9	0.02449988
20	0x3cf0021c	0.02929788

act_layer.weight f4 [6, 21]
0	0xbe79ef68	-0.24407732
1	0xbe508cdf	-0.20366238
2	0x3bdb5f9a	0.006694746
3	0x3e785725	0.24251993
4	0xbd0ecb49	-0.034861837
5	0x3de87746	0.113508746
6	0xbee4b8db	-0.44672284
7	0xbe42b664	-0.19014889
8	0x3ed213e4	0.410308
9	0x3ec03f69	0.37548378
10	0x3ee8d85c	0.4547757
11	0x3e7f8e4e	0.24956629
12	0xbed5410e	-0.41651195
13	0xbdb520ed	-0.08844171
14	0xbe5a66cf	-0.21328281
15	0xbe754729	-0.23952927
16	0x3d3cf8a2	0.046135552
17	0xbd1d51f9	-0.038408253
18	0x3d97ab20	0.074056864
19	0x3d37ef4e	0.044905953
20	0xbe379760	-0.17928839
21	0x3ccf2f63	0.02529115
22	0x3e849ca7	0.25900766
23	0xbcccc39f	-0.024995623
24	0xbe103fff	-0.14086913
25	0xbc339039	-0.010959678
26	0x3dcaccf1	0.09902371
27	0x3db5e9e4	0.08882502
28	0xbd97e3c6	-0.07416491
29	0xbed3b670	-0.41350126
30	0xbdc15d59	-0.09441633
31	0xbcd6d91e	-0.026226576
32	0x3d83c6c3	0.06434395
33	0xbd39a570	-0.04532379
34	0xbbe46403	-0.00696993
35	0x3be25d49	0.006908093
36	0xbebeaa1c	-0.37239158
37	0x3df27895	0.118394054
38	0x3e388924	0.18021065
39	0x3d3fd0a8	0.04682985
40	0x3cc56fc6	0.02410115
41	0xbde24165	-0.11047629
42	0xbe4b22ba	-0.19837466
43	0x3c9801d9	0.018555569
44	0xbe0ad695	-0.13558419
45	0xbbd9acdb	-0.0066429204
46	0x3d5f9436	0.054584704
47	0xbc9e7808	-0.019344345
48	0xbd45a2d0	-0.048250973
49	0x3eaf5d1b	0.3425072
50	0xbe37fb8a	-0.17967048
51	0xbdfce7e5	-0.12348918
52	0x3e718a58	0.2358793
53	0xbe15bb73	-0.14622287
54	0xbdcd791a	-0.10032864
55	0x3ea7e4f9	0.3279188
56	0xbeeb28da	-0.45929605
57	0x3d2cbdf9	0.04217336
58	0x3ececdb3	0.4039131
59	0x3e6b03bd	0.22950645
60	0x3e0a079d	0.13479467
61	0x3e1ce344	0.1532107
62	0xbd3b4585	-0.045720596
63	0x3a376653	0.00069961435
64	0x3b8b7887	0.0042563113
65	0xbdcc89ca	-0.09987219
66	0x3ccf5d3e	0.025313016
67	0x3ee43bd7	0.44576904
68	0x3eb51fe1	0.35375884
69	0xbf194b67	-0.5988068
70	0xbd23d9ef	-0.04000276
71	0x3e991f7d	0.29906836
72	0x3da0c596	0.078501865
73	0x3e78ce12	0.2429736
74	0xbe8ff92b	-0.28119788
75	0x3c8ca7d0	0.017169863
76	0x3e6c1dd4	0.23058254
77	0xbe5d03c4	-0.21583468
78	0x3e6809eb	0.22660033
79	0xbe8c2bef	-0.2737727
80	0xbd41a582	-0.04727698
81	0x3e907398	0.2821319
82	0xbe3d20f9	-0.1846961
83	0x3dd12dbf	0.102138035
84	0x3e5d0b69	0.21586384
85	0xbd90c8fb	-0.07069584
86	0xbddb62de	-0.10712217
87	0xbd8f9031	-0.07009924
88	0x3e0544ac	0.13014477
89	0x3dc5e9ea	0.09663756
90	0x3c8160f2	0.015793297
91	0xbd5fdb52	-0.05465252
92	0x3e2806e6	0.16408882
93	0xbe7c739d	-0.24653478
94	0xbe4d0518	-0.20021474
95	0x3dbc2a7a	0.09187789
96	0x3ee24bfb	0.44198593
97	0xbdafc945	-0.08583311
98	0x3e09be39	0.1345147
99	0x3e33923b	0.17536251
100	0x3ddd3c0a	0.10802467
101	0xbe2e3bf2	-0.17015055
102	0x3dc68505	0.0969334
103	0xbe3eb50d	-0.18623753
104	0x3eac91eb	0.33705077
105	0x3e994814	0.29937804
106	0xbcd7c8e3	-0.026340907
107	0xbdab3267	-0.08359223
108	0xbed58a4c	-0.41707075
109	0x3dc0f6f5	0.09422103
110	0x3ce5330c	0.027978443
111	0x3d28f51f	0.04124939
112	0x3dcfcf6e	0.10146986
113	0xbe8b222c	-0.2717451
114	0xbebcb7de	-0.3685903
115	0xbd844c3f	-0.06459855
116	0xbe13e7ae	-0.14443848
117	0xbe7a0bf1	-0.24418618
118	0xbda8eaf6	-0.0824794
119	0xbcab72a4	-0.020928688
120	0x3da6325b	0.08115073
121	0xbddac6d6	-0.10682456
122	0x3d793276	0.06083914
123	0xbe4aaab5	-0.19791682
124	0x3dc86b4e	0.09786092
125	0x3eb90378	0.3613546
