Pyrado/data/perma/experiments/cth/ppo_nf/2021-11-19_11-51-26/vfcn.pt (torch, 9189 bytes, 5 tensors)

net.hidden_layers.0.weight f4 [32, 17]
00000000: bfe9 b5be 157d ff3e 3d89 923f ff12 f53e
00000010: d082 343f 8ce0 c43e ca69 f2be cde3 283e
00000020: 5710 a6be 4964 90be c9c0 14be cd6e dabd
00000030: 7a61 1fbd b6e4 a13c e1f6 5c3c 42d6 683c
00000040: c0f8 1a3d 7264 e5be 51e9 913d 88c7 32be
00000050: e526 cabe 5526 ffbc 44b5 8a3e 7b0c fa3d
00000060: ae28 d93d 61f0 04be 3062 fdbc 590e 22bd
00000070: f130 c2bc 5fbd 223c 6ae7 d2bb e529 69bc
00000080: 3af4 91bb 92bf 8dbb 9ea4 64bf aa9d dcbe
00000090: 9c0d a53e 3791 253e a0d3 1bbe 5bd1 ee3c
000000a0: beab a7bb 4157 01be 37cc 89be 04f0 e33d
000000b0: 473a 9a3c d925 7bbc d7e2 2b39 1fc2 a93b
000000c0: 07b7 043d f22a a13c 58d8 233c 29fd a5bf
000000d0: 9c0e c23f ceba d33d 236e bc3d 3d1c 27bd
000000e0: 47d7 003f 0f25 243e 0745 da3c 4d9f 6a3e
000000f0: 8e29 a3be 6955 e0bd 5ec4 babc 78e5 efbc
00000100: b864 b63b c2ab 5cbd 4f8b 8abc 0ad4 b13b
00000110: 5686 5f3d c587 a2bf 833f 03be 2107 7fbe
00000120: a1c7 563e 9eae 683d cbbc 94be 6a31 adbc
00000130: 2f93 963c 8da2 eebd bc6c e4bd f16d 163c
00000140: 1e2e 303b 715f 8c3b 1e56 ecba 9755 85bc
00000150: 348f f83b 8284 c1bd 0c96 b0be 6ee2 413e
00000160: d2bc e6be 4430 8dbe 35a0 a03d b432 243f
00000170: a9d0 ea3d f7b7 cc3e 465f aabb c923 383e
00000180: 0b7f 37bc 0cd1 01bb fd66 61bc da88 89bd
00000190: 7a7c 22bc 4f55 353c 5e9f be3f b82c 613f
000001a0: abea 513e f7b6 5f3e 5063 d23c 7ae3 16bf
000001b0: 49fb d7be ffb6 00bd ca9c 18be d69a 013e
000001c0: fc1b 763e 5f78 463d b1ae 1b3d 9bb1 a23b
000001d0: d979 8cba 6641 de3b 80e6 19bb 4513 98bf
000001e0: d2d4 593e eade 593e 5cbc 0d3e a167 5e3c
000001f0: 89a3 0d3f 406e 053e 7245 613d 4928 8b3d
00000200: db9c fbbd 69d5 2bbe e9ed 01bc 3ef2 42bc
00000210: 05e2 f43a 5457 6d3c 672a a3bc 12c0 35bc
00000220: 7abc 8cbf 6ed8 83bf 1028 01bf 46fe 0ebf
00000230: dee4 df3d a97e 243e df21 07be c0fe b6bc
00000240: 71b7 073e 97df a4bd 8d43 2cbe 62b8 a1bc
00000250: 7be8 c43b 9dbd 34bc 5682 0bbd cb9a 1dbd
00000260: 7054 ddbc 9252 893f 78aa f43f 1a54 7ebe
00000270: 9fb3 b4bd 2c66 1abd b085 18be 7bc0 0b3f
00000280: 4c3e a03e 946a cd3d 8b34 a03e bf93 f83d
00000290: 79f7 243d 7da8 f13c a839 93bb fff6 063d
000002a0: f1de b33c 2550 1c3c be14 babe 9a74 8b3f
000002b0: e748 d7bd 1827 523f 53ec 27be ccd9 a9bf
000002c0: 5293 dbbe 2c38 fdbc 7f37 9abc a445 2cbe
000002d0: 9373 903d d4b7 d3bc a995 d43c 8b6a 43bc
000002e0: d360 c63d 9f76 0c3d fcfc 56bb f52d 813f
000002f0: 8f72 013f f26d bbbc 9f74 9dbd 3a4d ba3d
00000300: 6efd 8f3e c26c 6abd 0374 49bd 8cd0 043d
00000310: 4fb4 903e 6419 df3e 4831 f23d ea9b c53d
00000320: 5a5a 82bc 674e f3bd 9a21 c0bc 4d95 7ebb
00000330: 4c59 e33d 7f2e 1b3d 0581 0b3f cb27 153e
00000340: dde5 363f cb79 863e 7352 a3be 3276 6dbe
00000350: 498e 21bf aa0b 613f b382 84be b58a ecbc
00000360: 008f 4dbd 102f 893b 44cf d63d 4d49 8f3b
00000370: 55b2 bebb e58a 173f 25da cf3d 06e1 9fbc
00000380: 7d4a 30be cb02 74be d04c 8dbe 0d04 46be
00000390: 060b a23d 0e5d 193e 17d3 1b3e f81f 7dbd
000003a0: a831 a33c d697 89bc f1e0 8bbc 5876 883c
000003b0: 4ae3 ecba 6489 d0bc 6fc0 1a3f 33fd 933d
000003c0: 656c 9cbd 31b8 cdbd 40f6 53be 055e 17bf
000003d0: 95da 80be 1ee5 62be e16c 733e 41cf d63d
000003e0: 7bb1 d63b b512 ddbc f814 0ebc f0ff 36ba
000003f0: e9fa ca3c 6d47 af3b 1b87 563b 82e5 d53f
-0.35529897 0.49900118 1.1448132 0.47866055 0.70512104 0.38452566 -0.47346336 0.16493149
-0.3243434 -0.28201512 -0.14526667 -0.10665665 -0.03891132 0.019762378 0.013486595 0.014211239
0.037834883 -0.44803196 0.0712458 -0.17458928 -0.394828 -0.031146208 0.2709142 0.12209412
0.10603462 -0.12982322 -0.030930609 -0.039564464 -0.023704978 0.009932845 -0.006436278 -0.01423118
-0.004454163 -0.0043258155 -0.89313686 -0.43089038 0.32236946 0.16168676 -0.15217447 0.029152563
-0.005116909 -0.12630941 -0.26913616 0.11129764 0.018826617 -0.015328848 0.00016392335 0.0051806117
0.03240111 0.019673798 0.010000311 -1.2967883 1.5160708 0.103383645 0.092006944 -0.040798414
0.5032849 0.16029762 0.026644243 0.22912331 -0.3186764 -0.10953791 -0.022798713 -0.029284224
0.005566206 -0.05387474 -0.01691213 0.0054268884 0.054571472 -1.2697684 -0.12817197 -0.24905063
0.2097459 0.056807153 -0.29050288 -0.021141727 0.01838073 -0.11652098 -0.11153552 0.0091814855
0.0026882957 0.0042838384 -0.0018031036 -0.016276164 0.0075854305 -0.09449102 -0.34489477 0.18934032
-0.45065933 -0.27575886 0.07843057 0.64139867 0.1146558 0.39984104 -0.0051993458 0.17982401
-0.011199723 -0.001980844 -0.0137574645 -0.067155555 -0.009917373 0.011067702 1.4892385 0.8795886
0.20499675 0.2184714 0.025682122 -0.5894085 -0.42183903 -0.03142452 -0.1490356 0.12656721
0.24034113 0.04845464 0.038008396 0.00496502 -0.0010717466 0.0067826984 -0.0023483336 -1.188088
0.21272591 0.21276441 0.13841385 0.013574512 0.5532766 0.13030338 0.05499787 0.06794793
-0.12285777 -0.16780628 -0.007930257 -0.011898575 0.0018683082 0.014486153 -0.01991768 -0.011093156
-1.0995018 -1.0300424 -0.50451756 -0.5585674 0.10932325 0.16063942 -0.13196515 -0.022338271
0.13253571 -0.08050459 -0.16822644 -0.01974124 0.006009159 -0.011031535 -0.034059845 -0.0384777
-0.027017802 1.0728323 1.9114523 -0.2483677 -0.088233225 -0.037695095 -0.14894748 0.54590577
0.3129753 0.10030094 0.31290087 0.12137555 0.04027507 0.029499287 -0.004492957 0.032950398
0.021956893 0.009540592 -0.3634395 1.0894959 -0.10511952 0.820909 -0.16398744 -1.3269591
-0.42885834 -0.030910574 -0.01882529 -0.16823441 0.07053294 -0.025844492 0.02595027 -0.011927257
0.096864365 0.034292813 -0.00328046 1.009215 0.5056543 -0.022879574 -0.07688259 0.09096761
0.2812304 -0.057232626 -0.049182903 0.03242545 0.28262565 0.4357406 0.11825806 0.09648879
-0.015912224 -0.118801884 -0.023453522 -0.0038846314 0.111010164 0.03788614 0.54493743 0.14565961
0.71444494 0.26264796 -0.3189884 -0.23189619 -0.63107735 0.8790842 -0.25880966 -0.028874734
-0.050185204 0.0041865185 0.104887515 0.004372752 -0.0058195987 0.5919631 0.1014903 -0.01951648
-0.17215915 -0.2382919 -0.27597666 -0.19337483 0.07912259 0.14976904 0.15217243 -0.061798066
0.019921139 -0.016796034 -0.017075034 0.016657993 -0.0018073109 -0.025456138 0.6044988 0.07226028
-0.07637862 -0.10044897 -0.20699406 -0.5912784 -0.25166765 -0.22157714 0.23772003 0.10488749
0.006551919 -0.02698646 -0.0086719915 -0.00069808867 0.024777846 0.005349091 0.0032734338 1.6710665

net.hidden_layers.0.bias f4 [32]
00000000: d569 afbe 97ef 013f 924d ffbc 43ba 423e
00000010: cdbe 66bf bc5f cf3e 0587 34bf caae 193f
00000020: 3aff 743f f8b4 13bf 85a3 163f 570d 013e
00000030: d1f4 4dbf 594f a3be 7390 49be 5c9a 52bd
00000040: 2b03 5dbe 54c2 483e babb d53e 6fb8 503f
00000050: 2ce2 663f 123a 1b3e e99c 25be e54e 383f
00000060: 6964 3dbf 4d37 bbbf 63ad 54bc 9eb1 013f
00000070: 3857 ea3e c183 9fbe 8413 22bf ec8e c5bd
-0.3426043 0.5075621 -0.031164918 0.19016366 -0.9013489 0.40502727 -0.70518523 0.6003233
0.95701945 -0.5769801 0.5884326 0.12602745 -0.80451685 -0.31896475 -0.19684009 -0.05141674
-0.2158324 0.1960538 0.41744787 0.81531423 0.9018886 0.15158871 -0.16173138 0.71995384
-0.7398134 -1.4626251 -0.012980792 0.5066165 0.45769668 -0.31155208 -0.6331103 -0.09646401

net.hidden_layers.1.weight f4 [32, 32]
00000000: 648e 26be df79 c7be 0784 6abc aac6 093f
00000010: bc79 42be af13 e6bd 67f4 1ebf 82a1 85be
00000020: aca0 a43e 97dd c7be 3072 803e e19e 8a3e
00000030: f484 1a3c 5490 1b3e c2ce b03e 66d8 993e
00000040: 334c c6be a00a 843e d3c3 43bd 486f aa3d
00000050: 0f6c e8be 4e0f e63d b1e0 67be 61d4 a6be
00000060: e6f7 04bd bd9d 9bbf 95dd 553c 21ba 08bf
00000070: 545d 173e da0e 60bd 681c 4f3d 09b5 96be
00000080: ef65 8e3d ac9a 1d3f afc7 d03e 58b8 45bf
00000090: 9893 a23f 758c ac3d d397 f43e e7cd de3d
000000a0: de9e c3be a039 523e 18f3 50bf 99cd ffbe
000000b0: 0dce 473f e47f 39bd 390d 3fbe af1c 15be
000000c0: 1b1c 5d3f d14b c6bc b006 be3d 235b 15bd
000000d0: 19ca 3cba 9787 54be 1c38 ef3e 4119 6fbd
000000e0: 3ede e13e 138e 5640 3bc8 3bbc 990e de3e
000000f0: 9936 0fbf ac61 5d3f 7613 3e3e e64b cebb
00000100: 682f 403e 57c0 cdbe 5839 42be 1e1e 053f
00000110: ba8d 2fbe ffd5 673d 610e 82be 411d c0be
00000120: c97b 963d b6e2 dfbe c10f 20be 7cf4 2bbd
00000130: b4ea 453e 36c2 763e 6a8e 643e 9248 31bd
00000140: 8c80 7f3d 4478 54be cc90 ff3d faa1 02bf
00000150: 54ff dabe a466 fc3c e2e2 2abe 4d46 03bf
00000160: 1818 813d 2a4a 74bf 128a b6bd ed2a 24bf
00000170: 83ed 423e e7d7 0c3e 78a5 0dbe 19d7 5bbe
00000180: 89e2 163e b512 2bbf d617 38be fbab 913e
00000190: 3e4c 29bd 0d1e c6bd 9cc0 9dbe 125a 3ebe
000001a0: c4b6 ba3e f30b 06bf ffd7 be3d e304 76bd
000001b0: 1837 8d3d cecd bd3e ea7a d73e efaa c9bb
000001c0: c0cb 8a3d 8d2c 96bd bc2e 093b b28b a0be
000001d0: acbe 3fbe 5e8a 0a3e 2ad7 3fbd 24a0 c1be
000001e0: e901 783d 9d3b 7ebf 9196 edbd 1702 27bf
000001f0: 9823 e93d 90db 03be d59c f63d 21a9 4cbe
00000200: c2ae 013e 3f96 1e3f 4071 463e f494 4cbf
00000210: 1aca 9e3f 577b 6d3d 912f 073f 8a66 f4bd
00000220: 4634 00bf 4e84 813e 7bcc 57bf 4955 0dbf
00000230: 4a46 5b3f 2599 223d ba9b 9ebe c4a2 15be
00000240: bc76 603f 0929 b03d bebf dd3c 31e2 163e
00000250: f410 103e e24d 3fbe bc5e db3e ae9f 52be
00000260: 755f d23e 5913 6840 fcc8 a3bd 8e6c 193f
00000270: a710 0bbf c52c 763f 167e e43d bb74 14bc
00000280: a9d7 003e 25aa 96be bc18 62be b799 b63e
00000290: 8d26 4cbe 29a6 7f3d a68a edbe 679b 16be
000002a0: 0ac3 b53e 1dc7 21be a251 43bd a15b 3f3e
000002b0: b08f 08bd ac1e 2b3d 846b adbd e756 403e
000002c0: bba5 2abe c108 e5bc 0849 17bd dcd2 23bf
000002d0: a81a a3be abf3 993d 1aa9 e4bd 5ada f9be
000002e0: 8d33 afbe 1557 90bf 4e04 28be 003c 36bf
000002f0: 687b 053f 4209 18be 04bc 513e 9ff5 91be
00000300: 1e9d 30be eb8c 19bd 296b b73d 4137 d23c
00000310: 115b 493e b130 523d 111e a6bf d2ae 173e
00000320: 5595 b93f 51fb 15bf 43eb 9bbe d9ba 06bf
00000330: 0ed7 c6be ff65 0bbc 8704 703e bf80 a6be
00000340: 9d3a 03be ed51 ea3e dbf4 aa3e 9001 b63c
00000350: 5b70 83be 3016 043d f92b 173e de2f 113f
00000360: 6a85 b6be f22b 45bf 8064 2cbe e2df a0be
00000370: 5aaf 5e3f a701 003f 4fd4 5bbe 7a8f 46bf
00000380: 1d4f 45bd 7acc 03bf b7c4 66be cd7c 5d3f
00000390: f497 acbf caf7 30be 62b0 05bf e36d 143e
000003a0: cd58 133f 009a 65be 7db2 4e3f 0882 033f
000003b0: 4cde 49bf 429d f2bd 3a04 c53e 40de 7b3e
000003c0: 6aff 6dbf cd00 de3d 1c78 0fbe b578 55be
000003d0: 1477 25be abfb a63e 06fd 0ebf 6873 21bb
000003e0: 22cb f4be d881 71c0 563c ad3d f457 00bf
000003f0: 9431 0d3f 6cb5 61bf b770 2cbe 88fc 863d
-0.16265255 -0.38960168 -0.014313704 0.5381876 -0.1899175 -0.11234223 -0.6209168 -0.26099783
0.32153833 -0.39036247 0.25087118 0.2707434 0.009431113 0.15191776 0.34532744 0.3004791
-0.3873001 0.25789356 -0.047794174 0.083220065 -0.45394942 0.11233388 -0.22644307 -0.32583907
-0.032462977 -1.2157513 0.013053318 -0.5340901 0.14781696 -0.054701664 0.0505642 -0.29434994
0.06953036 0.61564136 0.40777346 -0.7723441 1.2701292 0.084252276 0.47772083 0.108791165
-0.38207144 0.20529795 -0.8162093 -0.49961546 0.78048784 -0.04528798 -0.18657388 -0.14561723
0.8637101 -0.024206074 0.09278619 -0.036463868 -0.0007201746 -0.20754848 0.46722496 -0.058373693
0.4411487 3.3524215 -0.011461313 0.43370512 -0.55942684 0.8647716 0.18562111 -0.006295669
0.18768084 -0.40185806 -0.18967187 0.5199908 -0.17143908 0.056600567 -0.25401595 -0.3752232
0.07347829 -0.43727654 -0.1563101 -0.041981205 0.19327813 0.24097523 0.22319952 -0.0432821
0.06237845 -0.20749003 0.1247879 -0.51028407 -0.42772925 0.030810662 -0.16688111 -0.51279145
0.06303424 -0.95425665 -0.089130536 -0.64128 0.19035916 0.13754235 -0.13832653 -0.21468772
0.14734854 -0.6682542 -0.17977843 0.28451523 -0.041332476 -0.096737005 -0.30811012 -0.18589047
0.36467564 -0.52361983 0.09318542 -0.060063254 0.06895274 0.3707108 0.42085963 -0.00615441
0.067771435 -0.07332716 0.0020932397 -0.3135658 -0.1872508 0.13529345 -0.046836056 -0.3781749
0.060548697 -0.9930971 -0.11600984 -0.65237564 0.11383742 -0.12876725 0.12041632 -0.19986393
0.12664321 0.6194801 0.19379139 -0.79914784 1.2405427 0.057978954 0.52806956 -0.1193362
-0.5007976 0.25296253 -0.8429639 -0.5520826 0.8565413 0.03969683 -0.30978185 -0.14612871
0.87681174 0.08601577 0.027068969 0.14734723 0.14068967 -0.18682054 0.42845714 -0.20568725
0.41088453 3.626181 -0.07997319 0.59931266 -0.54322284 0.9616206 0.111568615 -0.009061034
0.12582268 -0.29426685 -0.22079748 0.3566415 -0.19936581 0.062414322 -0.46394843 -0.14707719
0.35500365 -0.15798612 -0.047685273 0.18687297 -0.033340156 0.041777298 -0.084677726 0.1878315
-0.16664784 -0.027958276 -0.036934882 -0.6399362 -0.31856275 0.07517179 -0.11165066 -0.48799402
-0.34219018 -1.1276575 -0.16407892 -0.711853 0.5214143 -0.14847282 0.20481879 -0.28507707
-0.17247435 -0.037487905 0.08955986 0.025661113 0.19663645 0.051315967 -1.2977926 0.14812782
1.4498698 -0.58586603 -0.30452928 -0.52628857 -0.3883595 -0.0085082045 0.23439227 -0.325201
-0.12815328 0.4576563 0.33389935 0.022217542 -0.25671658 0.032247722 0.14762868 0.56713665
-0.35648662 -0.7702018 -0.16835213 -0.3142081 0.86986315 0.5000252 -0.21467708 -0.7756268
-0.04817115 -0.5148388 -0.22535978 0.86518556 -1.3483872 -0.17282024 -0.52222264 0.14495043
0.57557374 -0.22422028 0.807411 0.51370287 -0.78854823 -0.11846401 0.38479787 0.245965
-0.92967856 0.108399965 -0.14010662 -0.20846827 -0.16158706 0.32613882 -0.55854833 -0.0024635438
-0.47811228 -3.77355 0.08458774 -0.50134206 0.55153775 -0.8816745 -0.16839872 0.06591135

net.hidden_layers.1.bias f4 [32]
00000000: e2d4 fabe 890c b5bd 9709 e8be cb35 20bf
00000010: cb1c ff3c fef9 3bbf 782f f13c 4e6b 963d
00000020: 1980 163f 7fcc cbbc a767 46be 8754 063f
00000030: 50e6 76bd 0c7d bfbe e72f 3d3e 3522 3abe
00000040: 5127 103f e964 af3e 93c7 39bd 4a64 f6be
00000050: 04b6 dcbe b2a1 fbbe 67ba 3ebc 0c4a 853d
00000060: fdd9 d5be 92ec 10be 538f 153f 6945 1a3f
00000070: f394 d1be 4dd9 cc3e e524 18bf 7727 0b3f
-0.48990542 -0.088402815 -0.45319816 -0.6258208 0.03114166 -0.7342833 0.02944158 0.073446855
0.5878921 -0.024877785 -0.19375478 0.5247273 -0.060278237 -0.3740009 0.18475305 -0.18177111
0.5630999 0.34256676 -0.045356344 -0.4812339 -0.43107617 -0.491468 -0.0116411215 0.06508264
-0.41767874 -0.14152744 0.5842182 0.6026216 -0.40933952 0.40009537 -0.59431297 0.54357094

net.output_layer.weight f4 [1, 32]
00000000: 3504 8e40 60bf 83c0 fe12 ab40 f24e b640
00000010: c937 84c0 4b18 8a40 fd71 a4bf b283 8040
00000020: 3752 a6c0 483c 7440 1b5b 6940 6cbe 9ec0
00000030: b2de 7740 693c 9f3f 4140 88c0 f206 3c40
00000040: c09c b5c0 a83d 90c0 7d01 7740 1d26 7c40
00000050: cb24 9c40 f138 8c40 62eb 8040 28ec 7940
00000060: 2997 a940 52de cf3f 6075 80c0 e2d1 76c0
00000070: a834 8340 71ce 8fc0 27ce b040 84a2 7ec0
4.4380136 -4.117111 5.3460684 5.697137 -4.1318097 4.3154655 -1.2847286 4.016076
-5.197536 3.8161793 3.6461856 -4.960745 3.8729672 1.2440311 -4.2578435 2.937924
-5.6753845 -4.5075264 3.8594658 3.9398263 4.8794913 4.381951 4.0287333 3.9050388
5.299702 1.6239722 -4.014328 -3.8565602 4.100178 -4.4939504 5.525165 -3.9786692
