Pyrado/data/perma/experiments/cth/hc_adn/2021-11-17_17-00-59/policy.pt (torch, 1976 bytes, 4 tensors)

resting_level f4 [6]
000000 8d ed 25 3f 1c 6b d0 be 18 80 30 3f 25 aa de be
       0.648156 -0.40706718 0.68945456 -0.43489185
000010 65 37 2f 40 ab 15 02 bf
       2.737756 -0.5081431

obs_layer.weight f4 [6, 17]
000000 51 76 0b bf 9c 69 8a 3f 9d 85 6b 3f ec c6 f2 3d
       -0.5447741 1.081348 0.9200075 0.118543476
000010 8c 20 1e 40 e3 a2 56 40 20 2f 52 3f a4 ad ae be
       2.4707365 3.3536918 0.8210316 -0.34116852
000020 d4 b7 61 3e c6 3e 0b c0 24 52 bf 3e 7e 12 64 c0
       0.22042781 -2.1757064 0.37367356 -3.5636287
000030 fc 43 55 40 1d 6c 57 bf 7a fc a4 bf e5 a4 31 c0
       3.3322744 -0.8414934 -1.288955 -2.7756894
000040 7c 2f 61 c0 94 18 8d bf fe 83 6f 3f fd 12 a5 bf
       -3.5185232 -1.1023126 0.9356078 -1.289642
000050 f8 ea 5b 3e da f6 10 c0 f5 a5 a9 3f f0 94 43 40
       0.21476352 -2.2650666 1.3253771 3.0559654
000060 72 af 46 c0 7d 35 88 3f 40 ce 04 3d 32 e8 59 40
       -3.1044583 1.0641323 0.032423258 3.404797
000070 0f 82 34 3f 88 e7 85 be 99 9d 62 c0 be f1 99 bf
       0.70510954 -0.26153207 -3.540869 -1.2026899
000080 ae 4b 4d bf ba 35 4d c0 5a ac 2d 3e 9a a5 35 c0
       -0.80193603 -3.2064042 0.16960278 -2.8382325
000090 77 57 28 40 18 82 2a 40 29 f6 bd 3f e3 f9 d6 3e
       2.6303384 2.6641903 1.4840747 0.41987523
0000a0 4a 1f c0 3f d5 c5 9a 3f a7 b5 8e bf 50 d6 07 3e
       1.5009549 1.2091624 -1.1149186 0.13265347
0000b0 76 20 d1 bf 52 f9 33 c0 38 cb 43 bf ed 1c 11 40
       -1.6338031 -2.8120923 -0.7648196 2.2673905
0000c0 8a bb 5f bf 86 6a 27 c0 53 8b 1c c0 3a 7a de 3e
       -0.87395537 -2.6158767 -2.4460037 0.43452626
0000d0 aa be 4f 40 d5 76 46 bf 6f 80 04 c0 aa ea fd bf
       3.2460122 -0.77525073 -2.070339 -1.9837239
0000e0 4e 3b b3 be 86 19 13 3f 72 91 6f c0 f1 41 b3 bf
       -0.35006183 0.5746082 -3.7432523 -1.4004499
0000f0 87 a8 4f 40 de db ee bf fc bc f1 3f d9 f7 52 bf
       3.244661 -1.8660848 1.8885798 -0.82409436
000100 a6 9d 70 bf 5a 7e 18 c0 b7 ca 8d 3f 8c 75 f9 be
       -0.9399055 -2.382712 1.1077489 -0.48722494
000110 14 86 e8 3f 4e de f4 3f 6b 34 81 3f 20 d4 47 3d
       1.8165917 1.9130342 1.0094122 0.048786283
000120 e4 80 92 bf 84 04 9d 3d c8 4b da 3d 3c 91 16 3f
       -1.1445584 0.07666877 0.106589854 0.5881536
000130 34 0a 16 c0 ae a5 d9 3f c3 bd 0c 40 18 b3 60 40
       -2.3443727 1.7003686 2.1990821 3.510931
000140 ff 5f 0d c0 b6 34 2b 3f 18 8f 96 3d 6c d7 ac 3f
       -2.2089841 0.66877306 0.07351512 1.3503242
000150 3d 7a ab bf 7c 9b 3e c0 6a 63 cf be fa 24 5b be
       -1.3396679 -2.97824 -0.40505534 -0.21400824
000160 0e c4 96 bf b8 bc 72 be aa f4 b0 be 50 9e ea 3e
       -1.1778581 -0.23704803 -0.34561664 0.45823908
000170 8c e3 70 40 30 cf dc bf 5c 36 24 bf fc df 10 be
       3.7638884 -1.7250729 -0.64145446 -0.14147943
000180 90 76 e3 3f 76 c1 bc bf 73 6b 33 40 9e b4 e6 3f
       1.7770557 -1.474654 2.8034332 1.802387
000190 86 39 47 3f 39 fb 26 40
       0.7782215 2.6090834

prev_act_layer.weight f4 [6, 6]
000000 e9 9f 95 40 48 0c e5 3f aa 76 d2 be 29 19 1f c0
       4.6757703 1.7894373 -0.41106158 -2.4859107
000010 d0 55 8a bf 58 66 37 c0 c0 9f d6 3d 48 18 07 3e
       -1.0807438 -2.8656216 0.10479689 0.13192856
000020 30 46 b3 3e e1 58 ae 3e c0 c9 06 3f fc c1 49 40
       0.35014486 0.34052184 0.52651596 3.1524649
000030 d8 40 e3 bf 47 f1 2d c0 ec 29 3e bf c4 ee 43 bf
       -1.7754164 -2.7178514 -0.7428272 -0.765362
000040 34 e1 43 40 d8 51 1d c0 7e a6 b2 bf 7f b7 2b 40
       3.0606203 -2.4581203 -1.3957059 2.6830747
000050 a0 59 82 bf bb 6d 53 bf 06 a0 12 bf 5e f7 af bf
       -1.0183601 -0.8258931 -0.57275426 -1.3747365
000060 1a d4 12 be aa 5d 0d 40 30 44 0d c0 a7 0d d1 bf
       -0.14338723 2.2088418 -2.2072868 -1.6332291
000070 50 61 b9 3e 4f f9 b4 bf 65 df 46 3f 12 d2 6a 3f
       0.36207056 -1.4138583 0.77684623 0.9172679
000080 a5 60 49 c0 f0 24 38 bf a8 cd 0f bf 74 a0 92 40
       -3.1465237 -0.7193136 -0.5617318 4.5820866

pot_to_act_layer.weight f4 [6]
000000 6b d1 11 c0 00 1f 2b bd 76 8d 0e be dc 05 6e bf
       -2.2784069 -0.04177761 -0.1392115 -0.9297769
000010 20 ce f1 bc b0 2e 17 b9
       -0.029517233 -0.00014417875
