episodes/15_rand_actdiff2_long_maxa6_T300_rlclip05/best_qfcn_target1.pt (torch, 21477 bytes, 5 tensors)

net.hidden_layers.0.weight f4 [64, 7]
000000 60 92 79 3f 29 3d bb 3e 2b 57 57 3f fe 4a 39 3e
       0.97488976 0.365701 0.8411738 0.18095013
000010 35 6f 8c be 41 d9 fd 3c 78 28 94 be 5d a5 03 c0
       -0.27428594 0.030987384 -0.28937125 -2.056968
000020 b4 30 91 be de 03 fb 3e 5c b2 36 3e 6d a4 bb be
       -0.2835747 0.49026388 0.17841476 -0.36648884
000030 9f a1 bd 3e 34 eb 75 3d 9a 31 e2 3f 3d 6f b4 be
       0.3703737 0.06003876 1.7671387 -0.35241118
000040 32 31 b4 be bb 25 01 3f 54 c0 1c bc 10 f5 f6 3e
       -0.35193783 0.504482 -0.009567339 0.48233843
000050 c9 63 6e 3e cb f2 2a bf fb c2 26 bf 15 cc 9f bf
       0.23280253 -0.6677672 -0.65141267 -1.2484156
000060 48 e7 1d 3e 5e e2 59 3e 22 1e aa 3e 6f 18 df 3e
       0.15420258 0.21277758 0.33226115 0.4357333
000070 4a 6c 2c c0 f8 ca 3a be 83 31 66 3f 63 9e 3e be
       -2.6941094 -0.18241489 0.899193 -0.18615107
000080 07 49 f4 3e 42 0e 6a be 22 9b 5a 3d c4 0d f3 be
       0.47711965 -0.22857001 0.053370602 -0.4747144
000090 f0 81 8c bf 4e 9c 8b 3f 52 c8 3a be 56 63 a3 3e
       -1.0977154 1.0907075 -0.18240479 0.31911725
0000a0 68 56 71 be ff 8b 61 be 15 06 1c 40 86 83 3e 3f
       -0.23568118 -0.2202606 2.4378712 0.7441944
0000b0 71 1f 5b bf 4c 85 b6 bc 32 cd a0 be 98 ee 0f be
       -0.8559485 -0.022280358 -0.31406552 -0.1405586
0000c0 b6 ea 8f bd db b1 81 bf b3 86 06 c0 4d 8a 05 3f
       -0.070271894 -1.0132402 -2.1019714 0.52164155
0000d0 f4 41 27 bf 86 e2 cb 3e 0e 06 8a bd 20 ad 25 3e
       -0.6533501 0.3982126 -0.06739436 0.16179323
0000e0 10 e3 ad bf 1b 26 c5 be 35 be 08 bd df d4 b5 bf
       -1.3584919 -0.38505635 -0.03338452 -1.4205588
0000f0 26 7a 88 be c7 e6 d8 3e 94 2a 37 3f f4 50 cb 3f
       -0.26655692 0.4236357 0.71549344 1.588408
000100 ac 3e 42 3e 2e 77 07 bf ea 1a 86 3e d3 c1 31 be
       0.1896922 -0.5291623 0.2619241 -0.17359094
000110 07 01 8a 3d 0e 7a d3 3c 6b ef b5 3d 17 37 c0 3f
       0.06738477 0.025815036 0.08883556 1.5016812
000120 1c 6e 04 bf f3 e3 f8 3e 40 39 87 bc 18 c7 41 3e
       -0.51730514 0.4861141 -0.016506791 0.18923604
000130 7a cb 8b 3e 2f f6 12 40 e8 f3 c7 3e df 43 4a 3f
       0.27303678 2.2962759 0.39053273 0.79009813
000140 85 2a e6 be 61 0f 3f be e1 9b bc 3e cc d1 79 3e
       -0.44954315 -0.1865821 0.36837676 0.24396437
000150 da c3 ed bf 6b 9d 6a 3d 84 93 81 bc d8 c1 aa be
       -1.8575394 0.05727903 -0.015817411 -0.33351016
000160 5e 6d cf 3c 48 88 5f bf 6d e8 66 bf 35 fd 86 c0
       0.025320705 -0.87317324 -0.90198404 -4.218409
000170 36 fb ae be 23 dc bb bd e6 f7 35 3f 3e 49 c6 bc
       -0.34176034 -0.09172847 0.7108139 -0.024204846
000180 2c a0 4a 3f 3f 36 f5 3e 97 e6 db 3f 08 8c 54 3f
       0.7915065 0.4789295 1.7179745 0.8302617
000190 8d 9b 3b bf 85 23 ba 3e 66 35 47 be d1 16 a1 3e
       -0.73284227 0.36355224 -0.19453964 0.3146272
0001a0 64 64 db 3d 6c 64 ff 3f 04 ee c0 be ee 3d 62 3f
       0.10712507 1.9952521 -0.37681592 0.8837575
0001b0 a6 3d 96 3e 05 fe ae 3c 5f 1c da 3d 8c dc 02 bd
       0.2934391 0.02136136 0.106499426 -0.03194861
0001c0 a7 04 c6 bf 3b 6c cd 3f c9 c3 73 3e 29 a4 57 3e
       -1.547017 1.6048654 0.23805155 0.21058716
0001d0 99 8c bf be c7 5d 38 3d 9e 47 05 bf 1b c7 02 bf
       -0.37411955 0.045011308 -0.52062404 -0.5108506
0001e0 6a ac 00 3f d8 3f 38 3e 5a 63 30 be 86 fe e8 bc
       0.50263083 0.17993104 -0.172254 -0.028441679
0001f0 af 4c ee be a5 ce 9a be f2 a1 72 3e 06 4a 55 3f
       -0.4654288 -0.30235782 0.2369459 0.83316076
000200 b6 27 a7 bf ac d1 b2 be 38 5f 96 be dc 4a 6e bc
       -1.3058994 -0.34925592 -0.2936952 -0.014544215
000210 46 59 7b 3d 6b 6b aa 3f 4f 89 4c bd 4b 9e 70 bf
       0.061364435 1.3314031 -0.049935635 -0.93991536
000220 3a 9e 6e bf 31 8e 26 3e 2a b2 1b be 6d 5b 62 be
       -0.93210185 0.16265179 -0.15204683 -0.22105189
000230 71 ec ec 3e ad e1 74 bf c1 a1 1a 3f 4c ea 34 bf
       0.4627414 -0.95656854 0.60403067 -0.7067001
000240 57 ae aa bd 60 a3 c3 bd b7 78 1d be 63 5f f9 bf
       -0.08334034 -0.09552646 -0.1537808 -1.9482235
000250 09 b5 09 bf ad db f2 be 22 b2 a4 be 13 f9 cd 3e
       -0.5379186 -0.47433224 -0.32167155 0.4022909
000260 e3 82 b0 bd 1a b2 3d be 80 98 00 3f dc 66 91 3e
       -0.08618715 -0.18524972 0.50232697 0.28398788
000270 c3 a3 44 3f f2 7b 3d 3e 7e c7 4e be bf 8c d9 3c
       0.7681238 0.18504313 -0.20193288 0.02655637
000280 39 9c c8 3d 75 1e 8f 3f 74 cc 37 bf 50 d8 eb 3e
       0.09795422 1.118117 -0.71796346 0.4606347
000290 ca fe 9e 3d 35 a8 40 be 58 d9 a3 be 1e e3 f1 bd
       0.07763441 -0.18814166 -0.32001758 -0.11810897
0002a0 57 09 3c 3f c8 29 9d bf 1a 31 9a 3f 76 a0 ec bd
       0.7345175 -1.2278376 1.2046235 -0.11554043
0002b0 1c 2a 80 3e b0 04 bd be f3 ba b4 be a7 cf 3e 40
       0.25032127 -0.3691764 -0.3529888 2.981424
0002c0 91 39 76 3e 47 e2 86 38 32 8e 0b 3f 60 fb 92 bd
       0.24045397 6.431765e-05 0.5451385 -0.07176852
0002d0 87 26 08 3f 48 03 eb 3e 0e 42 0c 40 a3 c4 31 bf
       0.5318379 0.4590094 2.1915317 -0.6944067
0002e0 b9 b1 57 bf 3d ae 81 be 01 80 30 3e 50 01 30 be
       -0.8425556 -0.25328246 0.1723633 -0.17188
0002f0 e5 76 a0 be 8e 2f 0c 40 e5 3a 08 be 38 d6 3c 3e
       -0.3134071 2.1904025 -0.13303716 0.18441093
000300 f1 2c 12 be f7 f6 94 3d 9a 7e 61 be 41 c3 a3 bd
       -0.14274956 0.07273667 -0.22020951 -0.07996226
000310 dc 78 8c bf 75 f4 2e 3e 46 48 08 3f 45 52 4e bf
       -1.0974383 0.1708544 0.5323528 -0.80594283
000320 de 7b 03 3d ff d4 d4 be 54 0f 65 bd 0e 17 4f 40
       0.03210055 -0.41568753 -0.05592282 3.2357821
000330 01 c0 c6 3e 99 be a5 bb a9 b9 ad be 9a c9 5d 3d
       0.38818362 -0.0050581214 -0.3393071 0.05414734
000340 0a b6 44 bf fc fb 0f bf eb 7b d4 bf ee 58 be be
       -0.7684027 -0.5624387 -1.6600317 -0.37177223
000350 cd 82 1c bf e3 ef 6d bf 0b ae 3e bd 58 b1 ea bd
       -0.61137086 -0.92944163 -0.0465527 -0.11459607
000360 cb 2f e6 be 10 03 0a 3f 27 fe 94 3f 09 d3 49 3e
       -0.44958338 0.53910923 1.1640061 0.1970941
000370 a6 c3 cf 3e 0e 4d 54 be 9e 11 ac 3e a9 8e 90 3d
       0.40578955 -0.20732519 0.3360719 0.0705846
000380 33 ae 18 3f e5 fc 46 40 8d 81 3e 3e 83 9a a0 3f
       0.59640807 3.1091855 0.18604107 1.2547153
000390 15 44 0d 3d 86 bd 97 bf 0c 76 ea be e8 98 84 3f
       0.034488756 -1.1854713 -0.45793188 1.0359163
0003a0 6a b9 a6 3f 3b e8 2e be f9 3d 15 3f 5f 9c 47 3e
       1.3025334 -0.17080776 0.5829769 0.19493245
0003b0 9f 89 f1 be 74 f2 61 be 2e 87 b9 bf fc fe 77 3f
       -0.4717531 -0.22065145 -1.4494379 0.9687345
0003c0 7f b5 50 bf 6d bc 25 bf ce 08 dc bd 9f 6a 2f bf
       -0.8152694 -0.6474064 -0.10743867 -0.68522066
0003d0 3c bb ab be ba b6 b0 be 9d e2 86 3f 4b 77 71 3f
       -0.33541286 -0.3451441 1.0537907 0.9432265
0003e0 31 f7 01 bf 4a 24 42 be d5 f0 ea be 3c 47 67 3d
       -0.5076781 -0.18959156 -0.45886865 0.05646442
0003f0 16 6c e5 be db e8 7e be ca f1 84 bf b1 e2 34 bf
       -0.44809026 -0.24893515 -1.0386288 -0.70658404

net.hidden_layers.0.bias f4 [64]
000000 89 83 0b 3f 51 d1 79 bd b0 e7 53 bf 81 70 a6 bf
       0.5449758 -0.060990635 -0.827754 -1.3003083
000010 08 5f 87 3f 53 3f 08 3f 4c ba 76 bf 0a 6a 02 3f
       1.0575876 0.53221625 -0.96378016 0.5094305
000020 53 cc 2c 3e 7c 14 8d bf 69 6c 33 3f 6d 9d 82 be
       0.16874819 -1.1021876 0.70087296 -0.2551073
000030 2a 11 71 bf ad 72 ae bd db d0 f5 3e 84 61 d7 bd
       -0.94166815 -0.085179664 0.48010907 -0.105166465
000040 a2 a3 d1 3e 48 bd 33 3f 61 6f 92 bf ac ff 33 bf
       0.40945154 0.70210695 -1.144024 -0.70312
000050 3a 42 6d bf eb d4 93 bf 3f 3a 91 3f 9c 13 64 3f
       -0.9267918 -1.1549352 1.13459 0.8909242
000060 1e cd 3d 3f 56 cc 55 bf 71 bd 17 bf 74 9a 4a bf
       0.7414111 -0.83514917 -0.5927344 -0.79141927
000070 4c 55 2c bf 07 ab c0 be ed 78 09 3f 2e e9 12 bf
       -0.6731765 -0.37630484 0.53700143 -0.57387054
000080 9c 00 1a be b2 10 7d 3f b9 ad 25 3e 70 f3 0a 3f
       -0.15039295 0.988536 0.16179551 0.54277706
000090 07 50 64 bf cf 30 18 bf d8 66 30 bf 02 2a d6 3e
       -0.8918461 -0.59449476 -0.6890693 0.41828924
0000a0 65 d2 ad bf 67 01 aa bb f0 95 ef 3e 81 45 4e 3e
       -1.3579832 -0.0051881555 0.4679408 0.20143701
0000b0 bc c3 11 be a3 2c e7 bd f2 68 32 bf 9c 88 ac 3e
       -0.14234823 -0.11287811 -0.69691384 0.33697975
0000c0 a8 48 e2 be 10 ac 4c 3f 60 95 91 bf 16 b8 f8 bd
       -0.44196057 0.79950047 -1.1373711 -0.121444866
0000d0 27 b5 80 3f d5 d9 82 be 2e 0f 7f bf a6 3b 96 bf
       1.0055283 -0.25556818 -0.9963254 -1.1736953
0000e0 7f 82 75 3f b0 8f e0 be 4d 54 80 3c 85 ec d0 3e
       0.95902246 -0.43859625 0.015665198 0.4080545
0000f0 fe 47 65 bf 55 8e 14 be cc 9d 8b 3f 39 c9 4e bf
       -0.89562976 -0.1450742 1.0907531 -0.8077579

net.hidden_layers.1.weight f4 [64, 64]
000000 ba c5 e3 3d f0 62 86 3e 85 93 30 be 53 06 a2 bd
       0.11121698 0.26247358 -0.17243774 -0.079113625
000010 34 76 25 be de dc 86 3c 67 45 80 bd d3 14 1e 3d
       -0.16158372 0.01646274 -0.062632374 0.03859408
000020 a5 99 6c 3e 5e c9 e0 bd 74 f6 45 3e e9 c5 a5 bd
       0.23105486 -0.10975908 0.19332296 -0.08094389
000030 e7 6a a4 3c 7a 5b 65 3e a6 5e bd bd f9 b5 7c bd
       0.020070506 0.22398177 -0.092465684 -0.06169698
000040 ca 2e 8a 3e 9c 39 86 3e 08 85 db bd 92 b7 85 be
       0.26988822 0.26215827 -0.10718733 -0.26116616
000050 26 97 8f be e5 10 81 be 1c 7d c7 be 81 2c bd bd
       -0.28045005 -0.25208202 -0.38962638 -0.09237004
000060 ac c6 e2 3d 61 3e 1b be fa 55 85 3e 60 32 78 be
       0.1107305 -0.15160514 0.26042157 -0.24237967
000070 ac 40 65 be e1 f2 cf be d2 91 3d 3e 74 26 5a 3e
       -0.22387952 -0.4061499 0.18512657 0.21303731
000080 41 92 99 be d5 e4 ec bd 98 88 a8 3d 0a f7 14 3e
       -0.29994395 -0.11567084 0.08229178 0.14547363
000090 e5 8b de bd ca 1e 2e 3d 62 6e d5 bc be df f8 3d
       -0.108665265 0.04250983 -0.026053611 0.121520504
0000a0 56 a5 eb be 8f 06 3a 3d d8 58 16 3d f2 64 ec 3d
       -0.4602458 0.04541641 0.03670582 0.11542691
0000b0 e8 67 66 3e d3 b0 e7 be 8c ea c0 be ca b9 03 3b
       0.22500575 -0.45252094 -0.37678945 0.0020099753
0000c0 e6 24 13 bf 24 48 51 3e 3a 4c 5d be 96 47 ac 3d
       -0.5747818 0.20437676 -0.2161111 0.084120914
0000d0 e1 f3 e2 3c 3e 4c f9 b8 b6 80 1f bd f4 f4 38 3e
       0.027704181 -0.000118874465 -0.038941108 0.18062192
0000e0 76 9f e7 3e 80 ed cf 3b 20 d6 2b 3e f8 89 30 be
       0.45238847 0.006345451 0.16780901 -0.17240131
0000f0 5b 74 d1 3e 0b ef 00 be 20 5b bf be 7d de 66 3e
       0.40909085 -0.12591188 -0.3737421 0.2254581
000100 dd 38 c5 3e 9d 7f 16 bd a9 e0 63 be 41 14 0d bf
       0.38519946 -0.036742795 -0.2225367 -0.5510903
000110 b3 20 bf bd 5c 33 81 3d 76 07 cc 3e 54 ab 62 bf
       -0.09332409 0.06308624 0.39849442 -0.88542676
000120 71 f5 ad be c8 26 22 3f d7 f0 18 3f 01 b2 f6 3d
       -0.3397632 0.63340425 0.5974249 0.1204567
000130 39 78 ad 3d 60 16 2f bf 85 71 d8 bc eb 47 ac be
       0.08470196 -0.68393517 -0.026421318 -0.3364862
000140 70 19 65 3e 76 75 d1 3d 7d a7 ed 3e 82 86 0e bf
       0.22372985 0.10227482 0.46416846 -0.5567399
000150 84 44 a6 be 81 10 20 bf ab 6a dd 3e c3 f9 28 bd
       -0.32474148 -0.6252518 0.43245444 -0.041253816
000160 9e 3b 66 be dc 49 ac 3e 01 21 ec be 30 b7 4b 3e
       -0.2248368 0.336501 -0.4611893 0.19894099
000170 e4 33 42 3e c2 91 cb bd 0f dc f3 be f7 69 6d 3f
       0.18965107 -0.099399105 -0.4762883 0.92739815
000180 ea 1b 47 3e 57 5e 5c 3f 04 48 b4 3e 7a 3a 20 3f
       0.19444242 0.8608145 0.35211194 0.6258923
000190 36 3f ed be 7a bf 8f be f1 ab a6 bf a1 a9 ef 3e
       -0.4633729 -0.28075773 -1.3021222 0.46809104
0001a0 4d 93 8f 3d e0 ae 74 bd 5e 96 6c be 16 1b ea bb
       0.07010517 -0.059737086 -0.23104236 -0.007144342
0001b0 90 2d 22 3e 22 f9 8b 3d 06 ae 16 3f 4d a0 75 3e
       0.15837693 0.06834628 0.5885929 0.23986931
0001c0 99 18 03 3f 55 ae f0 be a0 4c f4 bc 9d 30 45 3e
       0.5120941 -0.47008005 -0.029821694 0.19256826
0001d0 b4 0e 23 3f 6c f6 1c 3f 6a 4a b7 3e 95 42 bf 3e
       0.6369431 0.6131351 0.3579896 0.37355486
0001e0 ef dd 11 3f 02 f8 b7 bd 87 1b 10 bf db fb 0b 3f
       0.5697927 -0.089828506 -0.56292003 0.54681176
0001f0 f7 52 41 3c 31 2f a8 be 46 9b cc 3e 30 03 c5 be
       0.0117995655 -0.32848504 0.39962214 -0.38478994
000200 4d 76 67 bd fe 3a d8 be 80 15 a1 3e b4 4b a0 be
       -0.056509305 -0.42232507 0.31461716 -0.31307757
000210 25 31 45 3e 41 8d d2 be 71 0a 08 3e c0 8c 93 be
       0.19257028 -0.41123393 0.13285233 -0.2881832
000220 79 b0 72 be 0d 4b ea 3e 95 70 6f 3e c1 65 44 3e
       -0.23700131 0.45760384 0.2338279 0.19179441
000230 70 72 41 3d 24 c7 cc be 45 9a a1 3e 60 ac 58 3c
       0.047228277 -0.39995682 0.3156301 0.013224691
000240 e7 aa b0 3d d4 f9 23 be f6 b9 af 3e b1 8d ae 3d
       0.08626347 -0.1601327 0.34321564 0.08523119
000250 40 69 19 3f 87 7e f2 3d ad 9b 67 3d b8 28 09 be
       0.59926224 0.118405394 0.05654495 -0.13394439
000260 c2 8b f2 be c8 bb 51 bd ab 88 33 3e 1f f1 30 3d
       -0.47372252 -0.051204473 0.17532603 0.0431987
000270 17 74 eb bd 4a c4 0e 3e 39 04 6e 3e 86 4e b4 3e
       -0.11496752 0.13942066 0.23243798 0.3521616
000280 32 08 16 be e6 27 d6 be 62 75 c6 3e 72 2a d9 bd
       -0.14651564 -0.41827315 0.3876143 -0.10603799
000290 b6 9a 57 3f e0 76 a3 be 2a 98 23 be 6d da 44 be
       0.84220445 -0.31926632 -0.15976015 -0.19223948
0002a0 11 52 c2 bb 60 e9 f3 bb 7d df 15 bf 33 d5 f8 be
       -0.0059301932 -0.007443592 -0.5854414 -0.48600158
0002b0 39 83 c3 3d 0d 77 81 3e 47 37 88 bd 98 89 65 be
       0.09546513 0.2528614 -0.06651168 -0.22415769
0002c0 0c a6 e9 3c 7b d9 62 be 58 db 0f 3f 0d e8 86 3e
       0.02852156 -0.22153275 0.56194067 0.26348916
0002d0 b0 7c 12 3d 62 42 91 be 81 ae ae 3e 56 26 d5 3e
       0.035763443 -0.2837096 0.3411751 0.4163081
0002e0 65 a3 a0 3c 6e c5 cb be f2 2a ef bd 74 d7 1c 3e
       0.019609163 -0.39799064 -0.11678113 0.15316564
0002f0 96 12 90 3e 38 30 ba 3e dc d2 e2 3d b7 38 6e be
       0.2813918 0.36364913 0.110753745 -0.23263822
000300 77 27 c6 3d 8a 97 7c be 90 9b 0e 3f ea 2c 88 be
       0.09675496 -0.24667183 0.5570612 -0.26596767
000310 14 48 d1 3e ce c4 00 3f 82 28 17 be 6e 1a f3 3b
       0.40875304 0.503003 -0.14761546 0.007418922
000320 da 1f c0 be 9d dd 48 3f 30 94 0a be d1 a8 b4 3e
       -0.375243 0.78463155 -0.13533092 0.35285047
000330 3d 05 8e 3e 3e cc 42 be 27 2a e7 3d 65 07 81 3e
       0.27738371 -0.19023225 0.11287337 0.25200954
000340 f6 c2 6b be 16 d7 0b be eb 86 ae bd 5d 04 8c be
       -0.2302359 -0.13656268 -0.08521827 -0.2734708
000350 1c 5c 5a 3e a3 fd ac bd 16 0f b0 3c 7a de 1e 3e
       0.213242 -0.08446815 0.021491569 0.15514556
000360 55 e7 18 be 2e bf ac 3e ab ec 04 3e 72 87 cf 3d
       -0.14931996 0.3373961 0.12980907 0.10133256
000370 6e 4c 1f 3d cc dc 9e 3b 28 8b 68 3c 46 1f 07 3f
       0.03889125 0.0048480984 0.014193334 0.52782094
000380 80 24 81 be d4 1e 2d bd d2 b0 c4 bd b6 ab 82 3e
       -0.2522316 -0.042265728 -0.09604038 0.2552163
000390 6c 36 13 bf 73 19 d8 bd 8e 0f 35 be b2 50 a0 be
       -0.57504916 -0.10551729 -0.17681715 -0.31311566
0003a0 cc fa 67 be 40 e5 08 3f c5 0a 84 3d 65 54 79 3e
       -0.22654265 0.5347481 0.064473666 0.243486
0003b0 0c 09 d3 bd f1 c2 3a 3e 30 4e 13 bf ac 13 eb bb
       -0.1030446 0.18238427 -0.5754118 -0.007173976
0003c0 54 f0 81 3e 70 10 a6 be e4 8c d0 be b7 0a 7f bd
       0.25378668 -0.32434416 -0.4073249 -0.062266078
0003d0 bd 33 a9 3e 6b 6d 92 be 4a 74 48 3f fd 44 90 3f
       0.33047286 -0.28599104 0.78302443 1.1271054
0003e0 78 cc 8a 3e 49 44 d4 3d 62 8a 4f 3e 4b 08 cd 3e
       0.27109122 0.10364587 0.20267633 0.4004539
0003f0 d3 fd 53 bd d2 a5 19 3d c8 49 0f 3b 63 88 c9 bd
       -0.051755738 0.037511654 0.0021864045 -0.09840467

net.hidden_layers.1.bias f4 [64]
000000 f1 42 03 3f ec 12 43 be 26 e9 0f be 7a d5 ed bd
       0.5127402 -0.19050187 -0.14053783 -0.11612983
000010 73 59 14 be f7 25 b2 3e 82 d2 c4 3e b8 72 ba be
       -0.14487247 0.3479459 0.38441855 -0.36415648
000020 db 0d 0d be be ec 11 3e 19 e8 b5 be d0 37 7b 3e
       -0.13774817 0.14250466 -0.3552864 0.2453301
000030 eb a4 93 be 55 a9 a8 be db d3 3f bf 64 85 04 3e
       -0.2883676 -0.3294169 -0.7493264 0.1294151
000040 40 ac 36 3f 9d 1a 7a 3d 42 54 e8 3e 80 88 d5 3e
       0.7135658 0.061060537 0.45376784 0.41705704
000050 19 d2 04 3e db 47 72 be 93 00 0b be 1d 11 54 3b
       0.12970771 -0.23660223 -0.13574438 0.0032358833
000060 a0 05 df 3e d1 4f 04 bf 7b 88 d7 be 27 18 6a be
       0.4355898 -0.5168429 -0.42096314 -0.22860776
000070 03 6b 96 be 94 48 23 bf 58 01 ca be 68 8d 30 3e
       -0.29378518 -0.6378262 -0.3945415 0.17241442
000080 db 88 b5 be b9 90 ca be c8 8f 00 be 0e cb 1c bf
       -0.35455975 -0.3956354 -0.12554848 -0.61247337
000090 fa 86 ed 3d 15 fe e3 bd 20 30 16 3f 43 e0 e8 bd
       0.1159801 -0.11132447 0.5866718 -0.113708995
0000a0 29 4a 45 be 3c 29 1c 3e 68 0e e3 bd 48 b6 78 3e
       -0.19266571 0.15250105 -0.11086732 0.24288285
0000b0 ca 2d 49 bd f3 c9 7c 3e 4a 5e 81 3e a7 2b 1c be
       -0.049115933 0.24686413 0.2526725 -0.15251027
0000c0 1a eb 28 bf 1a 1b d9 be f9 52 41 bd 20 99 b0 3d
       -0.65983737 -0.4240349 -0.04719827 0.08622956
0000d0 eb 07 81 be 54 83 05 bd b9 20 53 3e 1f 99 3c bf
       -0.25201353 -0.032595947 0.20617951 -0.73671144
0000e0 d2 79 83 3d 2f 49 6a 3e 01 71 2d 3e c8 c8 81 3c
       0.0641972 0.2287948 0.16937639 0.01584281
0000f0 19 32 8a bd 5a 84 dd bc 27 39 42 be 95 fd 82 bd
       -0.067478366 -0.02704065 -0.18967114 -0.06396023

net.output_layer.weight f4 [1, 64]
000000 ce 80 97 bf d8 c6 33 bf b8 01 4a 3f 60 b7 83 bf
       -1.1836183 -0.70225286 0.7890887 -1.0290337
000010 d3 a6 95 3f 0e 67 b9 bf a7 c5 8a bf 17 23 b4 3f
       1.1691536 -1.4484575 -1.0841569 1.4073209
000020 0b d5 79 3f 66 49 95 3f de f7 7a bf 92 9d 9e 3f
       0.975907 1.1663024 -0.98034465 1.2391837
000030 7a 83 aa 3f ea 49 5c 3f 01 6f 5d 3f a6 e7 97 3f
       1.3321373 0.86050284 0.86497504 1.1867568
000040 d9 4a 0d 40 e7 d3 3d bf 96 5a 56 bf 43 98 a1 bf
       2.2076933 -0.7415146 -0.83731973 -1.2624592
000050 8b 84 43 3f e6 44 ac 3f 03 58 93 3f 12 2d 52 bf
       0.7637412 1.3458526 1.1511234 -0.8210002
000060 11 05 a9 3f 7b 97 60 3f 28 a0 b3 bf da 57 4e bf
       1.3204671 0.8773114 -1.4033251 -0.806028
000070 a6 04 07 3f 44 a0 29 3f a8 23 65 3f 61 e6 77 3f
       0.5274147 0.6626017 0.8950753 0.96835905
000080 9d a6 94 3f e1 21 08 c0 de 47 9e 3f c6 9a 03 c0
       1.1613346 -2.1270678 1.2365682 -2.0563216
000090 ee 03 48 3f da 12 5e 3f d6 19 b6 bf e2 03 8f bf
       0.78130996 0.86747515 -1.4226635 -1.117306
0000a0 1b d1 8d bf cc b1 6e 3f 21 d8 8d 3f 10 70 83 3f
       -1.1079439 0.93240047 1.1081582 1.0268574
0000b0 d3 5f dc 3f 24 12 55 bf 80 b2 98 3f e0 e4 f0 3f
       1.7216743 -0.83230805 1.1929474 1.8819847
0000c0 9a 91 a2 3f f9 8b 8c 3f 1f fd 29 3f 5d 5b a4 bf
       1.2700684 1.0980216 0.6640186 -1.2840382
0000d0 66 59 2e bf 0a 71 61 bf 3c ac 3f bf a3 fd ca 3f
       -0.6810516 -0.8806311 -0.74872184 1.5858654
0000e0 ed b4 a2 bf ab 1e 40 3f f6 41 91 3f 9e f2 02 bf
       -1.2711464 0.75046796 1.1348255 -0.51151454
0000f0 a7 e3 33 3f 5d 22 bc 3f 7e 16 13 bf 65 81 d9 3f
       0.70269245 1.4697987 -0.57456195 1.6992613
