episodes/15_rand_actdiff2_long_maxa6_T300_rlclip05/best_policy.pt (torch, 39305 bytes, 8 tensors)

shared.hidden_layers.0.weight f4 [64, 6]
000000 ad bf 3f be 44 75 28 bf 3d 2e 41 3f 00 d2 77 bd
       -0.18725462 -0.65803933 0.7546118 -0.060503006
000010 2a 84 83 3e 4f d1 a1 3d 32 e8 8f bf da 7f 91 be
       0.2568677 0.079012506 -1.1242735 -0.28417856
000020 94 fe bc 3d 06 0d 9c be 12 ec aa bd f9 3f 0e be
       0.092282444 -0.30478686 -0.08345808 -0.13891591
000030 c5 2a 8a 3f cd 66 fa be 7d 64 ac bd 49 d1 2d bd
       1.0794302 -0.48906556 -0.08417604 -0.042435918
000040 83 d7 c4 bc 5c e0 cb bd 88 0b 4a bf d5 0b 37 be
       -0.024028545 -0.099549025 -0.78923845 -0.17875607
000050 e8 62 7d 3d d4 51 a7 be e1 d1 a2 3e 98 82 38 bf
       0.061861902 -0.32679617 0.3180075 -0.7207427
000060 fe 89 b6 be f9 5f 35 bf 73 85 ac be da 71 07 3e
       -0.35652155 -0.7084957 -0.33695564 0.13227025
000070 f5 54 31 be 60 51 35 be 7f 7a 09 bf bc 36 a7 be
       -0.17317565 -0.17706823 -0.5370254 -0.32658947
000080 af 81 19 bf e7 f9 15 be 7f 4d 90 3d b3 bb 99 be
       -0.59963506 -0.14646111 0.07046031 -0.30026016
000090 0e 84 0c 3f 89 52 12 bf 97 95 a9 3e 5f 05 8f bc
       0.54889 -0.5715719 0.3312194 -0.017458616
0000a0 99 4e a2 3c 8d ad 8c 3e f0 f7 09 bb 95 14 94 bf
       0.019812869 0.2747616 -0.0021052323 -1.1568781
0000b0 06 a7 55 bf f2 f0 8a 3e 30 24 68 3e a8 c4 1f be
       -0.8345798 0.27136952 0.22670054 -0.15602362
0000c0 7f ee 1b bf bb 8f e2 3e 4b c3 0d bf f0 22 08 bf
       -0.6091079 0.44250283 -0.5537612 -0.5317831
0000d0 5d 41 1e be 6d 6b e2 be a7 0f 9b be 21 89 8f be
       -0.15454622 -0.44222584 -0.3028538 -0.2803431
0000e0 77 04 31 3e b6 79 ba bd 3d a0 a6 bb da 91 61 bf
       0.1728686 -0.09105246 -0.00508502 -0.88113177
0000f0 29 36 14 3d f9 b1 38 3f 6d 79 aa be 49 5a c9 3d
       0.036184464 0.72146565 -0.33295766 0.09831674
000100 82 e6 4d 3e 56 1a cf 3e be c0 92 bf 70 24 c8 b9
       0.20107463 0.4044978 -1.146507 -0.0003817412
000110 aa e7 b4 3e c2 e2 e0 be 44 21 2e be 2a a8 41 bd
       0.35332996 -0.43923002 -0.17004877 -0.047279514
000120 c2 40 93 bf b0 3e 35 bd 25 d5 56 bd 49 27 4f 3e
       -1.1504138 -0.044249237 -0.052449364 0.2022983
000130 8c 64 4a 3d 35 c9 29 3c aa 8e 32 bf 63 7d c8 be
       0.049412295 0.010362913 -0.6974894 -0.39158162
000140 0e 1c 02 3f 9a 70 ed bc a3 d6 e6 3d f3 c5 e0 be
       0.5082406 -0.028984357 0.112714075 -0.43901023
000150 31 67 73 bf 2e ab cd be 35 f4 86 be b9 b9 1f bf
       -0.9507933 -0.40169662 -0.2635819 -0.62392765
000160 8e aa ae 3e 5d 8b b6 be 71 d6 0b be 50 94 5f 3f
       0.34114498 -0.356532 -0.13656022 0.8733568
000170 b2 71 d9 bd e4 33 85 3e 75 b7 66 be bb 38 49 3f
       -0.10617389 0.26016152 -0.22530921 0.7860219
000180 7b ed f6 3f 6e 23 27 3f 7b f4 c7 bc 2c 7c 3a bf
       1.9291223 0.65288436 -0.02440857 -0.7284572
000190 54 aa 17 3d ba cb 0e bc d9 06 98 40 37 06 28 be
       0.037027672 -0.008715564 4.750836 -0.16408621
0001a0 be 28 66 bc fe 25 73 3e 4a 8f d8 bb ca a5 81 3e
       -0.0140478 0.23744962 -0.0066088783 0.253218
0001b0 ce 32 6a 3f ba 39 9f 3e 90 1e f4 3e 4b ff ee bd
       0.9148377 0.3109873 0.47679567 -0.11669787
0001c0 87 a9 5d be 5a 68 c9 3c 8b 79 78 bf 4c ac 84 bf
       -0.21646701 0.024585892 -0.9706046 -1.0365081
0001d0 eb e1 24 3f ad 88 9e be f8 62 85 3e 4d ea 93 be
       0.64407223 -0.3096365 0.2605207 -0.28889695
0001e0 1f ec 47 3f b0 a0 cc 3e e6 5b 23 3f 28 20 44 3f
       0.7809467 0.39966345 0.638121 0.76611567
0001f0 bc 73 07 3e 68 2f a3 3e 12 72 5c 3f 8c 0d 90 3e
       0.13227743 0.31872106 0.8611156 0.28135335
000200 a4 3d 4c 3e 02 9d db bd 15 51 8f 3e e6 e9 81 3e
       0.19945389 -0.10723306 0.27991548 0.25373763
000210 f3 c0 ed be af b1 b3 3e 5b 88 a5 3d 4e 09 9c be
       -0.4643627 0.350965 0.08082648 -0.3047585
000220 b7 20 1d 3d f8 28 41 bb 46 ef 6b bf 57 7c 98 be
       0.038361277 -0.0029473882 -0.9216198 -0.29782364
000230 47 a6 1c 3f 0f 68 cc 3c b4 08 35 3e a1 c5 a8 bb
       0.6119122 0.024951963 0.17679101 -0.0051505123
000240 79 4c d7 be 0b 63 72 3e 16 53 71 3f 6b 08 c4 be
       -0.42050532 0.23670594 0.94267404 -0.38287672
000250 f9 bb 9e be 4c b0 5f 3c 80 ff 6c 3f ae 12 14 3f
       -0.31002787 0.013652872 0.9257736 0.57841
000260 e5 79 c7 3e c3 84 94 3e a9 45 04 be 25 d5 1c be
       0.38960186 0.2900754 -0.12917198 -0.15315683
000270 b0 b9 00 bf 5f 57 01 3f c8 c6 7a be 53 ff 82 be
       -0.50283337 0.5052394 -0.24489892 -0.25585422
000280 6b ce 00 3c 2b ed a3 3d 04 6e 47 3e b2 d2 a6 3f
       0.007861714 0.080042206 0.19475561 1.3033049
000290 29 e8 4a bf 8e 25 3d be f2 79 8a be 4b 2c c8 3d
       -0.792605 -0.18471357 -0.27046162 0.09774073
0002a0 18 70 e1 3f 0c 4e 67 3e 2b 75 d9 bd 97 5b 14 bf
       1.7612333 0.22588366 -0.10618051 -0.57952255
0002b0 6f 80 e9 ba ae ee 6f be 84 f4 3f be 11 e1 49 3e
       -0.0017814765 -0.23430893 -0.18745619 0.19714762
0002c0 3c a4 43 3e bd 62 58 3e 86 36 02 be 38 a2 be bb
       0.19105619 0.21131416 -0.12716112 -0.005817678
0002d0 fc b7 5e be 37 36 16 3f a6 6f 6c be 37 64 c6 3e
       -0.21749872 0.58676475 -0.23089465 0.38748333
0002e0 f7 6f 80 be 50 10 12 3f c5 b2 08 bf 63 9e 0a 3f
       -0.25085422 0.5705614 -0.5339778 0.5414793
0002f0 3a b3 04 3f cd f3 77 3c fb 08 ae bc 4b b8 92 be
       0.5183598 0.01513381 -0.021244517 -0.2865623
000300 b1 5c 87 bf a6 df 2f bd b3 82 24 bf b4 64 85 be
       -1.0575162 -0.042937897 -0.6426193 -0.26053393
000310 87 84 5a 3d a0 ff 11 3d ca b5 bf 3e 7b 2f 80 be
       0.053349044 0.035644174 0.37443382 -0.25036225
000320 62 f7 80 bf 91 b3 18 3c 55 23 83 3e 1c 10 a7 3e
       -1.0075495 0.009320156 0.25612894 0.32629478
000330 2f 6a 0a bf 32 b0 0f bf 41 dc f1 3d 92 a3 02 bd
       -0.54068273 -0.5612823 0.11809588 -0.031894274
000340 a0 2a 2e be 68 1c 2c 3e c6 eb 5d bf 18 2b 1e 3f
       -0.17008448 0.16807711 -0.86687887 0.61784506
000350 b0 b0 f5 be eb c2 a5 3d ca cb 69 3a 9b 95 48 be
       -0.47986364 0.08093818 0.00089186116 -0.1958832
000360 b4 e0 80 bf 78 b3 01 3f 8e 0a 85 3e e2 a3 12 bf
       -1.0068574 0.5066447 0.25984615 -0.57281315
000370 f9 bf 93 bd e3 15 a0 3e 5d f5 02 bf 34 c1 f9 3e
       -0.0721435 0.31266698 -0.51155645 0.48780215
000380 0c fc 52 bf 61 a3 64 be 71 46 63 bd 1b 9c 39 be
       -0.82415843 -0.22327949 -0.0554871 -0.18125956
000390 27 47 36 bf 5a 0a 33 3f 8f 83 33 bd b2 17 d3 3e
       -0.7120232 0.6993767 -0.043826636 0.41229016
0003a0 b1 10 a1 3c de b0 3b be 7d da 48 be c8 52 32 3f
       0.01966128 -0.18329188 -0.19614597 0.69657564
0003b0 86 17 65 bf d3 41 ba 3d 6a aa 88 be 02 79 01 3e
       -0.8948902 0.09094586 -0.26692516 0.12643817
0003c0 f6 09 20 bf 96 a2 02 bf a0 49 07 bf 33 95 36 be
       -0.625152 -0.51029336 -0.5284672 -0.17830352
0003d0 e1 72 64 bd 3d af a4 3e b3 e5 50 bf 1c a4 40 bf
       -0.05577362 0.32164946 -0.81600493 -0.7525041
0003e0 e6 7d aa be 18 df 9c 3e d1 d0 39 bd bf 01 bb bd
       -0.33299178 0.30638957 -0.04536516 -0.091311924
0003f0 d5 23 85 be c2 6b f1 bd ee 4e 3a bf 58 bc 0f be
       -0.260039 -0.11788131 -0.7277669 -0.14036691

shared.hidden_layers.0.bias f4 [64]
000000 ff 15 8c 3f 2b 9d 9c 3e d5 46 50 bd 80 e6 44 bd
       1.0944213 0.3058866 -0.0508488 -0.048071384
000010 33 0f 22 3e b4 68 ac 3e de 66 86 3e 95 5c 3a bf
       0.1582611 0.33673632 0.26250356 -0.7279752
000020 f2 5a 14 bf 73 06 bb bc dd 0c 7d 3e 7b b9 63 3f
       -0.5795127 -0.022830224 0.24711938 0.88954896
000030 24 ba 1d 3e 5d d2 43 3e 6a 0a 52 3d 50 77 50 be
       0.15403038 0.19123216 0.051279463 -0.20358014
000040 67 fb 2c be ff c1 54 bb c7 e0 e4 3e d4 62 0f 3f
       -0.16892777 -0.0032464263 0.44702742 0.56010175
000050 66 e3 94 bd f4 57 4c 3e 76 e9 9c be 9c e2 1a 3f
       -0.07269935 0.19955426 -0.30646867 0.6050203
000060 fb af cd 3f 43 ad c6 bd 46 9f 22 be 7d e4 49 bf
       1.606933 -0.09701016 -0.1588107 -0.7886427
000070 78 bf 51 bd e4 6c ed be 85 35 01 3f e9 8f 86 3e
       -0.05120799 -0.4637214 0.5047229 0.2628167
000080 e2 b0 d6 3e a5 b2 8d bf 91 c2 ba be 86 1f ca bd
       0.41931826 -1.1070143 -0.36476567 -0.09869294
000090 97 a9 37 3e ea 4c f6 be c6 c1 31 3e 7b 19 80 bf
       0.17935787 -0.48105556 0.17359075 -1.0007776
0000a0 37 93 bc 3e f6 53 31 be dc 1c 49 bf d4 4f c2 3e
       0.36831066 -0.17317185 -0.7855966 0.3795153
0000b0 97 47 04 3e e9 75 c7 be c9 a4 31 bd 04 99 ac bd
       0.12917934 -0.38957146 -0.043370042 -0.08427623
0000c0 6f c4 99 3e 75 24 9f be 2e d5 ae 3e 59 7b ad be
       0.3003268 -0.31082502 0.34147018 -0.3388317
0000d0 af 6c 2f 3e 47 12 c8 be 07 e2 dc 3d c8 1b 45 3e
       0.17131303 -0.39076445 0.10785299 0.19248879
0000e0 5a c1 6a be 04 de 81 3e f6 2d 01 3d 12 ba 65 bf
       -0.2292532 0.25364697 0.031537972 -0.89737046
0000f0 12 10 e4 be 32 fa b4 3e 5a fc 7d 3e 78 21 36 bd
       -0.4454351 0.35347134 0.24803296 -0.044465512

shared.hidden_layers.1.weight f4 [64, 64]
000000 51 c9 20 be ed 44 ed bd 52 e7 85 3e c4 c5 31 bb
       -0.15701796 -0.11585412 0.26153046 -0.0027125934
000010 cc d9 af 3d 5c 7d 61 bc f8 00 44 3e 54 2c 38 3e
       0.08586463 -0.013762798 0.19140995 0.1798566
000020 d8 ec e1 3d 7e 1e da bd 62 fa 41 bb cb 30 ba 3c
       0.110315025 -0.10650347 -0.0029598703 0.022728344
000030 ef 6f b6 be 79 e2 8b bd df 00 8d 3e a0 2d 54 bd
       -0.35632274 -0.068303056 0.27539727 -0.051801324
000040 33 d7 23 3e 7b 72 bf bd 52 6b 16 be d5 7f 6b bd
       0.1600006 -0.09348007 -0.14689377 -0.057494957
000050 21 60 25 be 64 34 fa 3b b8 c3 e7 3c b4 07 80 be
       -0.16149952 0.00763564 0.028291568 -0.25005877
000060 23 45 8c bc 0a b1 a9 bd 14 46 f4 bd ae a3 4e 3d
       -0.01712281 -0.08285721 -0.11927429 0.050449066
000070 89 e3 88 3e 41 02 68 bd 70 62 88 be 8e 53 9f be
       0.26736096 -0.056642774 -0.26637602 -0.31118435
000080 21 f5 50 be 6f 3f 07 3e f4 27 30 be 5d a7 c8 bd
       -0.2040601 0.13207792 -0.17202741 -0.09797547
000090 ce 81 4b be 86 58 d3 bd 32 9f 9b be a4 fd 5f 3e
       -0.19873735 -0.10319619 -0.30394894 0.218741
0000a0 9f 1f 9c 3c 9c 9d 57 3e 0f a3 25 3c 64 cc 8e be
       0.019058047 0.21056217 0.010109677 -0.27890313
0000b0 05 71 38 3e 95 3a c1 3e 3a 91 a3 be ed fc 87 3d
       0.18011864 0.37740007 -0.31946737 0.06640039
0000c0 6f 71 b6 3e 96 42 bf 3d 99 8f 09 3c 65 a4 ba bd
       0.35633418 0.09338872 0.008396053 -0.09113387
0000d0 fd 9d 84 3d 75 28 96 be 2d ab 06 3e b7 84 bb 3d
       0.064754464 -0.2932774 0.13151236 0.09156173
0000e0 2c 55 b4 bc 25 88 69 3d 67 bc 62 3d 94 c7 2d bd
       -0.02201327 0.057014603 0.055355456 -0.04242666
0000f0 5e 9a a8 be 26 5e d7 bb a3 92 cd 3a b7 20 94 bd
       -0.32930273 -0.0065725027 0.001568396 -0.07232802
000100 a7 a4 13 3d 08 96 48 3c f0 2c bd 3d c5 c9 bd bd
       0.036045697 0.0122428015 0.09237087 -0.09267
000110 c0 03 bf 3c 58 5e b3 bd 51 28 a2 bc 64 ef f0 3d
       0.023317218 -0.08758229 -0.019794615 0.1176441
000120 76 8f 66 3d a6 f0 37 bd d3 d0 dd 3d 02 0e a1 3b
       0.05628916 -0.044907235 0.10830846 0.004915
000130 ee 50 03 be 93 9e 77 bd 65 89 82 3d 25 72 a9 bb
       -0.12823841 -0.060453963 0.06373862 -0.005171078
000140 15 1d a7 3b 1a 38 0c be 66 9a f5 bc 80 14 be 3b
       0.0050999024 -0.13693276 -0.02998085 0.0058007836
000150 a5 49 fc 3c 7e 26 98 bd 7b 2c 87 bd 53 76 7b bd
       0.030796835 -0.07429217 -0.06600281 -0.06139214
000160 54 22 3a bd fe 52 99 3c 65 07 da bc fc 07 0d be
       -0.045442894 0.018716332 -0.026614854 -0.13772577
000170 1c ac dc 3d 43 39 4e bc 0b dc e1 bd b6 24 8e bd
       0.10775015 -0.012586894 -0.11028298 -0.06940596
000180 e9 c9 e9 3c a7 7e 05 3c b9 bc cc bb a4 a0 bb 3c
       0.028538661 0.008147872 -0.0062480834 0.022903748
000190 b3 28 a3 3d f1 c1 f3 bd b2 06 16 be a9 f5 7b 3d
       0.07966747 -0.11902226 -0.14650992 0.061513577
0001a0 e7 7d 6d 3d d3 41 14 3d 5a 4e 33 3d a9 3a a7 3c
       0.057981398 0.036195587 0.043775894 0.020413714
0001b0 f8 ee e7 bd 17 c4 21 bd e1 93 a8 bd 10 2d 9b bd
       -0.113248765 -0.039493646 -0.08231331 -0.07576954
0001c0 b2 78 35 bc c4 26 a2 bd 9f d6 0d 3c db d9 5f bd
       -0.011076139 -0.0791755 0.008657127 -0.054651123
0001d0 82 67 6f 3d c9 5d 81 3b c9 71 a0 bd aa bb d5 3c
       0.058448322 0.0039479476 -0.07834203 0.026090462
0001e0 67 20 8c bd 0d 86 0b be b5 0d 12 3e a0 7e a5 bd
       -0.06842118 -0.13625355 0.14263041 -0.080807924
0001f0 95 ad 0f bd 45 f6 90 3c 4e 9d bc bc 5e 74 b5 bc
       -0.03507765 0.017695555 -0.023024227 -0.022150215
000200 cb a1 80 3b 6a 32 6b bd b3 32 1c 3d 7e 4b fe bd
       0.003925537 -0.057421125 0.038134288 -0.12416743
000210 0d 4a cf 3c d7 f0 67 3d 3d a0 2e 3d 8b 7f 49 bd
       0.025303865 0.056626167 0.042633284 -0.0491939
000220 bb 9d 5c 3d 29 f4 17 3e 5c 17 94 3d 72 27 68 3d
       0.05386136 0.14839233 0.07231018 0.056678243
000230 59 de bd bd 82 d7 c1 bc b2 d4 e9 3d 44 e3 bc 3c
       -0.09270925 -0.023662332 0.114175215 0.023057587
000240 cf 4a fe 3c d2 e3 ab 3d 88 f0 18 bd 21 1c 75 bd
       0.03104153 0.08393063 -0.037338763 -0.05984128
000250 b7 24 94 3d c5 36 9e bd e4 5e 87 bd 2d d4 7a bd
       0.07233565 -0.0772529 -0.06609896 -0.061237503
000260 d0 0f 6a 3d 8f 57 f9 3d 9f d9 37 3d b3 f1 e2 3c
       0.057143986 0.121749036 0.044885274 0.027703142
000270 64 f2 55 be 61 e8 bd 3d 57 bc d4 bd 31 c4 e1 bd
       -0.20893246 0.092728384 -0.103874855 -0.11023749
000280 61 d8 93 3c b3 61 8f 3d 54 77 83 bd 23 bc 8c 3d
       0.018047513 0.070010565 -0.064192444 0.06871822
000290 6f 20 c8 3d 9d 15 d6 bd 18 79 09 bd af 97 80 bd
       0.09771811 -0.10453341 -0.03356275 -0.06278931
0002a0 4e e6 42 3d 4f 82 46 3d e9 f4 02 bb 43 7f 8f bc
       0.047582917 0.048464116 -0.0019982404 -0.017516738
0002b0 92 e2 23 bd ca 4c 9f 3d 6c 79 82 bd 8d 5d a3 bd
       -0.040010996 0.07778318 -0.06370816 -0.07976828
0002c0 ab 2f 07 be ea 7a 3e 3e bc c0 1b be 3b 05 06 be
       -0.13201778 0.18601575 -0.15210241 -0.13087933
0002d0 aa 4e 96 3d 26 de f8 bd 4c fb cb bd 66 b2 a2 3d
       0.07339223 -0.121517465 -0.099600405 0.07944183
0002e0 bc 0e a5 3b 0d 21 a0 3d 28 fc 0d be 5e b1 b1 bd
       0.005037157 0.07818804 -0.13865721 -0.08676408
0002f0 5d 0d dd 3c f5 50 59 bd 98 23 d2 bc ba ca 6e 3c
       0.026983911 -0.053055722 -0.025651738 0.014574701
000300 e2 97 94 bd ba c8 67 3d dc da 42 be 5f b5 5f 3e
       -0.07255532 0.056587912 -0.190288 0.21846531
000310 2f 89 b0 3d 43 b9 a4 3e 44 21 e2 3c 58 93 7a bc
       0.08619916 0.32172593 0.027603753 -0.015293919
000320 ba 1f 39 3e d9 42 ba bd 80 b6 fb bd 0a 7e 0f bd
       0.18078509 -0.090947814 -0.122906685 -0.03503231
000330 1a b4 5f 3e dc 0c aa bd 20 c3 61 ba be 13 11 3e
       0.21846047 -0.08303234 -0.0008612145 0.14167687
000340 0b 05 42 bd 75 de 24 3f 24 55 9b bd 00 18 22 3d
       -0.04736809 0.6440194 -0.07584599 0.03957367
000350 a4 cf 98 be 53 2d 03 3e c9 0e 39 3d 4c 87 e3 3d
       -0.29845917 0.12810259 0.045180116 0.1110979
000360 f6 4f f7 3c 15 3f a7 be dd 57 47 3d db d6 9c 3e
       0.030189496 -0.32665315 0.048667777 0.30632672
000370 ca 60 ba be e7 f8 07 be 93 54 85 3e 44 65 c4 bb
       -0.3640197 -0.13278542 0.26041088 -0.005993517
000380 27 2c 25 3f 1e 40 40 3e 0e 3f e5 bc 4e 54 10 3e
       0.64520496 0.18774459 -0.027984168 0.1409466
000390 c5 10 35 bd df 41 37 3e bd 61 22 3e 89 f7 e8 bd
       -0.044205446 0.17896222 0.15857597 -0.113753386
0003a0 21 7a b1 3e d4 68 e2 3d 5f ad 93 3d d9 c0 7b bc
       0.3466349 0.11055151 0.07210802 -0.015365803
0003b0 bb e8 2c 3e 0c cc 45 be 15 ea 71 3e 38 5a 89 be
       0.16885655 -0.19316119 0.23624451 -0.26826644
0003c0 bb cc 4d be 98 ec 06 be 2f cd 71 3b 43 21 42 be
       -0.2009763 -0.13176191 0.003689598 -0.18958001
0003d0 f8 b7 af ba 8e 2f e8 3c 78 da 18 3c 0f a4 8b bb
       -0.0013406267 0.028342988 0.009329431 -0.0042615007
0003e0 39 42 e7 ba 8f de 09 be 9a 1a 25 3c 9d 9a 28 3e
       -0.0017643637 -0.13463806 0.010077143 0.1646523
0003f0 c4 2d f5 bb ec 40 c3 3c e1 06 02 bd b3 5e 52 3d
       -0.0074822623 0.023834668 -0.03174484 0.051359843

shared.hidden_layers.1.bias f4 [64]
000000 b3 3d 05 bd 88 14 67 3c 27 9c 2d 3c db 13 b8 3d
       -0.032529544 0.014104016 0.010596312 0.08988162
000010 62 31 64 3d 5e e1 57 bc ab 1c 98 3d f3 c3 6a 3d
       0.055711158 -0.01317629 0.07427343 0.057315778
000020 36 af 02 3d b2 70 1d bc 80 0b cc bd 98 7a f1 bc
       0.031905375 -0.009609388 -0.09963131 -0.029477403
000030 94 89 d3 3c 50 a7 03 bd 52 98 8f bb 13 3c 48 3d
       0.025822438 -0.032141984 -0.0043821717 0.048885416
000040 2e f3 80 bd de 0b 82 3d 10 78 25 bd e9 e3 12 bd
       -0.06296383 0.0634992 -0.040397704 -0.035861883
000050 69 db 0f be a3 b3 71 bd ba 5d 87 3d a3 10 94 bd
       -0.14048542 -0.059009206 0.06609674 -0.07229736
000060 c1 b3 29 bd 54 0f e7 bd 63 2f 93 bd ec 82 0e 3e
       -0.041431192 -0.112822205 -0.07186773 0.1391713
000070 78 c2 55 3d 85 bb b7 3d 32 b3 0c 3e f4 14 cc 3a
       0.052187413 0.089713134 0.13740233 0.0015570209
000080 11 b7 01 3e 7a a0 21 bd 23 4d ba bc f9 9a 2b bd
       0.1266749 -0.039459683 -0.02274186 -0.04189584
000090 75 3d 58 bd 9f e7 dd 3c 6e 49 86 bd 7e c0 ac b9
       -0.052792985 0.027087985 -0.06556974 -0.00032949814
0000a0 b0 6a 36 3b 63 ea 90 3d 51 f1 df bd 5d c0 93 bd
       0.0027834587 0.07075956 -0.10934699 -0.07214425
0000b0 5f c9 42 bc 16 51 10 3d cb bc a2 bc 6c a4 c4 3d
       -0.011888831 0.03523358 -0.019865414 0.096016735
0000c0 1b 13 0d 3e 19 36 62 3d f6 96 6c bd 02 07 11 bd
       0.1377682 0.055227373 -0.057761155 -0.035407074
0000d0 d7 68 bc 3a 6f 0d 03 be be be 09 3e b4 08 d2 bd
       0.0014374506 -0.12798093 0.13451669 -0.10255566
0000e0 d6 1d c2 bc 1c 63 39 bd 3e 4f 86 bc c4 af 94 bd
       -0.023695868 -0.045260534 -0.016395207 -0.07260087
0000f0 2d 0e 20 bc e9 02 44 3d cd ee 82 3e 60 55 7f bd
       -0.009769005 0.047854338 0.25572816 -0.06233728

shared.output_layer.weight f4 [64, 64]
000000 3f 99 0d be 92 32 6a bd 3c c1 d6 bd 72 b7 90 3d
       -0.1382799 -0.057177134 -0.10486075 0.070662394
000010 bc 9b ae bb 3d 8f 5e 3d ed 03 57 3d 42 40 ca bb
       -0.0053286236 0.05433582 0.05249398 -0.006172211
000020 e1 9b 1b bd 54 5c e5 3d b9 51 b4 bd 23 43 57 bd
       -0.037990455 0.11199251 -0.0880465 -0.05255426
000030 8c 74 31 3d 03 89 9a bd c8 d9 03 3c c0 68 b2 3d
       0.04332404 -0.07545664 0.008047529 0.08711386
000040 8e b2 91 bd 2c 1a e9 3d 4c 1e 22 bd c1 ff ac 3d
       -0.07114135 0.11381945 -0.039579675 0.08447219
000050 61 ca 6a bd f9 28 e0 bc 42 4e a7 bd 80 b5 c0 bd
       -0.05732191 -0.027363287 -0.08169223 -0.094096184
000060 91 bc d6 3d 54 67 0d be 71 fe 7b 3a b5 3d 86 be
       0.10485185 -0.13808948 0.0009612805 -0.26218954
000070 e0 44 f1 3d 5f a9 56 bd 38 d4 fa 3d 5a 75 83 bd
       0.11780715 -0.05240762 0.12247509 -0.064188674
000080 26 4c 47 3e ed da ac 3a cf 60 d3 3c 7e cb 2d bd
       0.19462642 0.0013187804 0.025802998 -0.042430393
000090 38 dc 53 3d 41 b7 c8 3d b9 b4 21 bd 88 63 e5 bd
       0.05172369 0.09800578 -0.03947899 -0.11200625
0000a0 bb 94 26 bd de 9e ca bd 59 38 95 be e2 1a ee bb
       -0.040669184 -0.09893583 -0.29144552 -0.0072663883
0000b0 a2 39 93 3d a7 a0 30 3c 9e f1 9c 3d 35 c7 93 3c
       0.07188727 0.01078049 0.07663272 0.018039325
0000c0 ad 52 8d 3e d8 97 f9 bc a5 8c d7 3d c5 77 d3 3d
       0.2760214 -0.030467913 0.10524873 0.103255786
0000d0 d2 9b 7d 3d 2d 0c 67 be 58 94 3b 3e 10 e0 9f 3d
       0.06191618 -0.22563238 0.18318307 0.078064084
0000e0 86 3a b5 bd ae 6b a7 3b d2 00 9e 3d 9c ab bd 3d
       -0.08849053 0.005109272 0.07715 0.092612475
0000f0 d8 db 78 bc 91 42 5a 3d 45 d1 89 3e ed 7a 6c bd
       -0.015189134 0.05328614 0.26917472 -0.05773442
000100 99 7f 43 3d 42 aa e9 bd 20 5b 74 bd 5c 99 14 be
       0.04772911 -0.11409427 -0.059657216 -0.14511627
000110 b8 1c c5 3c 9a ad 9a 3d c5 dd 87 3d ee cd a9 bb
       0.024061546 0.07552643 0.06634096 -0.0051820194
000120 e8 c2 94 bd 3a 28 b0 3d 45 a9 53 3d 7d 85 c4 3d
       -0.07263738 0.086014226 0.0516751 0.09595773
000130 44 c7 52 bd 39 0b c8 bb d1 de 14 3e 2a 4c ca 3d
       -0.051459566 -0.0061048535 0.14538123 0.098778084
000140 26 13 ec bd 04 dc d8 bc 70 83 0b 3d ba a8 97 3d
       -0.1152709 -0.0264721 0.034060895 0.07405229
000150 15 4c f1 3b 7f d5 eb bd 4d 54 bb bd e3 38 ca bd
       0.007363806 -0.115153305 -0.091469385 -0.098741315
000160 49 d1 ad 3d 80 24 90 3d ba d6 63 3d c1 05 93 3e
       0.084871836 0.07038212 0.0556247 0.28715327
000170 33 d0 7b bd 85 07 17 3d cd 59 e8 bd 21 13 f3 3c
       -0.06147785 0.036872406 -0.11345253 0.029672207
000180 a7 1a 09 be 04 ed 21 3d dd c0 42 3c a7 0c aa 3d
       -0.13389073 0.039532676 0.0118868025 0.083031945
000190 4d d2 92 bd f0 b5 e0 3d fa 68 be 3d 7f 21 72 3d
       -0.07169018 0.10972202 0.092973664 0.059113976
0001a0 34 0d 44 3d c2 ff 90 3b f7 17 50 3e 48 e6 ba bc
       0.047864154 0.00442502 0.20321642 -0.022814885
0001b0 d8 d3 93 3d d7 6e 3e 3d 6e b5 91 3d 4a 7d e8 bb
       0.0721814 0.046492424 0.07114683 -0.0070950137
0001c0 68 a3 fc bd b8 34 98 3d 0a 64 ac 3d 9a a2 79 bd
       -0.12335855 0.0743193 0.084175184 -0.060946085
0001d0 93 8a 23 bd a7 2e ee 3d a0 1b 9c ba f2 51 2b 3d
       -0.039927077 0.11629992 -0.0011910088 0.041826196
0001e0 ca 79 f6 bc 46 4f e6 bd 4b 0a ff 3d 5d 2d 45 bc
       -0.03008737 -0.11245589 0.12453135 -0.012034741
0001f0 c2 db 39 bd 4f 92 a8 3c 5f 14 23 be 40 73 d1 b9
       -0.045375593 0.020577578 -0.1592574 -0.00039949454
000200 fe 82 1e bd 37 8e d1 3d c6 26 30 bd 9a 6d 62 3d
       -0.038699143 0.102322035 -0.043005727 0.055280305
000210 6b 36 26 3c ff 4c 5a 3d b9 59 8e bd f1 3f bb 3b
       0.01014481 0.053296085 -0.06950707 0.0057144095
000220 b3 22 f7 bd d8 34 4d bd 95 01 98 bc 5f 87 a1 3b
       -0.12067165 -0.050099224 -0.018555442 0.0049294676
000230 a5 01 ca 3d 12 19 8b bd 67 43 55 3c 33 fb 08 3b
       0.09863595 -0.06791891 0.013016558 0.002090168
000240 f1 ea a9 3d 52 2b c6 bc e8 fd 60 bd 03 d2 1b 3d
       0.08296765 -0.024190579 -0.054929644 0.03804208
000250 56 14 6f bd 92 7c 15 bd 74 98 85 bd 80 72 ea 3d
       -0.058369003 -0.036495753 -0.06523219 0.114476204
000260 fb 73 42 3d 3e 9c ec bd aa aa 02 bc 49 be b3 be
       0.04747389 -0.11553238 -0.00797526 -0.35106114
000270 a4 9f b4 bc 4b 2c 0f be cf ae 45 bc a3 70 b1 bd
       -0.022048779 -0.1398174 -0.012065603 -0.08664062
000280 6c a3 68 3e 22 08 46 bd fd 8a 73 bd 07 af 1c 3d
       0.2271859 -0.0483476 -0.05945872 0.038252857
000290 0a a5 06 bc 3b 27 8a bd b4 33 56 3d 8e 71 50 3c
       -0.008218059 -0.06745764 0.0522954 0.012722386
0002a0 d6 ba 8a bd 91 28 06 bc 2e cd b6 be 87 4e 9b bd
       -0.067739174 -0.008188383 -0.35703415 -0.07583337
0002b0 27 07 f8 3d 33 7e d1 bc 83 5e d2 3d 0b 7d 26 3d
       0.12110739 -0.025572872 0.10271933 0.040646594
0002c0 7a 77 e0 3d 85 58 d1 bc d7 30 c3 bd f0 77 bd bc
       0.10960288 -0.025554905 -0.095308 -0.02312848
0002d0 8c ac d8 3d 82 57 87 bd d8 a5 23 3e 62 7b 04 3d
       0.10579786 -0.06608488 0.15981233 0.03234423
0002e0 ec 8f bc bc 9c 48 b1 bd 9d b2 5d bb e4 04 79 bd
       -0.023017846 -0.08656427 -0.0033828386 -0.06079568
0002f0 a5 0f 5a 3d 55 bc c2 3d 12 75 e9 3d 70 93 99 bd
       0.053237576 0.09508578 0.113992825 -0.074988246
000300 11 7c b2 3d ef a1 0a be af 07 78 bc 5a 1f e5 bd
       0.0871507 -0.13538335 -0.015138551 -0.111876205
000310 3c 96 af bc 75 89 66 bd 3e 8a 8a 3c 8f 1b b5 bd
       -0.021433942 -0.056283433 0.016911622 -0.08843147
000320 ae 4e 97 bd d1 a7 eb 3d 72 ce 14 3d ee 26 5d bd
       -0.07388054 0.11506618 0.036329694 -0.053992204
000330 f1 be b2 bd 52 ed d1 bc 96 43 88 3d 17 72 9a bb
       -0.087278254 -0.025625858 0.06653516 -0.0047133076
000340 0b 65 61 bd e2 03 f3 3d 01 a5 00 be 95 64 c1 3c
       -0.055028003 0.11865975 -0.12562944 0.023607532
000350 aa ba fd 3c ca 52 50 bd c2 d8 68 3d 07 6c 42 3d
       0.030972797 -0.050860204 0.05684734 0.047466304
000360 86 5a 07 bb 55 41 e2 3c 31 8b ef bb 52 dc 9a 3e
       -0.0020653321 0.027619043 -0.007310294 0.30246216
000370 e2 d3 44 3d da 44 b3 3d 2b 99 a1 bc c0 d6 2e bd
       0.04805363 0.08753367 -0.019726356 -0.04268527
000380 0c 45 42 be 7f 63 99 3d bb f5 1e bd a0 d6 53 3d
       -0.18971652 0.074896805 -0.038808566 0.051718354
000390 c6 f1 89 3c 0a 71 ec 3d 92 0c 64 bd 89 e6 83 bd
       0.01683892 0.11544998 -0.05567605 -0.064404555
0003a0 2b ac e1 bd 80 93 bc bd f0 7e 33 3e 1e 26 94 3d
       -0.110191666 -0.09207821 0.17528892 0.07233833
0003b0 3d 76 f6 3d dc 31 88 bd 4c c3 4c bc 49 e0 c5 bd
       0.12034271 -0.06650135 -0.012497734 -0.096619196
0003c0 c6 fc 64 be 12 ad 9d 3d ad 5d fc 3c 5d a6 fa bc
       -0.2236205 0.07699026 0.030806387 -0.030596906
0003d0 db 25 27 bd 52 ff d2 3d 6f 09 21 3c e1 ac 83 3d
       -0.040807586 0.10302605 0.009828909 0.064294584
0003e0 8d 92 96 3d 45 8a 21 3c 9f f1 e1 3c 59 4b 0c bd
       0.07352171 0.009859626 0.027581034 -0.034251545
0003f0 83 79 a2 bc aa 25 96 3d 4c 96 41 be f9 f8 d0 bb
       -0.019833332 0.073314026 -0.1890499 -0.006377336

shared.output_layer.bias f4 [64]
000000 3f d4 8b 3c cc 5c 59 bd 24 4a cb ba 64 e9 8b bd
       0.01706898 -0.053067014 -0.0015509767 -0.06831625
000010 9f f3 30 bd 7c a4 2d 3d 9d 18 94 bb 8b 92 38 3c
       -0.043201085 0.042393193 -0.0045195357 0.011265407
000020 da 6a 9f 3c 70 02 8a 3d 00 9c 15 bd 6d 9e ff 3d
       0.01946013 0.06738746 -0.036525726 0.12481389
000030 29 a9 1c bd c4 4f 3a bc 90 87 d4 3d 6d f3 0d 3c
       -0.03824726 -0.011371557 0.10377419 0.008663994
000040 79 05 66 bd 0b 8c 76 bc 50 df 64 3c 4c 98 d7 3c
       -0.056157563 -0.015048037 0.0139692575 0.026317738
000050 a8 1f ec bd 8a 13 a2 bd db 83 cb bd 81 b3 79 bd
       -0.115294755 -0.07913883 -0.09937259 -0.060962204
000060 a3 62 af 3c e9 63 ae 3d b3 96 04 3d 89 58 14 bd
       0.021409338 0.0851515 0.03237028 -0.036217246
000070 d4 c0 bf bc 9d ba a9 3c f7 d3 22 3d bb 1d 7c bd
       -0.023407377 0.020718867 0.039752927 -0.06155179
000080 ef 3e fc 3d eb b9 99 bc d7 a6 6e bc cf 72 a3 bc
       0.12316691 -0.01876541 -0.014566145 -0.019952206
000090 2e d7 80 3d 37 7b f8 3d ce 51 a1 3b d6 38 83 3b
       0.06291042 0.12132876 0.004923082 0.004004578
0000a0 c8 c0 97 bd a8 b7 92 3d 76 cc e2 3d 93 d7 5f bd
       -0.07409817 0.07163936 0.11074154 -0.054648947
0000b0 cc 8b d9 3c 26 12 40 3d 1c 5e a9 3d eb aa 06 bd
       0.026555918 0.046892308 0.08269903 -0.032877844
0000c0 9c dd 54 3c 50 21 9a bd 55 54 77 3d 2a 0d 58 bd
       0.012992289 -0.07525885 0.06038316 -0.05274693
0000d0 f4 7e 8e bd 06 78 a7 3c 43 ab a7 bd 52 2b 1f bc
       -0.06957808 0.020442974 -0.081869625 -0.009714918
0000e0 42 64 f4 3c bd 2f 29 bc 1b 90 b0 ba 87 ef 12 bd
       0.029832963 -0.010326323 -0.0013470681 -0.035872962
0000f0 90 7c a9 bd a2 91 b7 3c 7f 1f d6 bb c5 3b 29 bd
       -0.082757115 0.02240831 -0.0065345163 -0.041316766

head_1.weight f4 [1, 64]
000000 59 9e 8b 3e 6a 81 40 bd 70 2e 32 3e 06 ad 81 bd
       0.27269247 -0.04699842 0.17400527 -0.0633183
000010 8f 09 b0 bd ce f3 08 3d 62 73 9b be 4b ac 2c bc
       -0.08595573 0.033435635 -0.30361468 -0.010539125
000020 dd 33 f1 39 b7 48 98 3e 88 b6 c7 3e 63 ed e2 3e
       0.00046005743 0.29742977 0.39006448 0.44321737
000030 52 37 99 be a9 d8 39 be 64 50 81 3e 52 f5 51 be
       -0.2992502 -0.18149056 0.25256646 -0.20503739
000040 ab 0a 3d 3d a1 5f 67 be ff 42 98 bb 3f 86 f2 3a
       0.046152752 -0.22595073 -0.0046466584 0.0018503143
000050 7c 3f 14 be aa 1e 4c 3e f8 34 b2 be 38 82 85 be
       -0.14477342 0.19933572 -0.34806037 -0.26075912
000060 96 20 63 3c 7e e2 96 3e ca 00 b0 3c b3 7e 10 be
       0.01386275 0.29469675 0.021484751 -0.14110832
000070 a0 6c 1b bc 20 a3 a4 ba 61 95 22 bb 20 71 7e be
       -0.009486347 -0.0012560822 -0.0024808275 -0.24847841
000080 d9 8d 64 3e 08 8c ed 3d 2f cc 97 3c 76 f8 82 3e
       0.22319736 0.115989745 0.01852998 0.25580186
000090 d1 d7 a4 3e 36 b4 56 3e 9e 42 1a bb c5 b9 20 be
       0.32195905 0.20967183 -0.0023538242 -0.15695865
0000a0 08 f5 82 be 3d 15 13 ba 5c 4f 0e 3e 51 36 9f 3e
       -0.2557757 -0.000561077 0.1389746 0.31096128
0000b0 a7 2e a4 be 34 6a a9 be f1 43 b2 3d 18 b9 7a 3e
       -0.32066843 -0.3308884 0.08704365 0.2448467
0000c0 47 4a 99 be 3f f3 09 bd 1a 8d cc 3e c9 fe 24 be
       -0.29939482 -0.033679243 0.39951402 -0.16112818
0000d0 6e 8c 37 be 8d 03 fe 3d 0f e5 80 be a0 be 75 bb
       -0.17924663 0.12403021 -0.25174758 -0.0037497655
0000e0 7a 89 da bd ea 1b c3 3e d6 90 41 3e 3a 2f 65 ba
       -0.10670753 0.38107234 0.18902907 -0.0008742694
0000f0 b7 ef c3 3c c2 74 73 3b ad 9b 66 bd 04 2d 01 3a
       0.023918016 0.003714845 -0.056300808 0.00049276673

head_2.weight f4 [1, 64]
000000 ec 86 e5 3d c8 7b a8 bc c8 37 8a bd 88 59 9e 3d
       0.11207375 -0.020566836 -0.06748921 0.077319205
000010 c8 71 fe bd 60 85 65 3c 2a b3 e3 3d 82 d7 98 bd
       -0.12424046 0.01400885 0.11118157 -0.0746298
000020 da 9a d1 bd 34 3d d0 bd e4 6d ee 3d c0 7d 35 bd
       -0.10234614 -0.101679236 0.11642054 -0.044309378
000030 2a 5a de 3d a8 1f 10 bd cc 76 3e 3d 02 09 e0 3d
       0.10857041 -0.03518644 0.046500012 0.10939218
000040 80 d4 6c bb f6 a1 f4 bd da df 8d bd 7a f9 ee bd
       -0.0036137402 -0.11944954 -0.06927462 -0.11668678
000050 ea 77 d1 bd 8c e2 a9 3d 56 9e ca bd 68 ca aa 3d
       -0.1022795 0.082951635 -0.098934814 0.08339387
000060 1c d9 2d 3d 1c c4 8f 3d b0 90 c7 bd 8e 18 e4 bd
       0.04244338 0.07019827 -0.09744394 -0.11137496
000070 58 32 bd bd 80 12 e2 3c 60 fc 1b 3c cc 08 44 bd
       -0.09238118 0.027596712 0.00952062 -0.04785995
000080 92 7b a2 bd 40 42 08 3d e2 98 8d 3d a6 ba c9 bd
       -0.079337254 0.033266306 0.06913926 -0.098500535
000090 60 9b aa bd 48 02 8b bd a8 f7 fd bc 28 26 ee 3c
       -0.08330417 -0.067875445 -0.03100188 0.029070929
0000a0 c8 be d0 bd e0 7a a9 3d a0 6c 2a bc ba e8 f3 bd
       -0.10192639 0.0827539 -0.010401875 -0.119096234
0000b0 00 c1 23 3c b8 8e aa bc 26 e1 a9 3d ca 38 8a bd
       0.009994745 -0.020820007 0.08294897 -0.06749113
0000c0 1e 10 9f bd 0c 08 fc bd e8 c7 2f bd 88 04 cd 3d
       -0.07766746 -0.12306222 -0.042915255 0.1001063
0000d0 48 d3 d7 3d 8c eb 67 bd 70 aa e3 bc c0 70 21 3d
       0.105383456 -0.05662112 -0.027791232 0.039414167
0000e0 e8 67 aa 3c 40 2e 45 bb 24 0b b4 3d ec e3 89 bd
       0.0208015 -0.0030087382 0.087911874 -0.06732926
0000f0 52 d2 d3 3d 7c 50 60 bd 44 15 a6 3d 40 33 89 3c
       0.1034285 -0.054764256 0.08109525 0.01674807
