episodes/15_rand_actdiff2_long_maxa6_T300_rlclip05/best_qfcn_target2.pt (torch, 21477 bytes, 5 tensors)

net.hidden_layers.0.weight f4 [64, 7]
0	0xbfcee9c9	-1.6165096
1	0xbe54c1b3	-0.20777015
2	0xbf448b56	-0.7677511
3	0x3e87357a	0.26407987
4	0x3ea927e1	0.33038238
5	0xbdc63df2	-0.09679784
6	0xbdf76471	-0.120797046
7	0x3fb7646a	1.4327519
8	0xbedd005c	-0.43164337
9	0xbf9a89da	-1.2073319
10	0x3e31dcde	0.1736941
11	0x3da686a4	0.081311494
12	0x3f5aa447	0.8540692
13	0x3eb9934e	0.36245197
14	0x3fa693a0	1.3013802
15	0xbe97ef09	-0.29674557
16	0xbf4b4ff4	-0.79418874
17	0x3f2b7ccd	0.66987306
18	0x3e4ea139	0.20178689
19	0x3e90d769	0.28289345
20	0x3ecc6a59	0.39924887
21	0xbee7e068	-0.45288396
22	0xc00d15df	-2.20446
23	0xbef55894	-0.47919142
24	0xbf43389f	-0.7625827
25	0x3f02a18d	0.51027757
26	0x3e92f77b	0.28704438
27	0x3f6915c4	0.91048837
28	0xbed73d03	-0.42038736
29	0xbfb6c06b	-1.4277471
30	0xbeed757d	-0.463787
31	0xbf0987f5	-0.5372308
32	0xbe8c6165	-0.27418056
33	0xbe784ac0	-0.24247265
34	0x3d260b2f	0.04053801
35	0x3f46032e	0.773486
36	0x3f7a0b2d	0.976733
37	0x3efc9291	0.4933057
38	0x3da9b4d3	0.082864426
39	0x3e2d410d	0.16919346
40	0xbf0ffd0f	-0.5624551
41	0xbec965b5	-0.3933541
42	0xbee354b3	-0.44400558
43	0xbee378d4	-0.44428122
44	0x3f94836a	1.1602604
45	0xbf680688	-0.90634966
46	0x3d8d145a	0.068886474
47	0xbc8ba69b	-0.017047217
48	0x3f3545a8	0.7080941
49	0xbf90a674	-1.1300797
50	0x3fdf6098	1.7451353
51	0x3d5cc75d	0.053901065
52	0xbe1860b2	-0.14880636
53	0xbedc57f3	-0.4303585
54	0xbe863423	-0.26211652
55	0xbea956eb	-0.33074126
56	0x3f3fbc4e	0.74896705
57	0xbf4a8a01	-0.7911683
58	0xbf78ee6d	-0.9723881
59	0xbf1dd286	-0.6164936
60	0x3d24076d	0.040046144
61	0xbe10ac2b	-0.14128177
62	0x3ed878f7	0.4227979
63	0xbfcb1759	-1.58665
64	0x3e9bb7b1	0.30413583
65	0xbe925a6a	-0.28584605
66	0xbf0a5b2d	-0.54045373
67	0x3d08b14a	0.0333722
68	0xbe8f28fc	-0.27960956
69	0xbe827fbb	-0.25488076
70	0x3e725710	0.23666024
71	0x3f9544bb	1.16616
72	0xbe198c11	-0.14994837
73	0x3efad3f5	0.48989835
74	0xbe5e22a6	-0.21692905
75	0x3e2744f9	0.16334905
76	0x3dc4cf58	0.0960986
77	0xc00526e6	-2.0804992
78	0xbebe2081	-0.37134174
79	0xbdb796a2	-0.08964278
80	0xbf81f79b	-1.0153688
81	0xbefffc6c	-0.4999727
82	0x3e7d681e	0.24746749
83	0xbe8fdeea	-0.28099757
84	0x3fad0c6f	1.351942
85	0x3d6011bb	0.05470441
86	0xbf865477	-1.0494527
87	0x3ecd513d	0.40101042
88	0x3eb4db7f	0.35323712
89	0x3e111249	0.14167131
90	0xbd809340	-0.06278086
91	0xc0855776	-4.1669264
92	0xbdd4d324	-0.103918344
93	0x3f2fed31	0.687213
94	0xbe1f21c1	-0.1554022
95	0x3e5401e5	0.20703848
96	0xbeb862a9	-0.36012772
97	0xbe89e8cd	-0.26935425
98	0xc046fb18	-3.1090755
99	0xbf80aa55	-1.0051981
100	0xbe7a2afd	-0.24430461
101	0x3aa30e51	0.001244018
102	0xbcdde5f1	-0.027087184
103	0x3f9a3568	1.2047548
104	0x3f03d36f	0.514945
105	0xc03c1319	-2.9386656
106	0xbd49d393	-0.04927404
107	0xbe3bc22c	-0.1833579
108	0x3e2e2cf5	0.17009337
109	0x3dad71fc	0.084690064
110	0xbee398d9	-0.4445255
111	0xbe2cacd3	-0.16862802
112	0x400ff941	2.2495883
113	0xbf0726f9	-0.5279384
114	0xbdf94618	-0.121715724
115	0x3d9521b4	0.07281819
116	0xbd99e4f7	-0.07514375
117	0x3e85686d	0.26056233
118	0x3e9b1321	0.30288032
119	0x3ec20a4a	0.37898475
120	0x3fff3683	1.9938511
121	0x3f1dfd45	0.61714584
122	0x3f3e6418	0.7437148
123	0xbeb25d2f	-0.34836718
124	0x3da49a29	0.08037216
125	0xbd82f93a	-0.063951924
126	0xbf5446f7	-0.82920784
127	0xbf7f3712	-0.99693406
128	0xbefbb921	-0.4916468
129	0xbf2b0bf3	-0.6681511
130	0x3e2b103a	0.16705409
131	0x3d1f0fc3	0.03883339
132	0xbeb90a91	-0.36140874
133	0xc01a53e1	-2.4113696
134	0xbf13687e	-0.5758132
135	0x3f6605c1	0.8985253
136	0xbecab3c2	-0.3959027
137	0x3ed6cf31	0.4195495
138	0xbd28413e	-0.041077845
139	0x3db7866e	0.08961187
140	0x3d22e0a6	0.039765023
141	0x3f896e4a	1.0736783
142	0x3f7dd75f	0.99156755
143	0xbf93631b	-1.151462
144	0xbe201c74	-0.15635854
145	0x3e27240c	0.16322345
146	0x3dc13c00	0.09435272
147	0x3f4cbc55	0.7997487
148	0xbf4d4b1a	-0.8019272
149	0x3eb2a384	0.34890378
150	0x3e7042e8	0.23463023
151	0xbe2a3451	-0.1662152
152	0xbeaac266	-0.3335144
153	0xbe6fc27b	-0.23414032
154	0x3f13f26e	0.57791793
155	0x4024fe87	2.578035
156	0xbf431d04	-0.7621615
157	0x3f48cd98	0.7843871
158	0xbef55772	-0.47918278
159	0x3da3d047	0.0799871
160	0xbef01a3a	-0.4689501
161	0x3f8c5abf	1.0965194
162	0xbfd0e302	-1.6319277
163	0x3ef56b9e	0.47933668
164	0xbf2bffef	-0.671874
165	0x3a365d9d	0.00069566985
166	0x3ec61b92	0.3869291
167	0x3d9149f0	0.070941806
168	0xbfdde071	-1.7334119
169	0x3d0cb716	0.03435429
170	0x3e6669cc	0.22501296
171	0xbedd71eb	-0.43250975
172	0x3cb39035	0.02191935
173	0xbf62254b	-0.88338155
174	0xbf023a60	-0.50870323
175	0x3f08dbbb	0.5346028
176	0x3f737358	0.95097876
177	0x3f917afe	1.1365659
178	0xbe811139	-0.25208452
179	0xbe989c2e	-0.29806656
180	0x3ed329f7	0.41242954
181	0x3e8b3858	0.27191424
182	0x3f2dd40c	0.6790168
183	0x3f3aeb4e	0.73015296
184	0xbeb58696	-0.35454243
185	0x3f1f8172	0.6230689
186	0xbe2edc9e	-0.17076346
187	0x3dcc4571	0.099741824
188	0x3d9013c0	0.07035017
189	0x3e27ed93	0.16399221
190	0xbfbd86a6	-1.4806716
191	0x3f384dde	0.71993816
192	0x3ed620f7	0.41822025
193	0x3e7cce38	0.24688041
194	0xbd89bc0a	-0.06725319
195	0xbd61335c	-0.05498062
196	0x3eadc155	0.33936563
197	0xbf470a5a	-0.7775017
198	0x3ea95557	0.33072922
199	0xbf1a6f52	-0.6032611
200	0xbe575fa1	-0.21032573
201	0xbcb86134	-0.022507288
202	0xbdf43bbb	-0.11925455
203	0x4062de13	3.5448043
204	0x3dd811dd	0.10550282
205	0xbf20a15c	-0.62746215
206	0xbed6f04b	-0.41980204
207	0x3ddc29f6	0.10750191
208	0xbf1b18d9	-0.6058479
209	0xbe82e801	-0.2556763
210	0xbfabae48	-1.3412561
211	0xbf9b2c7b	-1.2122949
212	0x3f38382b	0.71960706
213	0xbefd14ef	-0.49430034
214	0xbe838931	-0.25690606
215	0x3db6ecd4	0.0893189
216	0x3e0dd5f9	0.13851155
217	0xbf02bef8	-0.51072645
218	0xbf5b75a7	-0.857264
219	0x3f94b68e	1.1618211
220	0x3d9c4b41	0.07631541
221	0x3e51a1ff	0.20471953
222	0x3cdf25c9	0.027239697
223	0xbd97921c	-0.07400915
224	0xbf455eeb	-0.7709796
225	0x3f580719	0.8438583
226	0x3f3a203d	0.7270544
227	0x3eefe217	0.4685218
228	0xbe468de5	-0.19390066
229	0x3dbd3853	0.092392586
230	0x3e0a8325	0.1352659
231	0x3f110891	0.56653696
232	0xbf00aaa1	-0.5026036
233	0xbf93c701	-1.1545106
234	0xbe8430a1	-0.2581835
235	0x3e829d0c	0.25510442
236	0xbe936e1c	-0.28794944
237	0xbf11bdc2	-0.5693017
238	0x3f13bc7b	0.57709473
239	0x3ea81bef	0.32833812
240	0xbf38ce4f	-0.721898
241	0xbd7bf8ba	-0.0615165
242	0x3e252dc0	0.16130733
243	0xbe952bf4	-0.29135096
244	0xbe404809	-0.18777479
245	0xbf993b46	-1.1971214
246	0xbe91cd97	-0.28477165
247	0xbfa598c8	-1.293725
248	0xbf451321	-0.76982313
249	0xbd1d6cde	-0.038433902
250	0xbf0043ee	-0.5010365
251	0xbe8afb30	-0.27144766
252	0x3e89434c	0.26809156
253	0x3ee474b5	0.4462029
254	0x3e977859	0.29584005
255	0x3e5aecb4	0.21379358

net.hidden_layers.0.bias f4 [64]
0	0xbf84aea2	-1.0365794
1	0x3c309d10	0.010779634
2	0xbf6da4c5	-0.92829543
3	0xbee14ac7	-0.44002363
4	0xbf7c2357	-0.98491424
5	0x3f88cdef	1.0687846
6	0x3f8c588a	1.096452
7	0x3f2d2416	0.6763319
8	0xbefdb25b	-0.49550137
9	0x3f386a03	0.7203676
10	0xbed1e7cf	-0.40997168
11	0x3f408d82	0.75215924
12	0xbf06cf98	-0.5266051
13	0xbf0142e7	-0.5049271
14	0xbe63c152	-0.22241715
15	0x3f376606	0.7164005
16	0xbf3df0b5	-0.74195415
17	0x3f0390d1	0.5139285
18	0xbeea1268	-0.45717168
19	0x3f92b0aa	1.1460164
20	0x3dccca64	0.099995404
21	0x3f1e3dd0	0.6181307
22	0xbf2aad0a	-0.66670287
23	0xbebe49fd	-0.37165824
24	0x3f685429	0.9075342
25	0xbe31dd7b	-0.17369644
26	0xbf5d79dd	-0.86514074
27	0xbd1ccd56	-0.03828176
28	0x3f9d5da6	1.2294204
29	0xbe3870a8	-0.18011725
30	0x3f38fad2	0.7225772
31	0x3f41f409	0.75762993
32	0x3f4c3576	0.79769075
33	0xbf25b340	-0.6472664
34	0xbf97a1e4	-1.184628
35	0x3e3f719e	0.18695685
36	0x3fb3971f	1.4030493
37	0xbf4b56bf	-0.7942924
38	0x3f87b4fb	1.0602106
39	0xbf7f6c5d	-0.99774724
40	0xbf3002c1	-0.687542
41	0xbf1707e1	-0.589964
42	0xbf181af0	-0.59416103
43	0x3f918284	1.1367955
44	0x3f105948	0.5638623
45	0xbd1bf81f	-0.038078424
46	0xbcb7730c	-0.022393726
47	0x3eb82a73	0.35969886
48	0x3f611420	0.87921333
49	0xbf6491b5	-0.8928483
50	0xbe79c0f5	-0.24390014
51	0x3f9f6457	1.2452496
52	0xbf594fd9	-0.8488746
53	0x3f782699	0.96933895
54	0xbedc9d20	-0.43088627
55	0x3ddf2628	0.108959496
56	0xbe26c03a	-0.16284266
57	0xbf2aa020	-0.6665058
58	0x3f13df5c	0.57762694
59	0x3f84470e	1.0334184
60	0xbe1e68b1	-0.15469624
61	0xbf7e8996	-0.9942869
62	0xbe95be43	-0.2924672
63	0x3f53edbc	0.8278463

net.hidden_layers.1.weight f4 [64, 64]
0	0x3ef1e820	0.4724741
1	0x3e417316	0.18891558
2	0x3f0a7cba	0.5409657
3	0xbe67cd54	-0.2263692
4	0x3f0ab582	0.5418321
5	0xbeee9286	-0.46596164
6	0x3ebce182	0.368908
7	0x3d8fc4b8	0.07019943
8	0x3d9b146d	0.07572255
9	0xbe12c9a5	-0.14334734
10	0xbed7b5f3	-0.42131004
11	0x3f007d90	0.50191593
12	0x3f2c7382	0.6736375
13	0x3e1cfd2f	0.15330957
14	0x3d82fc6e	0.063958034
15	0x3e8bd9c6	0.27314585
16	0xbe8764ec	-0.26444185
17	0xbeb7cad9	-0.35896948
18	0x3ec4f9d7	0.38471863
19	0xbe2fada8	-0.17156088
20	0xbe5b8cae	-0.21440384
21	0xbeb9d2c8	-0.36293626
22	0xbe2abd36	-0.1667374
23	0xbdf39b1f	-0.118948214
24	0x3e05c26c	0.13062447
25	0xbe787556	-0.2426351
26	0xbec84348	-0.39113832
27	0x3dfcb4a3	0.12339141
28	0xbee4f855	-0.44720712
29	0xbd62897f	-0.055306908
30	0xbf3e2008	-0.74267626
31	0xbd8a3cfe	-0.067499146
32	0xbdafeafe	-0.08589743
33	0x3ee81d90	0.45335054
34	0x3f2b1cab	0.6684062
35	0xbe2c8604	-0.16847998
36	0xbdfdf853	-0.1240088
37	0x3df712a7	0.120641045
38	0xbf050116	-0.5195478
39	0xbe18b995	-0.14914544
40	0x3da2de26	0.07952528
41	0xbdda77f1	-0.10667408
42	0xbec1521b	-0.37757954
43	0xbe1e4564	-0.15456158
44	0xbeb7eca6	-0.35922736
45	0x3e2fbfc0	0.1716299
46	0xbe969603	-0.29411325
47	0xbe8fd2df	-0.2809057
48	0xbe4aecd4	-0.19816905
49	0xbe6e6306	-0.23279962
50	0x3ed63bbc	0.4184245
51	0xbd872061	-0.06597973
52	0x3f05f220	0.5232258
53	0xbec3b52c	-0.3822416
54	0xbe3dd4e5	-0.18538244
55	0x3f32b17b	0.69802064
56	0x3d0360c6	0.032074712
57	0x3eba2d3a	0.3636263
58	0xbe737499	-0.23774947
59	0xbe4ff5b7	-0.20308577
60	0x3e2b44d4	0.16725475
61	0x3e42085d	0.18948503
62	0xbea00e4d	-0.3126091
63	0x3e23cc0a	0.15995803
64	0xbf12ee38	-0.5739474
65	0x3f352431	0.7075835
66	0x3ecef291	0.40419438
67	0xbdf12005	-0.11773685
68	0xbf3d76b0	-0.7400923
69	0x3e39de0c	0.1815111
70	0x3ea45b93	0.32101116
71	0x3e137f14	0.14403945
72	0x3ef17bde	0.47164816
73	0xbe101cdf	-0.14073513
74	0xbeb79217	-0.35853645
75	0x3cd008d2	0.02539483
76	0xbd7b24dd	-0.061314452
77	0xbfe2f2e0	-1.773037
78	0x3e3f0b6c	0.18656701
79	0x3f3a7896	0.7284025
80	0xbf345646	-0.7044414
81	0x3dd884b0	0.10572183
82	0xbddde68a	-0.108349875
83	0xbf16c13c	-0.588886
84	0x3d8fb0d5	0.0701615
85	0x3edfa38d	0.43679467
86	0x3e2197ab	0.15780513
87	0x3f2c4bfe	0.67303455
88	0x3e7558bb	0.23959629
89	0xbe1b277a	-0.15151778
90	0xbf8170d0	-1.0112553
91	0xbba12e12	-0.004918822
92	0xbce513a0	-0.02796346
93	0x3e8ab419	0.2709053
94	0xbe047f5a	-0.12939206
95	0x3ddc573a	0.10758825
96	0xbdbd7439	-0.09250683
97	0x3d9e1e59	0.07720632
98	0x3de7e700	0.11323357
99	0xbdccd03d	-0.10000656
100	0x3f436c7a	0.763374
101	0xbdcb60e4	-0.0993059
102	0xbde24d21	-0.110498674
103	0xbf9fc055	-1.248057
104	0x3f6fc6c9	0.936627
105	0x3c0d9f35	0.008643915
106	0xbf4cb32f	-0.7996091
107	0xbe924e53	-0.28575382
108	0x3f4ece1f	0.80783266
109	0x3e9cec30	0.30648947
110	0xbe310989	-0.17288794
111	0xbf63732d	-0.8884762
112	0x3f52f6c2	0.8240777
113	0xbf984663	-1.189648
114	0x3ee42116	0.44556493
115	0xbee26a05	-0.4422151
116	0xbf1cfbc6	-0.61321676
117	0xbe86114f	-0.2618508
118	0xbf7f3ceb	-0.9970233
119	0x3df02b4b	0.117270075
120	0x3f53ec4e	0.8278245
121	0xbc4b51c5	-0.012409632
122	0x3e82612d	0.25464764
123	0xbe1e5405	-0.15461738
124	0x3da67944	0.08128598
125	0x3c87b169	0.016564088
126	0xbeb0fdde	-0.34568685
127	0x3fb57ab9	1.4178077
128	0xbd29ddb3	-0.041471194
129	0x3ea5b1fa	0.32362348
130	0xbed585fc	-0.41703784
131	0xbf098983	-0.5372545
132	0xbe25e63e	-0.16201112
133	0xbe8a40c7	-0.27002546
134	0xbea81839	-0.3283098
135	0x3eca8a7a	0.39558774
136	0xbe7e1240	-0.2481165
137	0xbc8707e0	-0.016483247
138	0x3f638165	0.88869315
139	0x3c019cfd	0.007910964
140	0x3e481af6	0.19541535
141	0x3ecc6b64	0.39925683
142	0xbee7c9a6	-0.45271033
143	0xbd5070e1	-0.0508889
144	0xbd79ca9b	-0.060984235
145	0x3f73e259	0.95267254
146	0xbf4973bf	-0.7869224
147	0xbeef9afd	-0.46797934
148	0x3e9fe5fb	0.3123015
149	0xbe7c2677	-0.24624048
150	0x3f1c72e8	0.61112833
151	0xbf3f19d1	-0.7464877
152	0xbe913d8b	-0.28367266
153	0xbeb46095	-0.35229936
154	0x3f0c0d28	0.54707575
155	0xbec0542e	-0.37564224
156	0xbe798ecd	-0.2437088
157	0x3e537d11	0.20653178
158	0xbf151a67	-0.5824341
159	0xbf3c138d	-0.7346733
160	0x3f31cb25	0.694506
161	0x3eece950	0.46271753
162	0x3ed231b5	0.41053548
163	0xbec260a3	-0.37964353
164	0x3c8a61d2	0.016892347
165	0xbec957bb	-0.39324746
166	0x3e893ae2	0.26802737
167	0x3f59d8f4	0.8509667
168	0xbf14f887	-0.5819172
169	0x3cc20442	0.02368367
170	0x3f20d8c3	0.6283075
171	0xbdca4060	-0.0987556
172	0x3ebe3f93	0.37157878
173	0x3ea00a16	0.31257695
174	0x3e853e70	0.260242
175	0xbe58161d	-0.21102186
176	0x3eca59df	0.3952169
177	0x3e22fbc8	0.1591636
178	0x3ef1a8bc	0.47199047
179	0xbf83cb92	-1.02965
180	0xbf02ece5	-0.5114272
181	0xbe97741b	-0.2958077
182	0xbe4dedde	-0.2011027
183	0xbea5dc21	-0.32394508
184	0xbed128b6	-0.40851372
185	0x3db6206c	0.08892903
186	0xbf2ad4fa	-0.66731226
187	0xbec07843	-0.37591752
188	0x3f1730d5	0.59058887
189	0x3e5c3d0a	0.2150766
190	0xbc8b6ba3	-0.017019099
191	0x3e52f250	0.20600247
192	0x3e47881b	0.19485514
193	0x3f14d300	0.5813446
194	0x3f8c2d17	1.095126
195	0x3e8430e6	0.25818557
196	0x3ebd546f	0.3697848
197	0xbebca60d	-0.36845437
198	0x3e38bab2	0.18039969
199	0xbeaa44b0	-0.3325553
200	0x3e386632	0.18007734
201	0xbe0298d1	-0.12753607
202	0xbe2d3301	-0.16913988
203	0x3cdcb6af	0.02694258
204	0xbe3f1115	-0.1865886
205	0xbd68a25e	-0.05679547
206	0x3f1cc12a	0.61232245
207	0xbe6fff96	-0.23437342
208	0x3f2032de	0.6257762
209	0xbf3de6d5	-0.74180347
210	0x3f51d865	0.81970817
211	0x3e1b6c7c	0.15178102
212	0xbb8f288e	-0.004368848
213	0xbf262ef4	-0.64915395
214	0xbf035197	-0.5129637
215	0xbd0a740b	-0.033802073
216	0xbe1e9851	-0.15487792
217	0xbe1d7575	-0.15376838
218	0x3ddf8568	0.10914117
219	0x3eb9f9f7	0.3632352
220	0xbeeb644d	-0.4597496
221	0x3d577001	0.05259705
222	0x3ed5e800	0.41778564
223	0x3ea4d72c	0.32195413
224	0xbfef4425	-1.8692671
225	0x3e8ef415	0.27920595
226	0x3f062d8c	0.5241325
227	0x3eeeb41b	0.46621785
228	0xbd48c32c	-0.049014255
229	0x3f3cb2b0	0.73710155
230	0xbf054095	-0.5205167
231	0x3e277b95	0.16355737
232	0xbd83f2a2	-0.06442763
233	0x3eae6bb7	0.34066555
234	0xbdac8c8e	-0.08425246
235	0x3c7f2602	0.015573027
236	0xbcddf733	-0.027095413
237	0x3ec40783	0.3828698
238	0xbe95343e	-0.2914142
239	0xbd93fbdb	-0.07225772
240	0xbf53a803	-0.8267824
241	0x3f23c571	0.63973147
242	0xbedd3c3e	-0.43210024
243	0x3de8f6fd	0.11375234
244	0x3ee24c7c	0.44198978
245	0xbdc68776	-0.09693806
246	0x3e8a510e	0.27014965
247	0x3d97ff4f	0.07421743
248	0xbda588b8	-0.08082718
249	0x3fe0cfeb	1.7563452
250	0x3e239185	0.1597348
251	0x3f49149e	0.78547084
252	0x3f1e2172	0.61769783
253	0xbd9ef181	-0.07760907
254	0x3d7e91fd	0.062150944
255	0xbed28a4e	-0.41121143

net.hidden_layers.1.bias f4 [64]
0	0xbd827433	-0.063698195
1	0xbe98ea0e	-0.2986607
2	0x3eb36bfc	0.35043323
3	0xbea50be7	-0.32235643
4	0x3e4a730f	0.19770454
5	0xbe196961	-0.14981605
6	0x3e114fe3	0.1419063
7	0xbd942947	-0.072344355
8	0xbec3f402	-0.382721
9	0x3c05cc69	0.008166411
10	0xbd2b0d41	-0.041760687
11	0xbf5022a7	-0.81302875
12	0xbd9d2a07	-0.07674032
13	0xbd8afb7f	-0.0678625
14	0xbdf754e3	-0.12076738
15	0xbe711357	-0.23542534
16	0xbe0eeb72	-0.13957003
17	0x3e38adff	0.18035124
18	0x3e56e053	0.2098401
19	0xbd8839d5	-0.066516556
20	0xbd868c3e	-0.06569718
21	0xbdabf8db	-0.08397075
22	0xbe35a408	-0.17738354
23	0xbf1a4966	-0.6026825
24	0x3e7a0550	0.24416089
25	0xbc95a5b4	-0.01826749
26	0xbdfd48f1	-0.12367428
27	0x3d934e4d	0.07192669
28	0x3dbf5851	0.09343017
29	0x3e671105	0.22565086
30	0x399be88e	0.0002973717
31	0x3ed8e902	0.4236527
32	0x3f5ee92f	0.8707456
33	0xbce928ce	-0.02846184
34	0xbeac0a29	-0.33601502
35	0xbd663a02	-0.056207664
36	0x3e91d218	0.284806
37	0xbe4850c5	-0.19562061
38	0x3ce4e76a	0.027942378
39	0x3e10d1d5	0.14142545
40	0x3c606f6e	0.013698442
41	0xbb3d8510	-0.0028918423
42	0x3f35ac3d	0.7096594
43	0x3eae9af7	0.34102604
44	0x3e74a2b9	0.23890199
45	0xbf2c27a5	-0.6724799
46	0xbdbeddd1	-0.09319652
47	0xbe130722	-0.1435819
48	0x3d96150f	0.07328235
49	0xbdda85e7	-0.10670071
50	0x3e91f818	0.28509593
51	0xbe51805a	-0.20459118
52	0x3e69e0a7	0.22839604
53	0xbd9a95cf	-0.07548105
54	0x3f57d4f3	0.8430931
55	0xbe8e00a7	-0.27734873
56	0xbb148149	-0.0022660068
57	0x3e522e21	0.2052541
58	0x3ea04ce0	0.3130865
59	0x3ee3db91	0.44503453
60	0x3dc201d4	0.09473005
61	0xbe027a57	-0.12741981
62	0xbd935770	-0.07194412
63	0x3f05ac8e	0.5221642

net.output_layer.weight f4 [1, 64]
0	0x3f6a6430	0.91559124
1	0x40096488	2.146761
2	0x3f5d73a7	0.86504596
3	0xbfa2a525	-1.2706648
4	0x3f33a546	0.7017406
5	0x3f833f0d	1.0253617
6	0x3f58836f	0.8457555
7	0xbf83f102	-1.0307925
8	0x3fb1480f	1.3850116
9	0xbf429031	-0.7600127
10	0xbfaf2cb5	-1.3685519
11	0x3fb55ba6	1.4168594
12	0x3f536f43	0.82591647
13	0x3f9b3736	1.2126224
14	0xbf5f79ea	-0.872954
15	0x3fa54bd0	1.2913761
16	0xbf14f254	-0.58182263
17	0x3f87481a	1.0568879
18	0x3fa331b6	1.2749546
19	0xbf6d6f77	-0.92748207
20	0xbfa558a8	-1.2917681
21	0xbf4aea1c	-0.7926347
22	0x3f75bd24	0.9599173
23	0x3f906231	1.1279966
24	0x3f84b47f	1.0367583
25	0xc003c3b1	-2.058819
26	0xbf8cdda2	-1.1005137
27	0xbf486463	-0.7827818
28	0xbf54c15e	-0.83107555
29	0x3f31a909	0.6939855
30	0x3f50317f	0.81325525
31	0x3ff28fc2	1.8950121
32	0xbfffeaa0	-1.9993477
33	0xbf7033bc	-0.9382894
34	0x3f74f0bd	0.9567984
35	0xbf53abff	-0.8268432
36	0xbf8d06aa	-1.1017659
37	0xbf8e1c3c	-1.1102366
38	0xbf6faddf	-0.9362468
39	0xbf7e0677	-0.99228615
40	0x3f552e89	0.8327413
41	0xbf7558fd	-0.9583891
42	0xbffc6f2f	-1.972143
43	0x3f2c9c3b	0.6742589
44	0x3f856dc6	1.0424125
45	0xc0211b7a	-2.517302
46	0xbfb397b2	-1.4030669
47	0xbf30832b	-0.68950146
48	0x3f0b315a	0.5437218
49	0xbfd8147c	-1.6881251
50	0x3f192a1d	0.59829885
51	0xbf7b9b00	-0.98283386
52	0xbf8d9731	-1.1061765
53	0x3f954427	1.1661423
54	0xbfbac87a	-1.459243
55	0x3f4318e6	0.76209867
56	0xbf37e53c	-0.7183416
57	0x3f21b06c	0.63159823
58	0x3fa6a89c	1.3020205
59	0xbf8de880	-1.1086578
60	0x3f4f6fde	0.8103007
61	0x3f402f67	0.7507233
62	0x3f267386	0.65020025
63	0x400f211d	2.236396
