Pyrado/data/perma/experiments/hop/ppo_fnn/2021-11-17_16-49-59/policy.pt (torch, 23013 bytes, 6 tensors)

net.hidden_layers.0.weight f4 [64, 11]
0	0x3e295be6	0.16538963
1	0x3efa450a	0.48880798
2	0xbe5ae2d6	-0.21375594
3	0x3e9fab69	0.31185463
4	0xbe8424da	-0.25809366
5	0xbe604669	-0.2190186
6	0x3cd43a31	0.025906654
7	0x3c1a8834	0.009431887
8	0xbe29128b	-0.1651098
9	0xbe7b43ff	-0.24537657
10	0xbee87c3b	-0.4540728
11	0x3e88a00b	0.26684603
12	0x3f459143	0.77174777
13	0x3ec83787	0.39104864
14	0xbe2ab083	-0.16668896
15	0x3e9b438f	0.3032498
16	0xbceedf1d	-0.029159123
17	0xbe801cd4	-0.25021994
18	0x3dee6767	0.11640816
19	0x3e736a73	0.23771076
20	0x3e90b8ca	0.28265983
21	0xbdb132c9	-0.086522646
22	0xbe4321c6	-0.19055852
23	0xbe9dea1d	-0.30842677
24	0xbd026d05	-0.03184225
25	0x3e9e96ed	0.30974522
26	0xbebfa9b2	-0.37434155
27	0x3d212cde	0.03934943
28	0x3e594a31	0.21219708
29	0x3db5d49a	0.08878441
30	0x3e5afc77	0.2138537
31	0x3e8693c9	0.26284626
32	0xbcc791ed	-0.024361575
33	0x3e5c3954	0.21506244
34	0xbf1d5e67	-0.6147217
35	0xbdcc1851	-0.099655755
36	0x3e483498	0.19551313
37	0xbc5c600e	-0.013450636
38	0xbe370e0b	-0.1787645
39	0x3e1d9f28	0.15392745
40	0x3d90fbe3	0.070792936
41	0xbe8d8227	-0.2763836
42	0x3ea63932	0.32465512
43	0x3e983867	0.29730532
44	0x3e04abd9	0.1295618
45	0x3f5c7e2e	0.86130035
46	0x3e32ee78	0.17473781
47	0xbe1f7bcc	-0.15574569
48	0xbd0b4143	-0.033997785
49	0x3d87a381	0.06622983
50	0x3d6e996a	0.058251776
51	0x3df7051f	0.12061524
52	0x3df6321b	0.120212756
53	0xbae55ec5	-0.0017499557
54	0xbd177919	-0.036980722
55	0x3e49788e	0.19674894
56	0xbd5a2a81	-0.05326319
57	0x3e45f96c	0.19333428
58	0x3e1dae78	0.15398586
59	0xbe92389e	-0.2855882
60	0xbd93e61a	-0.07221623
61	0xbde8103d	-0.11331222
62	0xbe8adbca	-0.2712081
63	0x3eb98276	0.36232346
64	0x3d44686e	0.047951154
65	0xbe1ef7fe	-0.15524289
66	0x3e1ebc7d	0.1550159
67	0x3f1a076f	0.6016759
68	0x3ed19cf6	0.40940064
69	0xbe8f4d8a	-0.27988845
70	0x3d86a4da	0.06574412
71	0x3e5d660c	0.21620959
72	0xbe0aa68e	-0.13540098
73	0x3e66c35c	0.22535461
74	0x3eac12f4	0.3360821
75	0x3e3c0c76	0.18364128
76	0x3e0e7073	0.13910083
77	0x3e46619e	0.19373176
78	0x3f886745	1.0656515
79	0x3e4d52b1	0.20051076
80	0x3d8f6ca7	0.07003146
81	0x3e23e43c	0.16005033
82	0x3e32426a	0.17408147
83	0x3db7abd1	0.08968318
84	0x3deb139d	0.1147835
85	0x3dc6c016	0.09704606
86	0x3e8c5ab1	0.27412942
87	0xbe52b01e	-0.20574996
88	0xbe6e8a1d	-0.23294874
89	0x3f550783	0.83214587
90	0xbef37829	-0.47552612
91	0x3e9f8cab	0.3116201
92	0xbce762e1	-0.028245391
93	0x3dac16fe	0.08402823
94	0xbd45e2dc	-0.048312053
95	0x3e8d6364	0.27614892
96	0xbdd249e9	-0.102680035
97	0x3dab93d3	0.083778046
98	0xbdf46e5d	-0.119351126
99	0x3c9b3d00	0.018949986
100	0xbf81265a	-1.0089829
101	0xb97304d9	-0.00023176092
102	0xbeb4c071	-0.3530307
103	0xbdc9e8b1	-0.098588355
104	0xbea47851	-0.32123044
105	0xbe383643	-0.17989449
106	0xbe8fd97d	-0.28095618
107	0xbe9960a6	-0.2995655
108	0xbe83ba5f	-0.25728127
109	0x3d1c5ff1	0.038177434
110	0xbe560f33	-0.20904236
111	0x3e94c387	0.29055426
112	0xbde96848	-0.11396843
113	0xbda7afc3	-0.08187821
114	0xbe050a07	-0.12992106
115	0xbe5262e1	-0.20545532
116	0x3f1e8920	0.61927986
117	0x3e848a3b	0.2588671
118	0x3de55496	0.11197774
119	0xbe17393c	-0.14767927
120	0x3d50d3eb	0.05098335
121	0x3deb99a1	0.11503912
122	0x3f368650	0.71298695
123	0xbe959c91	-0.29221013
124	0x3ec33906	0.38129443
125	0x3e569a54	0.20957309
126	0xbe4f7751	-0.2026036
127	0xbe3fae80	-0.1871891
128	0xbdfb7c1d	-0.12279532
129	0xbe871411	-0.26382497
130	0x3e9c93d2	0.30581528
131	0x3dfc2511	0.12311757
132	0xbea4f2b7	-0.32216427
133	0xbe0c14ec	-0.13679856
134	0xbe2e0ec8	-0.16997826
135	0x3eacb3e5	0.33731
136	0xbe56144c	-0.2090618
137	0x3d955735	0.07292024
138	0xbebd2285	-0.369404
139	0x3c6da5ab	0.01450483
140	0x3ce93045	0.0284654
141	0x3c848083	0.01617456
142	0xbe4a13e8	-0.19734156
143	0xbe028905	-0.12747581
144	0x3e823e20	0.25438023
145	0xbe026f6c	-0.12737817
146	0xbd74d678	-0.059774846
147	0x3e8c752c	0.27433145
148	0x3ed18b55	0.40926614
149	0x3e835b46	0.25655574
150	0x3d8e49d2	0.06947674
151	0xbe2bee2f	-0.16790079
152	0xbd38c249	-0.04510716
153	0x3dca1720	0.09867692
154	0xbde837a6	-0.11338739
155	0xbf2b8e1b	-0.6701371
156	0xbdeb7da5	-0.11498574
157	0xbe861bee	-0.26193184
158	0x3e099368	0.13435137
159	0xbe47d706	-0.19515619
160	0xbe9c3d85	-0.30515686
161	0xbe892008	-0.2678225
162	0x3d8c1154	0.068392426
163	0xbd5f6cdd	-0.05454718
164	0xbcd4bd8e	-0.025969293
165	0x3e3049c7	0.17215644
166	0xbf184c9c	-0.59491897
167	0xbea6d164	-0.32581627
168	0x3ee0b2fd	0.43886557
169	0xbea019cc	-0.3126968
170	0x3e5986c9	0.21242823
171	0x3e917cd8	0.2841556
172	0x3e7dd1fc	0.24787134
173	0xbe40fa12	-0.18845394
174	0x3de1d5d7	0.11027115
175	0xbc4557c8	-0.012044854
176	0x3e666d1b	0.22502558
177	0x3f1e9247	0.6194195
178	0x3ee3625b	0.44410977
179	0x3e1b2a75	0.15152915
180	0x3eaf53f1	0.3424373
181	0xbeccf770	-0.4003253
182	0x3e1b6c6c	0.15178078
183	0x3df6f873	0.12059107
184	0xbe10f899	-0.14157332
185	0x3d97989e	0.07402156
186	0xbda5eae4	-0.081014425
187	0xbc8e5d4a	-0.017378468
188	0x3f6eba43	0.9325296
189	0x3ee86f8b	0.453976
190	0x3d080fb0	0.033218086
191	0x3e84de87	0.25951025
192	0x3e60a095	0.21936257
193	0xbe828c85	-0.25497833
194	0x3e2ec390	0.17066789
195	0x3e8bcb4c	0.2730354
196	0xbc380b0f	-0.011233105
197	0x3d3e56d3	0.04646952
198	0xbe88e85f	-0.26739785
199	0x3f24ba7f	0.6434707
200	0xbd40aaeb	-0.047038
201	0x3eb9f704	0.3632127
202	0xbd980310	-0.07422459
203	0x3e91cd11	0.28476766
204	0x3ebf1c00	0.3732605
205	0x3c9d11fa	0.019173611
206	0xbe6fc091	-0.23413302
207	0x3db38689	0.08765895
208	0x3d029d76	0.031888448
209	0x3c16d5ef	0.009206279
210	0xbee4ee4e	-0.44713062
211	0xbe5f0a0a	-0.21781173
212	0x3ec61ed6	0.386954
213	0x3e121513	0.14265852
214	0x3db93772	0.090437785
215	0xbe9b0cab	-0.30283102
216	0x3e704838	0.2346505
217	0x3df81438	0.121132314
218	0xbde57838	-0.112045705
219	0xbe2841cc	-0.1643135
220	0x3e8b547c	0.27212894
221	0xbda4e867	-0.0805214
222	0xbe021358	-0.12702692
223	0xbe37576a	-0.1790444
224	0xbdfe629c	-0.12421152
225	0xbded8047	-0.115967326
226	0xbd1e6f16	-0.03868016
227	0x3d35df41	0.044402365
228	0xbe061cfa	-0.13096991
229	0x3e72e3e1	0.23719741
230	0x3d1d7da9	0.038449917
231	0x3da58469	0.08081896
232	0x3f0c24c4	0.547436
233	0xbc4d6dcf	-0.012538387
234	0xbe80cf96	-0.25158376
235	0x3e3a6eea	0.18206373
236	0x3ea32789	0.318661
237	0x3de06b9c	0.10958025
238	0x3df9edef	0.12203585
239	0x3e4b6e23	0.19866233
240	0xbe16f526	-0.14741954
241	0x3e77bb97	0.24192654
242	0x3e6b036d	0.22950526
243	0x3f5ef383	0.8709032
244	0x3e1bfe23	0.15233664
245	0xbce7ee96	-0.028312009
246	0x3e71858b	0.23586099
247	0xbd6424b8	-0.05569908
248	0x3c553fe7	0.013015724
249	0xbea04a8b	-0.31306872
250	0xbdf9adcb	-0.121913515
251	0x3d7d3ead	0.06182735
252	0xbec5daa7	-0.3864338
253	0x3da03712	0.07823004
254	0xbef0fe64	-0.47069085
255	0x3da031c8	0.07821995

net.hidden_layers.0.bias f4 [64]
0	0x3d953f80	0.07287502
1	0xbe8eb44d	-0.27871934
2	0x3e60036b	0.21876304
3	0xbe8af2f3	-0.2713848
4	0xbde5ff40	-0.11230326
5	0x3e561003	0.20904545
6	0x3de3715a	0.111056045
7	0xbe8963fb	-0.26834092
8	0xbe9bd03c	-0.30432308
9	0x3e68a608	0.22719586
10	0x3e47bfb8	0.19506729
11	0x3d03d66c	0.03218691
12	0x3cf9e085	0.030502567
13	0x3dbed0aa	0.09317143
14	0x3e715e7a	0.23571196
15	0xbe8e581d	-0.278016
16	0x3d36e3cc	0.044650838
17	0xbe44b512	-0.19209698
18	0x3e935d39	0.2878206
19	0xbe3ea232	-0.1861656
20	0xbdf0ee51	-0.11764205
21	0x3e86c06b	0.26318678
22	0xbde312e6	-0.11087589
23	0xbe8e88ee	-0.27838844
24	0x3e561f83	0.20910458
25	0xbd51cbaa	-0.05121962
26	0x3d62688e	0.055275492
27	0x3eae4384	0.34035885
28	0xbdb4b76b	-0.08824047
29	0x3e9a65e4	0.3015586
30	0xbcf9ef5a	-0.03050964
31	0x3c3bf82e	0.011472745
32	0x3e36aa62	0.17838433
33	0xbe73ec62	-0.23820642
34	0x3e259525	0.16170175
35	0x3e94b09c	0.29040992
36	0xbe21aa5b	-0.15787642
37	0x3ea82db7	0.32847378
38	0xbdbf8356	-0.09351222
39	0x3c837345	0.016046176
40	0xbe74b03f	-0.23895358
41	0x3e60059e	0.21877143
42	0x3b5e8853	0.0033955767
43	0xbdd7f155	-0.10544077
44	0xbddd1373	-0.10794725
45	0x3e5f71f0	0.21820807
46	0x3e1cf79a	0.15328828
47	0x3e9d7ede	0.30760854
48	0x3d3a4380	0.04547453
49	0x3e36b6f8	0.17843235
50	0xbdc228c5	-0.094804324
51	0xbdc9f971	-0.0986203
52	0xbe5d56c7	-0.21615134
53	0xbe282279	-0.164194
54	0x3db87c81	0.09008122
55	0xbc9ed574	-0.019388892
56	0x3e58f036	0.21185383
57	0xbe5effbf	-0.21777247
58	0x3d311523	0.04323305
59	0xbd8c17da	-0.06840487
60	0xbe9691da	-0.2940815
61	0x3dcb78c6	0.09935145
62	0x3e9ad808	0.30242944
63	0x3dc2e607	0.095165305

net.hidden_layers.1.weight f4 [64, 64]
0	0x3cd6adb1	0.02620587
1	0x3bb3fcf1	0.0054927994
2	0xbb75593d	-0.0037437223
3	0x3d8396ce	0.06425248
4	0x3dd92fc4	0.10604814
5	0x3e217d63	0.15770487
6	0xbc160316	-0.009156009
7	0xbcabc8f2	-0.020969842
8	0xbd933084	-0.07186988
9	0xbdca50c8	-0.09878689
10	0xbcfa1db1	-0.030531736
11	0x3d981537	0.074259214
12	0xbe1f57f8	-0.15560901
13	0xbd1a5488	-0.03767827
14	0xbc89e16c	-0.016831122
15	0xbe0a5962	-0.1351066
16	0x3e090fa6	0.13384876
17	0x3ddf9538	0.10917133
18	0xbdd21d64	-0.10259512
19	0xbe082cd8	-0.13298357
20	0xbca95488	-0.02067019
21	0x3ceb0d79	0.028692948
22	0xbd6a02cb	-0.05713157
23	0x3be7bcb0	0.007072054
24	0xbdcb9118	-0.09939784
25	0xbe1b93fc	-0.1519317
26	0x3da84b20	0.08217454
27	0xbd0ebe06	-0.03484919
28	0x3d9e319b	0.07724305
29	0xbc8ca873	-0.017170167
30	0xbda08850	-0.078384995
31	0x3cb389de	0.021916326
32	0xbd58232a	-0.05276791
33	0xbdc80166	-0.09765892
34	0xbdc76c4f	-0.09737455
35	0xbdd909cc	-0.10597572
36	0xbe1922b3	-0.14954643
37	0xbdb82c29	-0.08992798
38	0xbcaaa84a	-0.0208322
39	0x3e1fea98	0.15616834
40	0xbe1766cc	-0.14785308
41	0xbcc5e4b8	-0.024156913
42	0xbda19559	-0.07889814
43	0xbe2900c1	-0.16504194
44	0xbceb10d2	-0.028694544
45	0x3d59efa0	0.05320704
46	0x3dc771ff	0.0973854
47	0xbd132ab1	-0.035929386
48	0xbd9b9b8c	-0.075980276
49	0xbe2a484e	-0.16629145
50	0x3de1da7a	0.11027999
51	0xbd4d1ce9	-0.0500764
52	0x3d307114	0.04307659
53	0x3c71995c	0.014746036
54	0x3d4f303d	0.050583113
55	0xbcef58bc	-0.029217117
56	0x3d30a474	0.043125585
57	0xbe23a6d0	-0.15981603
58	0xbd95ddbe	-0.073176846
59	0xbcdad2d2	-0.026711855
60	0xbe4e5aab	-0.20151775
61	0x3db4841a	0.08814259
62	0xbd9e0536	-0.07715838
63	0x3b7a249c	0.0038168794
64	0x3cb22fdb	0.021751335
65	0x3d04db15	0.032435495
66	0x3d28be12	0.04119689
67	0x3dab5aa5	0.083668984
68	0x3c57445b	0.013138856
69	0xbdb7cc3f	-0.08974504
70	0x3cc0a591	0.023516448
71	0xbe3f89a2	-0.18704847
72	0x3dacd7db	0.08439609
73	0x3e16b5b5	0.14717753
74	0xbe004dd6	-0.12529692
75	0x3dc697a6	0.096968934
76	0x3df201e6	0.11816768
77	0xbd4006d6	-0.04688152
78	0xbdbfbd73	-0.093623064
79	0x3dcbf9d5	0.09959761
80	0x3d7eea4d	0.062235165
81	0x3d1f2199	0.0388504
82	0x3e0b2f81	0.1359234
83	0xbce29557	-0.027659101
84	0x3e10608a	0.14099327
85	0xbddb177f	-0.10697841
86	0x3d750c34	0.05982609
87	0xbcbb717a	-0.022881258
88	0xbc197782	-0.009366872
89	0xbd9421ed	-0.07233033
90	0xbe2d8d52	-0.1694844
91	0x3d0e4bbf	0.034740206
92	0xbcd2125f	-0.025643526
93	0xbb02bd25	-0.0019949165
94	0x3d96bab8	0.073598325
95	0x3e014fa5	0.12628038
96	0x3e1ee5dd	0.15517373
97	0x3d71badb	0.05901609
98	0xbd1fe1d7	-0.039033737
99	0xbcffdeb0	-0.031234115
100	0xbdeb45e4	-0.1148794
101	0xbe05c461	-0.13063194
102	0xbdbd48a5	-0.092423715
103	0xbe043848	-0.12912095
104	0x3c7a5e66	0.015281295
105	0x3e14e53d	0.14540572
106	0x3e084f7e	0.13311574
107	0xbd5c70b0	-0.053818405
108	0xbd228b28	-0.03968349
109	0x3cc6d6c8	0.024272338
110	0xbce18324	-0.027528353
111	0x3daa43fe	0.0831375
112	0x3dcacc39	0.09902234
113	0x3d401c64	0.046902075
114	0xbde13949	-0.109972544
115	0x3d98c592	0.074595585
116	0x3dc7a01d	0.09747336
117	0xbca3e8c1	-0.020008447
118	0xbdaecf92	-0.08535685
119	0xbde0a98e	-0.1096984
120	0x3d132298	0.035921663
121	0x3d59819d	0.053102124
122	0xbd00e976	-0.031472646
123	0xbdff51c3	-0.12466767
124	0x3e3bd942	0.18344596
125	0xbd887d99	-0.06664581
126	0x3d7effbb	0.062255602
127	0x3d190923	0.03736223
128	0xbd5b8315	-0.053591806
129	0x3e4d0cbd	0.2002439
130	0xbd8e3710	-0.06944096
131	0xbd1934f4	-0.037404016
132	0x3de13865	0.109970845
133	0xbd86d0d8	-0.065828025
134	0x3c8f79e4	0.017514177
135	0x3c108052	0.008819656
136	0x3db18691	0.08668245
137	0x3c8fc0c3	0.01754797
138	0xbda70086	-0.08154397
139	0x3dcd2c5d	0.10018227
140	0xbdadb37d	-0.084815
141	0xbe006e9c	-0.12542194
142	0x3d65e22e	0.056123905
143	0x3aca1f18	0.0015420644
144	0x3e7365ed	0.2376935
145	0x3c2677c8	0.010160394
146	0xbd4adfb6	-0.049529754
147	0xbe236680	-0.1595707
148	0xbd9a3c53	-0.07531037
149	0x3d52dc2d	0.051479507
150	0x3d989aee	0.074514255
151	0xbdd12928	-0.10212928
152	0xbcac5acf	-0.021039395
153	0xbc716cec	-0.014735442
154	0xbb793f2d	-0.003803204
155	0x3a51a115	0.00079967204
156	0x3b394e66	0.002827549
157	0x3c858307	0.01629783
158	0x3e4538d2	0.19259956
159	0xbe19933b	-0.1499757
160	0xbdf6df51	-0.12054313
161	0x3d9a00bb	0.075196706
162	0x3d951008	0.07278448
163	0xbcee3579	-0.029078232
164	0xbc292f50	-0.010326222
165	0x3db5cdd4	0.08877149
166	0x3d72d293	0.05928285
167	0x3d256603	0.04038049
168	0xbd95ee68	-0.07320863
169	0xbd8c88c8	-0.068620265
170	0xbd0a5a75	-0.033777673
171	0x3c224f3f	0.009906589
172	0x3d2d5609	0.042318378
173	0x3daf85ad	0.085704185
174	0xbde7231f	-0.11285996
175	0x3e02a348	0.127576
176	0xbe1725da	-0.14760533
177	0xbd908bb6	-0.07057898
178	0x3db0e716	0.08637826
179	0xbddd9946	-0.1082025
180	0x3dc7067d	0.097180344
181	0xbdaa4e35	-0.08315698
182	0xbdab6e69	-0.083706684
183	0x3d8927d7	0.06697052
184	0x3d99c231	0.07507742
185	0x39303842	0.00016805626
186	0x3d012370	0.031527936
187	0x3dc9a6cb	0.09846266
188	0x3d6f6fcb	0.058456223
189	0x3bb2a3cc	0.005451655
190	0x3cab8fc5	0.020942578
191	0x3db3b85b	0.087753974
192	0xbdb6ac52	-0.08919586
193	0xbd94d2f2	-0.07266797
194	0xbda60fb1	-0.08108462
195	0x3d9bf401	0.076148994
196	0xbd6b9928	-0.057519108
197	0xbbbe8426	-0.005814093
198	0x3c85c071	0.016327115
199	0xbe04db2d	-0.12974234
200	0xbdb62b8b	-0.08895024
201	0x3d5d16c4	0.05397679
202	0xbd8c2d9f	-0.06844639
203	0xbddc3231	-0.10751761
204	0x3da6a61e	0.08137153
205	0x3d089e30	0.033353984
206	0x3b91a9d2	0.004445293
207	0x3c2b5283	0.010456684
208	0xbd1668b6	-0.036720954
209	0xbe243719	-0.16036643
210	0xbdf17352	-0.11789574
211	0x3df087ad	0.11744628
212	0xbbae6345	-0.0053218924
213	0xba86538f	-0.0010248291
214	0x3d3bbd75	0.045834977
215	0x3cd3338b	0.025781414
216	0xbe0e2be8	-0.13883936
217	0xbdf1a606	-0.117992446
218	0x3da46df3	0.08028784
219	0x3d565931	0.052331153
220	0x3cec912f	0.028877823
221	0x3de8c389	0.1136542
222	0xbde70b81	-0.11281491
223	0x3d8b072d	0.06788478
224	0x3c2c49fd	0.010515687
225	0xbd587e81	-0.05285502
226	0xbd2ac194	-0.041688517
227	0x3d9bb961	0.076037176
228	0xbc2ea874	-0.01066028
229	0xbcbc2296	-0.02296571
230	0xbdef3ac6	-0.11681132
231	0x3e269430	0.16267467
232	0x3daa5ce1	0.083184965
233	0x3db44f22	0.08804156
234	0xbd3e4aad	-0.046457935
235	0xbdbdad69	-0.09261591
236	0x3c9f7d85	0.019469032
237	0xbde6f71a	-0.112776
238	0x3db37562	0.08762623
239	0xbddfebb1	-0.109336264
240	0x3dbff770	0.09373367
241	0x3ce11ead	0.027480448
242	0x3e1a955c	0.15096039
243	0xbda5b97d	-0.0809202
244	0xbdc4ca7c	-0.09608933
245	0xbd958802	-0.07301332
246	0x3cd9195c	0.02650135
247	0xbdff2923	-0.12459018
248	0x3c5c4161	0.013443322
249	0xbbf549d3	-0.007485607
250	0x3c6e4396	0.014542481
251	0x3cba961e	0.02277666
252	0xbda8c682	-0.08240987
253	0xbd922f74	-0.07137957
254	0xbda67d79	-0.08129401
255	0x3be6ed7e	0.0070473542

net.hidden_layers.1.bias f4 [64]
0	0xbd9d2265	-0.07672576
1	0xbdf1f49b	-0.11814233
2	0xbdfbdf8a	-0.12298496
3	0x3da933c1	0.082618244
4	0xbc7d3392	-0.01545419
5	0xbe05af1d	-0.13055082
6	0xbe02dbe7	-0.12779199
7	0x3df05c26	0.11736326
8	0xbda41339	-0.08011479
9	0x3e1eccf7	0.15507875
10	0xbcb92e45	-0.02260507
11	0x3e304cbf	0.17216776
12	0xbe3b2128	-0.18274367
13	0xbda1a852	-0.07893433
14	0xbd4eee5f	-0.050520297
15	0xbc7d36c2	-0.01545495
16	0xbcc79235	-0.02436171
17	0x3e0d8e74	0.13823873
18	0xbb941cf4	-0.004520053
19	0x3d7bcd50	0.061475098
20	0xbdb7106f	-0.08938681
21	0x3d40221e	0.046907537
22	0xbd44eb5f	-0.04807603
23	0x3db10877	0.08644193
24	0xbd4fd2ec	-0.05073826
25	0x3e0e7dd4	0.13915187
26	0xbd8ec18a	-0.069705084
27	0xbd6d85fb	-0.0579891
28	0x3d397ba6	0.045283936
29	0xbe11247d	-0.14174075
30	0xbdfb317c	-0.12265298
31	0xbd60615e	-0.054780357
32	0x3d2ac691	0.041693274
33	0x3d06814e	0.03283816
34	0xbdf13a5a	-0.11778708
35	0xbde3cf86	-0.11123566
36	0xbdb3c8d9	-0.08778543
37	0x3d1169a6	0.035501145
38	0x3c1f0c21	0.009707482
39	0xbd44f260	-0.04808271
40	0x3c5bcc7d	0.013415453
41	0x3d95a469	0.073067494
42	0xbd1d4d4d	-0.038403798
43	0xbd06ab08	-0.03287795
44	0x3d5a3038	0.05326864
45	0x3e35d560	0.17757177
46	0x3d26015a	0.040528633
47	0x3d1afdf6	0.037839852
48	0x3ce5f7e4	0.028072305
49	0x3c698da3	0.01425496
50	0xbc7daf5a	-0.015483702
51	0x3ca56aab	0.020192465
52	0xbb3e1761	-0.0029005634
53	0x3d051f06	0.03250029
54	0xbb8c85f3	-0.004288429
55	0xbda8885a	-0.08229132
56	0x3dd45e07	0.10369497
57	0xbd9c7774	-0.076399714
58	0x3c5dca02	0.013536932
59	0xbdb4f783	-0.088362716
60	0xbc94a408	-0.018144622
61	0x3d274fbf	0.040847536
62	0x3de0636a	0.10956462
63	0x3dc674f3	0.09690275

net.output_layer.weight f4 [3, 64]
0	0x3d66455f	0.0562185
1	0x3cea7efa	0.028625
2	0xbd9e3f79	-0.0772695
3	0x3b871565	0.0041224235
4	0xbc5fc079	-0.013656729
5	0x3d1480c9	0.03625563
6	0xbd90dadd	-0.07072995
7	0x3db25b59	0.087088294
8	0x3d04e12d	0.032441307
9	0xbd5a7678	-0.053335637
10	0xbd9ff802	-0.078109756
11	0x3d048c87	0.03236058
12	0xbd1413c9	-0.03615168
13	0x3dd707f1	0.104995616
14	0x3c2f81f8	0.010712139
15	0x3d7a8bfd	0.06116866
16	0xba9ed20e	-0.0012117045
17	0x3e286d80	0.16448021
18	0x3ab4d979	0.0013797722
19	0xbcbb4273	-0.022858834
20	0xbbcf3f1e	-0.006324663
21	0x3d3f01af	0.046632465
22	0x3d0ad981	0.033898834
23	0x3de225ca	0.11042364
24	0x3a31e597	0.0006786226
25	0x3cf28199	0.029602813
26	0x3df12ab9	0.11775727
27	0x3cb779a4	0.02239687
28	0x3cbac9c2	0.022801284
29	0xbb91b414	-0.004446516
30	0xbd23a647	-0.039953496
31	0xbd9a148e	-0.07523452
32	0xbc81949b	-0.01581793
33	0xbd03d03b	-0.032181006
34	0x3d25d4fe	0.04048633
35	0x3daf99db	0.085742675
36	0xbd7ac5c6	-0.061223768
37	0xbb741adb	-0.0037247452
38	0x3de5a663	0.112133764
39	0xbe116867	-0.14199983
40	0x3c7c05bb	0.015382226
41	0x3d958ac3	0.07301857
42	0x3d2721e7	0.040803816
43	0x3def18cc	0.116746515
44	0xba04b170	-0.00050618406
45	0xbcbd07b8	-0.02307497
46	0xbb248fd4	-0.0025110142
47	0xbd62ce1e	-0.05537235
48	0xbb97184a	-0.00461105
49	0xbdce9fe1	-0.10089088
50	0xbceb9010	-0.028755218
51	0x3ab40e77	0.0013737221
52	0xbd7e8a2c	-0.06214349
53	0xbd868dea	-0.06570037
54	0xbcf1c66c	-0.02951356
55	0xbb536ab9	-0.0032259657
56	0xbc0e58ba	-0.008688146
57	0xbc8fe8e0	-0.017567098
58	0x3c5757dc	0.013143506
59	0x3d9d9440	0.07694292
60	0xbda6d3f8	-0.081458986
61	0x3d3eba32	0.04656429
62	0xbce52a6d	-0.027974332
63	0xbd4ff1f8	-0.05076787
64	0xbd1be367	-0.038058665
65	0xbd712acc	-0.058878705
66	0xbc9737ad	-0.018459165
67	0x3a22f07b	0.0006215644
68	0x3d9618bb	0.07328936
69	0xbcde69f2	-0.027150128
70	0x3d01ce85	0.031691093
71	0xbd80a03a	-0.06280561
72	0x3d711c35	0.05886479
73	0x3e0f3bf5	0.13987716
74	0x3da038ba	0.0782332
75	0xbd32aa4c	-0.04361944
76	0xbe13a172	-0.14417055
77	0xbd23a018	-0.0399476
78	0xbd75a6a8	-0.05997339
79	0x3cbda4d6	0.023149889
80	0xbc1de62d	-0.009637398
81	0xbc09340c	-0.008374225
82	0xbb4c7829	-0.003119955
83	0x3c7b4649	0.0153365815
84	0xbbf2960b	-0.0074031404
85	0x3e0d3389	0.1378919
86	0xbd676170	-0.056489408
87	0xbdd87574	-0.105692774
88	0x3b02df2b	0.0019969444
89	0xbdcea2bf	-0.10089635
90	0x3d3f6959	0.046731327
91	0xbdf31b2a	-0.118704155
92	0x3d0c3c37	0.034237113
93	0xbc0aa618	-0.008462451
94	0xbdb01899	-0.08598442
95	0x3d826806	0.06367497
96	0xbc3b9135	-0.011448194
97	0x3dc19e02	0.09453966
98	0x3d8b4912	0.068010464
99	0xbe0ce9a5	-0.13761003
100	0x3d6fe33a	0.05856631
101	0xbb8bc8d5	-0.0042658844
102	0xbcd0c238	-0.025483236
103	0xbe12b7e8	-0.14327967
104	0x3cf6f970	0.030148238
105	0x3c7faf8b	0.015605818
106	0xba47ac7c	-0.000761695
107	0x3d4e3b30	0.050349414
108	0xbb5bd7d6	-0.0033545396
109	0xbd0dc28a	-0.034609355
110	0x3bec39df	0.007209047
111	0x3c53bdd8	0.01292368
112	0xb8c73b3f	-9.500095e-05
113	0x3d46f12f	0.048569854
114	0x3d2a24c1	0.041538958
115	0xba9a1a06	-0.0011757023
116	0xbd1ff011	-0.039047305
117	0x3d84e235	0.06488458
118	0x3ccad6ba	0.024760593
119	0xbb6cad74	-0.0036114128
120	0xba0f9311	-0.00054769317
121	0xbc44bac0	-0.012007415
122	0x3dd1326f	0.102146976
123	0xbdee9a3e	-0.11650513
124	0xbc1880e0	-0.00930807
125	0xbd4c73bb	-0.049915057
126	0x3dcac405	0.09900669
127	0xbd0b8465	-0.03406181
128	0x3dfe397c	0.12413308
129	0xbd4c2207	-0.04983714
130	0x3dc39b55	0.095511116
131	0xba21023d	-0.0006141996
132	0xbdcb9784	-0.09941009
133	0x3e1596e8	0.14608347
134	0xbe1234fa	-0.14278021
135	0xbd5cdff5	-0.05392452
136	0x3ce1d3c9	0.027566807
137	0x3d82456b	0.06360897
138	0xbdc5f696	-0.09666173
139	0xbe1b3257	-0.15155922
140	0xbe37abbe	-0.17936608
141	0x3d1dc5c2	0.038518675
142	0xbcebf03c	-0.028801076
143	0xbc13bdf2	-0.009017454
144	0x39ac531e	0.00032868324
145	0x3c8878e5	0.01665921
146	0xbb432195	-0.0029774655
147	0x3c83f960	0.016110122
148	0x3a523070	0.0008018082
149	0xbd191177	-0.03737017
150	0xbb021c3b	-0.0019853252
151	0xbcbde911	-0.023182424
152	0xbb74ebe3	-0.0037372045
153	0xbd4060e7	-0.046967413
154	0x3dd56fce	0.10421716
155	0xbd3fca19	-0.046823595
156	0x3dc4c9bf	0.096087925
157	0x3da5ce2e	0.08095966
158	0x3c2b4033	0.010452318
159	0x3dcf247c	0.10114381
160	0xbd80ed8c	-0.062953085
161	0xbd310e46	-0.043226503
162	0xbde911e7	-0.11380368
163	0x3d7973d1	0.060901467
164	0xbd5e9d37	-0.05434915
165	0xbab26b9c	-0.0013612392
166	0xbcdb1161	-0.026741685
167	0xbe2bb47d	-0.1676807
168	0x3d465154	0.048417404
169	0x3d281ec0	0.04104495
170	0xbd84315e	-0.064547285
171	0xbd8da0cd	-0.06915436
172	0xbd7a37a5	-0.061088223
173	0xbda4310f	-0.0801717
174	0x3d83aa89	0.064290114
175	0xbb885e83	-0.0041616573
176	0x39c6b176	0.00037897722
177	0xbd97b007	-0.074066214
178	0xbcc2f3d9	-0.023797916
179	0xba8b74bc	-0.0010639648
180	0x3e060d4f	0.13091014
181	0xbc97e6d7	-0.01854269
182	0x3c6de957	0.014520965
183	0x3ac266ad	0.0014831625
184	0x3ad47566	0.0016209304
185	0x3ba1f1ae	0.0049421405
186	0xbda4a452	-0.08039154
187	0x3dd8b431	0.10581244
188	0xbd538e68	-0.05164948
189	0xbd236393	-0.039889883
190	0x3db5a405	0.08869175
191	0xbd768700	-0.06018734

net.output_layer.bias f4 [3]
0	0xbc869c75	-0.016432026
1	0x3d27acb0	0.040936172
2	0xbc5c9632	-0.013463544
