Pyrado/data/perma/experiments/hop/ppo_fnn/2021-11-17_16-49-59/vfcn.pt (torch, 22501 bytes, 5 tensors)

net.hidden_layers.0.weight f4 [64, 11]
000000 49 36 00 3f 43 fc d6 be b9 ef 93 bc 92 48 3b 3f
       0.5008283 -0.41989335 -0.018058645 0.7315761
000010 7b 9d fe 3f 78 c1 11 be cb ae 1b bd a8 06 15 bd
       1.9891809 -0.14233959 -0.038008492 -0.0363833
000020 5e 41 26 bd b4 64 b8 3c 11 a0 a1 3c 96 ad 55 3e
       -0.040589683 0.022508956 0.019729646 0.20866999
000030 8a a2 bf 3e 8c c6 66 3d c0 91 5d 3f c8 30 29 3f
       0.37428695 0.056341693 0.8655052 0.6609006
000040 64 35 e1 be 92 30 29 3f 28 cc c6 be a5 68 9c 3e
       -0.43986046 0.6608974 -0.38827634 0.30548587
000050 73 ed 1b 3e 27 37 aa 3d c3 c1 a3 3e b3 97 5e bf
       0.15227298 0.08311301 0.31983766 -0.86950225
000060 7d 4f 3d 3f f5 52 cc bf 61 97 1f c0 39 43 7a 3e
       0.73949414 -1.5962816 -2.4936144 0.24439706
000070 82 77 f6 3e 40 03 61 be 55 be 84 3e 45 b8 e3 3d
       0.48138052 -0.21973896 0.25926462 0.11119131
000080 da 13 9f 3e 88 50 48 3d 9d e1 12 c0 0e d4 98 3d
       0.31069833 0.048904926 -2.2950203 0.07462321
000090 74 40 22 3f 55 51 5d 3e 40 bd ef be cd da 1c bf
       0.633796 0.21613057 -0.46824074 -0.61271363
0000a0 36 01 4a bc 7a 10 a7 bd 31 be e2 3c af 45 82 3e
       -0.01232939 -0.081574395 0.027678581 0.2544379
0000b0 69 28 35 3d ef 85 02 c0 c6 16 0d 40 99 db 85 bb
       0.04422799 -2.0394247 2.204515 -0.004085016
0000c0 36 32 4f bd 49 90 3a bf 95 0e b5 3e ee a7 9c bd
       -0.050584994 -0.7287641 0.35362688 -0.076492175
0000d0 02 1c 71 be e6 8b 69 3d d3 92 cc 3c 95 b3 0f bf
       -0.2354584 0.057018183 0.024972355 -0.56133395
0000e0 ff f2 cb bf e0 de ae 3e 0c cb f1 3f 21 c9 16 3f
       -1.5933532 0.34154415 1.889009 0.5890065
0000f0 67 56 23 be d3 9c 77 3d 34 87 5b 3f 77 3a 2b bf
       -0.15950929 0.060452294 0.8575318 -0.66886085
000100 db 79 ca be af 00 c6 bd cd 78 58 3e 03 0f 09 40
       -0.39546093 -0.09668099 0.21139832 2.1415412
000110 9b cf b1 3e 4d fe dc bd 66 6b e0 be 63 46 83 bd
       0.34728703 -0.107906915 -0.43831939 -0.064099096
000120 b8 93 2f bf 75 e4 b5 3d 65 6b c5 bd 5c d3 0d 3d
       -0.68584776 0.08881465 -0.096396245 0.034625396
000130 a8 fd 3f 3e ff a2 95 bd 4d 54 dd 3f 21 fc e0 bf
       0.18749106 -0.0730648 1.7291352 -1.7576944
000140 09 14 34 3c 06 5e 1b 3f a9 fe 53 3f 73 7c cf bd
       0.010991105 0.60690343 0.82810456 -0.10131159
000150 5f 1e 61 bc cb 02 8d 3c d5 0c 8e 3d 8e 9d af bd
       -0.013740151 0.017213246 0.06936041 -0.08574973
000160 8c 20 bc 3d 6a 5a 7d 3f b9 6c d1 be ba a3 02 3f
       0.09185895 0.98966086 -0.4090326 0.51031077
000170 94 55 41 3f c4 73 f8 3e 24 8a 59 3e c0 10 8b 3f
       0.75521207 0.48525822 0.21244103 1.0864487
000180 40 0a 82 bf 7b fa 21 bf 87 06 84 bd b8 7d 20 3c
       -1.0159378 -0.6327283 -0.064465575 0.009795599
000190 22 87 89 3f c9 c4 48 bf 6b 1a 82 3e 25 06 d4 be
       1.0744364 -0.7842527 0.2541078 -0.41410938
0001a0 4c bb 83 3e 78 3b 45 3e f0 5e 8c be 31 da 94 3e
       0.25728834 0.19260967 -0.27416182 0.29072717
0001b0 07 77 eb be c5 cf 6b bd 54 b0 06 3f 98 04 a7 3f
       -0.45989248 -0.05757119 0.52612805 1.3048277
0001c0 7b 08 54 3f b7 ab b2 bf c5 21 d2 bf c4 ce b0 3e
       0.8282544 -1.3958653 -1.6416556 0.3453275
0001d0 e8 7b 41 be f9 22 43 bf 64 7a 25 3f 48 41 06 3f
       -0.18894923 -0.7622524 0.6463988 0.5244336
0001e0 90 c4 70 3d 70 f7 cc be 25 30 a4 3e d5 d5 b2 3e
       0.058781207 -0.4003253 0.3206798 0.34928766
0001f0 f6 9e d5 bd 24 b0 ad 3e 49 cd 9b bf 23 55 09 be
       -0.1043071 0.33923447 -1.2172023 -0.13411383
000200 d2 cf 04 3f 1a 92 1f 3e 71 1f 7a 3d e9 2b c2 bb
       0.5187961 0.15583077 0.06106514 -0.0059256447
000210 4b 91 6d 3e 3c b8 4d bf 89 9f 73 3f 58 8a 38 bf
       0.23199956 -0.80359244 0.95165306 -0.72086096
000220 2b f5 c7 bf 56 2f 24 3e 01 fc 04 3f c3 df 26 be
       -1.5621694 0.16033682 0.5194703 -0.16296296
000230 1f 48 12 3f 7a 51 10 bd a1 bc bc 3e 37 0f 49 be
       0.571413 -0.035233952 0.36862662 -0.1963471
000240 05 00 b6 be 96 3e 27 bf 18 06 e9 be e5 a8 28 be
       -0.3554689 -0.65329874 -0.45512462 -0.16470678
000250 68 76 b5 3e 04 87 04 be f1 bd dc bc 70 46 35 bd
       0.354419 -0.1294213 -0.02694604 -0.044256628
000260 9f 88 0c bc 73 13 cc bb 49 3f ac be 07 bc ae bf
       -0.008577495 -0.0062279045 -0.33642033 -1.3651131
000270 3c 0b c1 3f ac f8 a6 ba 25 f2 a6 bd 95 9d 21 bf
       1.5081553 -0.0012738905 -0.08151654 -0.63131076
000280 f8 3f a9 3e 0c 26 54 3e 68 cf 57 be 2a 73 71 be
       0.33056617 0.20717639 -0.21075213 -0.23579088
000290 8a ef 41 bd 80 ad a1 be 56 c5 e6 3e f6 df 5b bf
       -0.047347583 -0.31577682 0.4507243 -0.8588861
0002a0 35 c5 7a 3f e5 68 75 3f 9f 53 c0 be 15 07 13 bf
       0.97957164 0.9586318 -0.37563798 -0.5743268
0002b0 11 b2 46 be e9 f5 b7 3d 04 d7 56 3d c0 a8 76 bd
       -0.19403864 0.089824505 0.05245115 -0.060219526
0002c0 e8 cf 65 bd 09 8e 8c bf 0c ed 42 3f 2c b4 d7 be
       -0.056106478 -1.0980846 0.76142955 -0.42129648
0002d0 86 44 d4 be a6 52 39 bf 3b ec 5c 3f b6 63 bf be
       -0.4145853 -0.72391737 0.8629796 -0.3738076
0002e0 ee 63 fc 3e ff 7c 4a 3e 44 40 2f 3e 24 d6 72 3f
       0.4929499 0.19774245 0.17114359 0.94858
0002f0 7c 6a a9 3d 4d 44 03 3f 99 5a 6f 3f c3 8a 0a 3f
       0.082722634 0.51276094 0.93497616 0.54117984
000300 32 8c ca bd f7 98 26 be 37 f3 9c be e5 8f 9a 3e
       -0.098900214 -0.16269289 -0.30654308 0.30187908
000310 27 aa fc 3d 8a 59 be 3c ab c6 06 be d8 04 97 3f
       0.123371415 0.023236055 -0.13161723 1.1798353
000320 79 2e 61 3d e7 fb ee bd d0 ba 81 bf ab 56 e2 be
       0.05497596 -0.1166914 -1.0135136 -0.44206747
000330 6b 40 22 bf 4e d5 35 be ef dc 27 3f 81 95 45 be
       -0.63379544 -0.1775715 0.6557149 -0.19295312
000340 87 19 3a 3c cd 1a fd be 83 e4 f4 3e 4e 60 16 3e
       0.011358625 -0.4943451 0.4783059 0.14685175
000350 48 b8 38 bf 53 40 65 bf 63 74 49 be 6e 31 4b 3f
       -0.7215619 -0.89551276 -0.19673304 0.793723
000360 b7 91 18 3f 08 38 0a bf 91 52 25 be 71 ab 69 bd
       0.59597343 -0.53991747 -0.16144778 -0.057048265
000370 48 aa a9 3e 78 cb 8e 3f fc 43 9f bf 9b ba 6c 3d
       0.33137727 1.1155844 -1.2442622 0.05779515
000380 20 d8 98 3e b8 b9 80 3f e5 0a f7 bd 4c b3 8e 3c
       0.2985239 1.0056677 -0.12062625 0.01741948
000390 7d 32 65 be 2e 63 8f 3d 27 57 85 bd a2 c3 3e bf
       -0.22382541 0.07001339 -0.065107636 -0.7451726
0003a0 8a d6 14 be f8 bf 1c bf 31 09 65 3f 81 8f 52 3f
       -0.14534965 -0.6123042 0.8946715 0.8225022
0003b0 3d 18 be bd e9 0e 60 be 0f 5b 1b be 79 92 e3 3c
       -0.09281967 -0.21880688 -0.15171455 0.027779805
0003c0 08 91 ba 3b fb b4 74 3d c6 da e1 3e 25 4c 18 c0
       0.0056935586 0.05974291 0.44112223 -2.3796475
0003d0 e9 17 3a 3d 6e 4c 50 3e 05 49 b9 3d 6d d3 6d bd
       0.04543296 0.20341656 0.090471305 -0.05806296
0003e0 c6 5e dd 3e f5 cf a4 3e 3d 32 a2 3d 9e 34 f7 bd
       0.4323637 0.3218991 0.079197384 -0.12070583
0003f0 cb 11 f2 bd 3e 39 da be 45 20 b1 3f 0b 29 be be
       -0.118198 -0.42621797 1.3837973 -0.37140688

net.hidden_layers.0.bias f4 [64]
000000 ae f8 d6 3e 7b 27 03 3f e3 24 72 be 92 d8 04 3f
       0.41986603 0.5123212 -0.23646884 0.5189296
000010 91 f3 7f 3c de 2b 0d 3f e6 4e 8b 3c 31 9d c2 bd
       0.015622036 0.5514506 0.017005395 -0.09502638
000020 03 4a e6 be d9 98 e4 be db 8c 76 be 74 b9 3a be
       -0.4497834 -0.44647864 -0.2407717 -0.18234807
000030 b7 18 a5 be 91 a6 88 bf 25 98 be be 58 a6 9c be
       -0.32245418 -1.0675832 -0.37225452 -0.3059566
000040 3c 34 ab be d8 e0 54 3f 0f df 99 be cb 0d 60 bf
       -0.3343829 0.83155584 -0.30052993 -0.87521046
000050 3c d9 2d 3e e6 ba 2d bf 24 52 98 3e 67 39 23 bf
       0.169774 -0.6786331 0.29750168 -0.63759464
000060 f0 6e 75 3e bd 24 5a 3f 43 06 ba 3e 87 9a 15 3f
       0.239681 0.8521231 0.36332902 0.58438915
000070 47 e6 3a 3e 72 71 1a 3f fd 66 20 bf 7c 8d 5f be
       0.18251906 0.60329354 -0.6265715 -0.21831316
000080 e2 fc 0e bf 47 40 f6 be 89 87 3c bf ca cb d8 be
       -0.5585462 -0.48095915 -0.7364431 -0.4234298
000090 6c 59 05 bf f4 4f 4a 3f cc e5 f0 be ce b6 5c bf
       -0.5208957 0.7902825 -0.4705032 -0.8621644
0000a0 c4 7e ab 3e fc 68 b9 be 77 c1 94 be 20 25 eb 3e
       0.33495152 -0.3621291 -0.29053852 0.45926762
0000b0 7a 5f ef 3e 04 b6 0e bf da 17 49 3f 6f 6e af 3e
       0.4675253 -0.55746484 0.7855202 0.34263942
0000c0 7b f9 fd be 9f f8 23 3f 99 92 9c be 02 e1 b7 3e
       -0.496044 0.6405124 -0.30580595 0.35913855
0000d0 4f db 74 3f ad 50 e9 be 1f bb 2f bf 16 50 a3 3e
       0.9564714 -0.45569363 -0.686449 0.31897038
0000e0 e0 42 1a bf d3 17 39 3e 55 db 5c bf fa c4 81 bd
       -0.60258293 0.18075494 -0.86272174 -0.063363984
0000f0 8c a6 44 bf dc 65 0c 3f 3b 12 ae be 8c 0b 33 bf
       -0.7681663 0.54842925 -0.33998284 -0.69939494

net.hidden_layers.1.weight f4 [64, 64]
000000 6a 30 3d 3f a7 fb c1 3f 6f d1 93 bf f7 fa e3 3e
       0.73902 1.5154923 -1.1548289 0.44527408
000010 c4 4a a4 be bb f5 af 3f 1d 85 14 be 45 33 f3 3d
       -0.32088292 1.3746866 -0.14503904 0.11875013
000020 48 37 b6 bf 2d 12 01 bf 2a de ae bf bc 8d 0f bf
       -1.423562 -0.5041836 -1.3661549 -0.56075644
000030 76 a4 34 bf 35 39 da bf 1d 6c d7 be 58 f6 19 bf
       -0.7056345 -1.7048708 -0.4207467 -0.60141516
000040 fe 18 ce 3e ff 31 a1 3f e8 69 ed be b4 e4 4b bf
       0.40253443 1.2593383 -0.46369863 -0.7964585
000050 2f 8f cf 3e 4e e6 07 bf cb 1e 91 3d 0c 29 95 bf
       0.40538928 -0.5308579 0.070859514 -1.1653152
000060 e8 3a a9 3f e1 52 d3 3f 0d 31 84 3f 3c 12 ff 3e
       1.3221102 1.6509668 1.0327469 0.498186
000070 72 69 01 3f 7a 4d 4e 3f fb f6 03 c0 1c 02 d6 bf
       0.5055152 0.8058697 -2.0619495 -1.6719394
000080 53 36 d3 be 3d 8d 4a bf 15 c5 7c bf e1 f8 59 bf
       -0.41252384 -0.7912176 -0.98738223 -0.85145384
000090 3c d1 32 bf 28 8e 2f 3f 8e a2 37 be d5 81 aa bf
       -0.69850516 0.6857629 -0.17933103 -1.3320872
0000a0 d1 65 07 3f 83 a0 0f bf 2d d2 4a bf eb a1 e0 3f
       0.52889735 -0.56104296 -0.7922695 1.7549413
0000b0 18 5f c9 3e 11 de 10 bf a0 7b b6 3f 1b 03 2a 3f
       0.39330363 -0.56588846 1.4256477 0.6641099
0000c0 a5 0f 5c bf 96 18 4c 3f b5 85 29 bf 0c a0 4b 3f
       -0.8596137 0.79725015 -0.66219646 0.7954109
0000d0 e0 3f ed 3f 26 89 9f bf e4 a3 2a bf c7 0b 40 3f
       1.8535118 -1.2463729 -0.6665633 0.7501797
0000e0 0f 6a 89 bf a4 7c 5d 3f 97 3d 0e bf 24 42 5a 3e
       -1.0735492 0.8651831 -0.5556273 0.21314293
0000f0 d3 fa 50 bf ee 9b ae 3f 0b 71 3a bf 52 84 1a bf
       -0.8163273 1.3641336 -0.7282874 -0.60358155
000100 e8 a4 4e be 1d c8 2a be 1c 02 ae be cc 4a 62 3e
       -0.20180094 -0.166779 -0.33985984 0.22098845
000110 ac 87 2a 3f a1 0c 52 bd 1e d9 89 be 6d 12 dd be
       0.6661327 -0.051281575 -0.2692346 -0.4317812
000120 76 83 ce be 93 c1 a2 3e 41 69 db be 5b 85 b4 3e
       -0.40334672 0.3178831 -0.4285374 0.35257992
000130 2e e6 1d be 6e 8e 51 3e f2 eb cb 3e a0 ca 9b 3e
       -0.15419838 0.20464489 0.3982845 0.30428028
000140 6f e4 94 3e f2 f0 e0 bd 66 ad c9 3e fb 83 2f 3e
       0.2908053 -0.10983457 0.39390105 0.1714019
000150 30 fa d3 be b9 28 c6 3e 83 21 51 be 4a 23 5f 3e
       -0.41401815 0.38702944 -0.2042294 0.21790805
000160 1e 76 2f bd 9f 45 3f be 5d 65 63 3e 40 d2 47 be
       -0.042837255 -0.18678902 0.22206636 -0.19513798
000170 4b 10 a8 be b3 e6 b1 be 93 68 4e be 01 92 81 3d
       -0.3282493 -0.34746322 -0.2015708 0.06326676
000180 cb cd 0d 3f 8e 0d ee bd 34 11 95 3e 11 1c 9d 3e
       0.5539214 -0.11623679 0.29114687 0.30685475
000190 3c 15 fe 3d d6 e8 bd be 11 ca 84 3e d7 a5 ba bd
       0.12406394 -0.37091702 0.25935414 -0.09113663
0001a0 a0 8d e3 be 05 3a 0d bf d2 f7 4f bd dc 44 13 be
       -0.4444399 -0.55166656 -0.05077345 -0.14381737
0001b0 e3 96 b6 be b4 32 16 3f 87 83 91 be fe 7b db 3e
       -0.35661992 0.58671117 -0.2842066 0.42868036
0001c0 ee c0 0e 3e 1e 4e 0a be a3 0f 20 3e 03 36 96 bd
       0.13940784 -0.13506362 0.15630965 -0.07334521
0001d0 95 59 85 be 9d 65 33 3e 42 59 b4 3e 68 58 59 3e
       -0.26044908 0.17519231 0.35224348 0.2122513
0001e0 4d a4 d4 3d 7b 98 01 be a5 e9 d8 3d 42 b7 cd 3e
       0.103829004 -0.12655823 0.10591439 0.40178877
0001f0 0c 0c 99 3e 80 39 43 be 25 d2 3c be f3 e2 82 3e
       0.29892004 -0.19064903 -0.18439539 0.25563774
000200 5b 27 19 3f 3e 25 f1 3e 48 9d 44 3e fa e8 c8 3e
       0.59825677 0.47098726 0.19200623 0.39240247
000210 28 e4 90 be bb 7c a6 3d e7 c4 52 3e 47 0a 88 3e
       -0.2829907 0.08129259 0.20582925 0.2657034
000220 0b c9 36 be 3a 0c e7 bc 10 58 30 3e 9b 0c a7 be
       -0.1785013 -0.028204072 0.17221093 -0.32626805
000230 50 1f 19 3e ff a8 56 be f4 86 d3 be a8 01 53 be
       0.14953351 -0.20962904 -0.413139 -0.206061
000240 14 ce 28 3e dc 43 a1 3e 18 0b d2 bd 9b 51 44 bd
       0.16484863 0.31497085 -0.10256022 -0.047929388
000250 91 dc 82 3e 30 53 8d be d1 14 00 3f 89 23 0f bf
       0.25558904 -0.2760253 0.50031763 -0.559136
000260 9c c4 c3 3e e4 38 f4 3e d2 77 85 bd 31 5e 0a 3e
       0.3823594 0.47699654 -0.065169945 0.13512494
000270 7b 78 79 3e de 6e f8 3e a2 97 a1 be 7c 1e 89 3e
       0.24362366 0.48522085 -0.31561 0.2678107
000280 2c c5 ff bc d7 74 85 be 95 77 0c 3f dd 74 85 bf
       -0.031221949 -0.26065704 0.5486997 -1.0426289
000290 11 0b 9b bf 11 e6 5a 3e 74 59 17 bf 2d 66 b2 bd
       -1.2112752 0.21376826 -0.5912087 -0.08710895
0002a0 3c ce 26 be ae 09 71 3e 92 91 30 be e0 c6 e6 3e
       -0.1628961 0.23538849 -0.1724303 0.45073605
0002b0 98 8b b3 3e e9 9b 53 be 34 7a a5 3e bd cd 58 be
       0.3506744 -0.20664944 0.32319796 -0.21172233
0002c0 65 67 d0 be 15 e5 01 be f5 a7 08 bf 2d d1 2c 3f
       -0.40703884 -0.12685044 -0.5338128 0.67506677
0002d0 0f 02 69 3e 20 e5 ed 3e 9c 93 14 3e 78 fc c9 bc
       0.22754692 0.4646387 0.14509434 -0.02465652
0002e0 c6 70 e4 be fa 25 c7 3e 85 93 27 be 89 88 35 be
       -0.4461729 0.3889616 -0.16364868 -0.17727865
0002f0 78 4c 07 3d 10 d4 39 3f 59 fc 98 3e 22 76 15 bd
       0.03303191 0.72589207 0.29880026 -0.036489613
000300 7d 29 55 be 08 75 24 be fb bb 30 be d8 eb 66 3e
       -0.20816608 -0.16060269 -0.17259209 0.22550905
000310 57 7d 47 3e 58 22 b0 3b 95 74 3d be 6f 65 09 be
       0.19481407 0.005375188 -0.18501504 -0.134176
000320 be 2d 46 3d 22 43 99 3e 2c 39 51 bf c8 fe 5c 3e
       0.048383467 0.2993403 -0.8172786 0.21581566
000330 71 61 7e bc 40 12 ce 3e 16 5c 3b 3e cd 17 dd 3e
       -0.0155261615 0.402483 0.18296847 0.4318222
000340 ab d6 aa 3d 87 d5 5d be 54 e7 0a 3d 06 e8 9e be
       0.08341726 -0.21663485 0.033912018 -0.31036395
000350 7f aa 90 be 02 aa f2 3e 2c 6e 2f 3e 08 8f dd 3e
       -0.28255078 0.4739533 0.17131871 0.43273187
000360 f8 87 c1 3d f2 a7 d1 be b4 be 2d 3e be 01 20 bf
       0.09449762 -0.40948445 0.16967279 -0.6250266
000370 e3 b7 82 be 12 bf 01 bf ad 8d fc 3c f4 9e 0f 3f
       -0.2553092 -0.50682175 0.030829275 0.5610192
000380 70 6c b7 3e 84 57 46 bf e0 9e 6a 3f 19 c0 87 be
       0.3582492 -0.7747729 0.91648674 -0.26513746
000390 a5 f9 a5 be 49 1c 92 be 03 47 44 3d 07 8a ea 3e
       -0.32417026 -0.28537205 0.047919285 0.45808432
0003a0 31 a7 c9 be f9 67 5b be cc 90 0f bf 2d a6 9a be
       -0.3938537 -0.21426381 -0.5608032 -0.30204907
0003b0 08 9e 9e 3d 62 31 1d 3f 4a 81 2e 3d e9 20 ae 3e
       0.07744986 0.6140348 0.04260377 0.34009483
0003c0 e1 f9 e0 bd a9 3a 48 bf 15 92 f2 3d 2d b1 d1 be
       -0.109851606 -0.7821451 0.11844269 -0.40955487
0003d0 05 fa 1f bf 3a 0b ad 3e 7b af c7 bd 03 22 e8 3d
       -0.62490875 0.33797628 -0.09750267 0.11334612
0003e0 ef 64 79 3d 89 14 98 be c9 16 09 3f 18 f8 9d 3e
       0.060887273 -0.29703167 0.5355039 0.30853343
0003f0 80 42 63 3f 23 7e 04 3d 53 d6 60 3e ac c9 ae 3f
       0.88773346 0.032346856 0.21956758 1.3655295

net.hidden_layers.1.bias f4 [64]
000000 dd 37 d5 3e da 8b e3 be d1 17 90 3e 55 d6 bd bc
       0.41644183 -0.44442636 0.2814317 -0.02317349
000010 6c 71 d3 bd 85 e8 1f 3e dd fb 00 be 59 a6 d5 3d
       -0.10324368 0.15616043 -0.12596078 0.10432119
000020 c9 b6 aa be ee 81 84 3e 71 d7 17 3d 30 58 96 3e
       -0.3334258 0.25880378 0.037070695 0.29364157
000030 4a c6 a1 be 9a 7b b6 be e0 72 72 3e 33 47 85 be
       -0.31596595 -0.35641176 0.23676634 -0.26030883
000040 cd dc 91 bc ff b6 ac be 53 f1 b0 3c 7e 84 f8 be
       -0.017805481 -0.33733365 0.021599447 -0.48538584
000050 30 e5 38 3e bc 33 5b bd 06 61 19 bf d8 72 d4 bd
       0.18056178 -0.053516135 -0.5991367 -0.10373467
000060 a4 74 25 be 34 36 9e be c0 c3 85 3e b3 bd d1 3e
       -0.16157776 -0.3090073 0.26125908 0.40965042
000070 4a be d0 be a4 bb 95 be c0 5a ae be 66 d2 83 3e
       -0.4077018 -0.2924472 -0.34053612 0.2574646
000080 cd e5 d9 be 5b 2f 1a 3d 63 8d fd 3e 42 63 86 be
       -0.42558137 0.037642818 0.49521932 -0.26247603
000090 a3 64 5a 3d fe 7d a4 bd f8 1c 71 be 1e 8f 1e be
       0.05331863 -0.080318436 -0.23546207 -0.15484282
0000a0 aa 30 55 3e 62 2f d7 be 6b 9f dd 3e 73 20 a6 3e
       0.20819345 -0.42028338 0.4328569 0.32446632
0000b0 aa 4b 41 be eb 61 ce be 9c c6 80 3e 78 51 de be
       -0.1887652 -0.4030908 0.25151527 -0.4342153
0000c0 ee e3 f4 be 70 6a 9a bd 88 9e 95 3d 06 93 b7 be
       -0.47830147 -0.075398326 0.07305628 -0.35854357
0000d0 de 71 0a 3e 14 d4 2d 3e 81 78 c0 3d fd a7 a5 3d
       0.1352 0.16975433 0.09397984 0.08088682
0000e0 27 bd 76 3e 7e f0 c0 be 4f 4a 10 3e 31 59 8a be
       0.24095593 -0.3768348 0.14090846 -0.27021173
0000f0 3a 83 1f 3e 73 bc 0f bd 6f 1d 25 3c a6 a4 bf be
       0.15577403 -0.03509183 0.010077818 -0.37430304

net.output_layer.weight f4 [1, 64]
000000 44 3e 17 41 0a 9c 11 c1 0b 7a 10 41 f2 bc 0f c1
       9.452702 -9.100595 9.029796 -8.983629
000010 8c 37 10 c1 c8 df 10 41 15 0c 17 c1 88 ca 10 c1
       -9.013561 9.054634 -9.44045 -9.049446
000020 a5 82 11 c1 93 2e 17 41 25 3e 11 41 5f 61 10 41
       -9.094396 9.448871 9.077672 9.023772
000030 c7 df 10 c1 0d e7 15 c1 8d 4f 11 41 f4 77 0f c1
       -9.054633 -9.368909 9.081922 -8.966785
000040 b0 c7 0f 41 7e 8c 10 c1 cb db 0f 41 64 06 10 c1
       8.986252 -9.0343 8.99116 -9.00156
000050 2a 4e 0f 41 18 b6 0f c1 2f cb 10 c1 79 ab 10 c1
       8.956583 -8.9819565 -9.049605 -9.041863
000060 98 ca 10 41 dd bd 14 c1 de 20 11 41 89 89 0f 41
       9.049461 -9.296353 9.070524 8.971078
000070 93 62 10 c1 59 b3 12 c1 d4 02 11 c1 15 12 11 41
       -9.024066 -9.168786 -9.06319 9.066915
000080 ae 8f 14 c1 c4 e1 11 41 fa 74 17 41 4a 57 1d c1
       -9.285078 9.117619 9.466059 -9.833811
000090 68 fb 0f c1 dd 4e 11 c1 1d 35 10 c1 f9 f1 2c 41
       -8.9988785 -9.081754 -9.012967 10.809075
0000a0 78 5a 11 41 46 01 10 c1 f9 4d 10 41 44 8c 0f 41
       9.084587 -9.000311 9.019036 8.971745
0000b0 38 24 10 c1 4b 8a 11 c1 ff f3 10 41 87 fd 0f c1
       -9.008842 -9.096263 9.059569 -8.999396
0000c0 14 58 11 c1 21 f3 1e 41 c2 1b 10 41 f7 ae 18 c1
       -9.084003 9.934358 9.006777 -9.542716
0000d0 6d ef 11 41 c8 e0 13 41 5f 09 11 41 2d 1f 11 41
       9.120954 9.242378 9.064788 9.070111
0000e0 2a 09 10 41 f3 11 11 c1 38 c0 10 41 5b 53 0f c1
       9.002237 -9.066882 9.046928 -8.95785
0000f0 a0 27 11 41 d7 bb 10 41 f7 cd 10 c1 cd 83 10 c1
       9.072174 9.045859 -9.050284 -9.032178
